g13agent_p2.pth (torch, 505904 bytes, 8 tensors)

fc1.weight f4 [256, 122]
00000000: e01d ed41 1b6c ee41 01f3 f041 6c03 e641
00000010: a188 ce41 c928 de41 34ce db41 53b8 e841
00000020: a7f0 ec41 0084 8f41 cf51 8041 623e e741
00000030: 3c1c e041 e1c3 e141 ae5c d641 ad2c ca41
00000040: db5c d441 5668 bd41 b86f a841 fbcb c941
00000050: 0027 c941 29d4 9e41 e736 e241 edb1 de41
00000060: d210 c941 a684 cb41 db9a d741 a08b ac41
00000070: cb3d 7841 edb7 e441 75b5 e141 2525 9441
00000080: 7882 cf41 8b3b eb41 20cd de41 90a3 a241
00000090: 9db9 d041 59c2 ab41 8a22 a441 0391 6841
000000a0: 0ec5 c041 8353 b841 55d0 6c41 c6f8 d741
000000b0: c6ab dc41 ed82 cf41 a526 9741 d5f3 8541
000000c0: ad00 9741 1b0c c741 f230 4e41 2dd7 cf41
000000d0: b223 9341 7657 d841 9bce ed41 ad43 e741
000000e0: b9b9 dc41 c1d2 a641 f6bb b741 a701 7141
000000f0: c9eb 5541 50bb 5a41 63c1 9a41 a99b 7141
00000100: b9a6 ce41 c359 de41 84f4 e441 ae54 df41
00000110: 8cf9 4e41 c9bf 4e41 f9a4 4e41 d42a 6641
00000120: e193 5541 383e 5f41 7dc2 c441 452f e341
00000130: 5efe ec41 413e d541 0d45 dd41 6cda b741
00000140: 6a2f 8541 565c a041 841f b141 28e9 9141
00000150: d501 c541 1c19 ca41 d84e db41 a053 ec41
00000160: 764f 8d41 cabf c841 a23e 6041 f847 9741
00000170: 51d0 5041 2749 ab41 cd40 db41 9050 c541
00000180: 2173 dd41 2e05 e941 6485 e341 ba33 b341
00000190: 4bff 4c41 f89c c741 e6cb cb41 b09c d141
000001a0: 8e6b e641 a03b e141 38cc e341 5b4c f241
000001b0: 8175 da41 58f5 e241 9d86 8441 2808 b641
000001c0: c4c7 d441 d46c d941 bedc ed41 635b e441
000001d0: a4c9 de41 678b ee41 d0ee f241 4183 ee41
000001e0: d574 f141 9051 84bb fd20 ed41 414f ee41
000001f0: d0ab f041 7e37 e541 5ef9 ce41 0021 de41
00000200: 4e5d db41 cc1d e841 3ec0 ec41 c061 8e41
00000210: 497b 8041 9112 e641 7f11 df41 d504 e141
00000220: c12d d641 1d88 c941 d061 d441 4b94 bc41
00000230: cc47 a841 f404 ca41 42bf c941 4a4a 9f41
00000240: 5132 e241 131b de41 c3b6 c741 001b cc41
00000250: c919 d741 1bbf ab41 e30b 7741 a9b4 e441
00000260: 9986 e141 bae0 9341 9453 d041 4378 eb41
00000270: ba6c dd41 7a04 a241 942f d041 f311 aa41
00000280: d0ac a341 27ac 6741 0f5a bf41 e911 b841
00000290: a8ba 6b41 89a5 d641 9f0c dc41 fab4 ce41
000002a0: a1cb 9641 3a38 8541 2a8b 9741 8bc2 c641
000002b0: 73d7 4d41 3877 cf41 fbf8 9341 200d d841
000002c0: d059 ee41 2585 e741 33cb db41 bffe a541
000002d0: 304e b641 df4e 7041 590d 5641 8f77 5941
000002e0: 99d8 9a41 cda7 7041 c399 ce41 61af dd41
000002f0: b03b e541 d86e de41 5fb3 4d41 deaa 4f41
00000300: d97b 4f41 a25d 6541 2654 5341 7fa2 5c41
00000310: 3ff6 c441 4e89 e241 8c23 ed41 7e5e d441
00000320: 5a9e dc41 db8b b641 bed2 8441 84e1 9f41
00000330: 52d4 b041 7ca2 9141 ed8e c441 336a ca41
00000340: d815 db41 0cbf eb41 dfef 8c41 9b81 c841
00000350: 1383 5d41 fda3 9741 7575 5141 591a ac41
00000360: b071 db41 4350 c541 5d6a dd41 b811 e941
00000370: a379 e241 7b31 b341 b7be 4c41 99ed c541
00000380: 37e0 cb41 3b5a d241 982b e641 c531 e141
00000390: d77a e341 31ae f241 cb5c db41 8ffc e141
000003a0: a1fc 8341 3df8 b441 8cbb d341 d00f d941
000003b0: c8c1 ed41 66c5 e341 5c60 df41 2a62 ed41
000003c0: 4b1b f241 5c86 ee41 a84d f141 c0fe 8a3d
000003d0: 4a3c ec41 50b5 ed41 b69c f041 cc30 e541
000003e0: 2578 ce41 2716 de41 47bc db41 084f e741
000003f0: 8632 ec41 db60 8e41 2310 8041 17f3 e541
29.639587 29.802786 30.118654 28.75167 25.816713 27.769915 27.475685 29.090002
29.617506 17.939453 16.039946 28.90546 28.013786 28.220644 26.795254 25.271814
26.54534 23.675945 21.05455 25.2246 25.144043 19.853594 28.276808 27.836878
25.133213 25.43977 26.950613 21.568176 15.515086 28.589808 28.213602 18.518137
25.938705 29.404074 27.850159 20.329865 26.090631 21.469896 20.516865 14.535403
24.096218 23.040777 14.800862 26.996471 27.583874 25.938929 18.89387 16.744059
18.87533 24.88091 12.88695 25.980066 18.39243 27.042706 29.725882 28.908045
27.590685 20.852907 22.966778 15.062903 13.370065 13.670731 19.344427 15.100503
25.831408 27.793829 28.619392 27.916348 12.935925 12.921823 12.915277 14.385456
13.348603 13.95269 24.594965 28.39808 29.624203 26.655397 27.658716 22.981651
16.648151 20.045086 22.140388 18.238846 24.625895 25.26226 27.413498 29.540833
17.6638 25.093647 14.015291 18.910141 13.0508585 21.410719 27.406641 24.664337
27.681215 29.12753 28.440132 22.400257 12.812327 24.951645 25.47456 26.201508
28.802517 28.154114 28.474716 30.287283 27.307375 28.369797 16.56573 22.753983
26.597542 27.178139 29.732784 28.544622 27.848457 29.818068 30.366608 29.814089
30.182047 -0.0040380433 29.641108 29.788698 30.083893 28.652096 25.871761 27.766113
27.420559 29.01455 29.593868 17.79773 16.060198 28.759066 27.883543 28.12736
26.77234 25.191462 26.54776 23.572409 21.035057 25.252419 25.218388 19.911274
28.274569 27.76322 24.96424 25.513184 26.88759 21.468313 15.440402 28.588213
28.190722 18.48473 26.04081 29.433722 27.67809 20.252186 26.023232 21.258764
20.459381 14.479529 23.918974 23.008745 14.73307 26.830828 27.506163 25.838367
18.849428 16.652454 18.942951 24.844992 12.8651 25.933212 18.496572 27.006409
29.793854 28.940012 27.474218 20.749388 22.788177 15.019256 13.378259 13.591689
19.35576 15.040967 25.825079 27.710634 28.654144 27.804123 12.856292 12.979216
12.967736 14.33536 13.208044 13.789672 24.620237 28.317043 29.642357 26.546139
27.57732 22.818289 16.602901 19.985115 22.103672 18.204338 24.569788 25.301855
27.385666 29.468285 17.617125 25.063284 13.844501 18.955072 13.091176 21.512865
27.430511 24.66419 27.676935 29.133652 28.309393 22.39916 12.796561 24.741014
25.48448 26.294058 28.771286 28.149302 28.43498 30.335054 27.42031 28.24832
16.498354 22.62121 26.466576 27.13272 29.71962 28.471386 27.92205 29.672932
30.263327 29.815605 30.162918 0.06786871 29.529438 29.713531 30.076519 28.648827
25.808664 27.760817 27.466932 28.91359 29.52467 17.797293 16.00788 28.743696

fc1.bias f4 [256]
00000000: 435a 0e42 b56c 0e42 9e04 0e42 12a2 0d42
00000010: 2aee 0e42 ce72 0d42 c683 0e42 6c2f 0e42
00000020: 3021 0e42 2b89 0e42 168a 0d42 c384 0d42
00000030: 9fab 0e42 1a16 0e42 f195 0e42 825c 0e42
00000040: e534 0e42 78b1 0e42 4e79 0e42 1651 0e42
00000050: 55e1 0e42 4d23 0e42 0398 0e42 44e8 0d42
00000060: 651f 0e42 5320 0e42 6d9a 0e42 18a2 0e42
00000070: 95ab 0d42 601d 0e42 a7b7 0e42 febc 0e42
00000080: 1e84 0e42 29c7 0e42 a6f3 0d42 83fe 0d42
00000090: 7d25 0e42 dbe5 0d42 9c2f 0f42 6bce 0e42
000000a0: ba21 0f42 a01f 0f42 a0db 0e42 11f8 0e42
000000b0: b003 0e42 30be 0e42 3d47 0e42 836f 0e42
000000c0: e5be 0e42 209b 0e42 aabd 0e42 51e6 0d42
000000d0: 9079 0e42 52d4 0d42 aea1 0e42 0f52 0e42
000000e0: b287 0d42 4711 0f42 0d6c 0e42 a623 0e42
000000f0: b678 0e42 7ddd 0d42 268c 0e42 bf76 0e42
00000100: c758 0d42 3df8 0e42 6f1d 0f42 58af 0e42
00000110: d115 0e42 f050 0d42 d457 0e42 8db0 0e42
00000120: 7cfd 0e42 135e 0e42 a456 0e42 15b5 0d42
00000130: cdb1 0e42 3f80 0f42 a7c0 0d42 37a7 0c42
00000140: 7a17 0e42 b6cb 0d42 fba6 0e42 e1aa 0e42
00000150: 28b6 0c42 01f4 0e42 10ae 0e42 2c97 0d42
00000160: 4798 0e42 e400 0e42 03f5 0e42 c0fe 0e42
00000170: 3cd0 0e42 32cf 0c42 a1fc 0d42 204e 0d42
00000180: 5115 0d42 4ad7 0e42 e2a1 0e42 03d3 0e42
00000190: bdb9 0e42 7e5c 0e42 f572 0e42 6d98 0d42
000001a0: 9a6c 0e42 cff0 0e42 b6de 0d42 5815 0f42
000001b0: 608d 0e42 cfcf 0e42 a493 0d42 b8ba 0b42
000001c0: 30c6 0e42 b667 0e42 cd85 0e42 bd73 0e42
000001d0: d2a1 0e42 c950 0e42 f5a1 0e42 5361 0f42
000001e0: 0e60 0d42 8010 0f42 5735 0e42 55d1 0d42
000001f0: ee53 0e42 39ce 0e42 3edc 0e42 1121 0f42
00000200: 0113 0f42 35e7 0e42 7adc 0e42 f592 0c42
00000210: 73d1 0e42 4752 0e42 8126 0e42 ec83 0e42
00000220: 2bbb 0d42 ca91 0e42 a1ed 0d42 0499 0c42
00000230: 7adf 0e42 686c 0e42 55a8 0e42 3df3 0e42
00000240: 11ac 0e42 a566 0e42 61fa 0e42 f7eb 0d42
00000250: f12a 0e42 9302 0f42 9632 0f42 5436 0e42
00000260: 27ba 0e42 f4d9 0c42 4e01 0e42 44aa 0e42
00000270: 8c58 0f42 9d8b 0c42 bcb0 0e42 d2d0 0e42
00000280: 411c 0e42 44f1 0e42 162c 0e42 4680 0e42
00000290: 0928 0e42 6445 0e42 e287 0e42 4c45 0d42
000002a0: 22aa 0e42 8985 0e42 0341 0e42 64d2 0e42
000002b0: 705a 0e42 d9f4 0d42 94a1 0e42 845e 0e42
000002c0: 3c8b 0e42 bcad 0d42 5c88 0d42 2fa7 0e42
000002d0: 82be 0e42 8c75 0e42 c785 0e42 2b94 0e42
000002e0: 913f 0e42 7e69 0d42 7f4b 0e42 8889 0e42
000002f0: 5560 0c42 7853 0e42 4de2 0e42 a086 0e42
00000300: c992 0e42 e0fb 0e42 063f 0f42 9491 0e42
00000310: f79d 0e42 512e 0c42 1020 0e42 8960 0e42
00000320: 19e0 0d42 91d7 0d42 a688 0e42 79bd 0e42
00000330: a391 0d42 46df 0d42 113e 0e42 0160 0e42
00000340: 6466 0d42 77ae 0d42 4dd5 0e42 dd8b 0e42
00000350: 7183 0e42 13fe 0e42 2f80 0d42 9622 0d42
00000360: 1750 0e42 99cf 0e42 2081 0e42 1b42 0e42
00000370: 6c26 0e42 f5c2 0e42 9ee4 0e42 ddd5 0d42
00000380: 42e1 0d42 3e93 0c42 3b10 0e42 138f 0e42
00000390: 2cdd 0d42 f365 0e42 5e88 0e42 c268 0e42
000003a0: 8c45 0e42 d1df 0e42 1116 0e42 b0dd 0e42
000003b0: e858 0f42 04aa 0e42 dc82 0e42 90b4 0e42
000003c0: e933 0e42 266d 0e42 774c 0e42 9510 0e42
000003d0: dc88 0d42 d7cc 0d42 c045 0e42 8023 0f42
000003e0: 1bff 0d42 7598 0e42 924a 0e42 68ca 0e42
000003f0: 5bd2 0b42 9fa7 0e42 80b0 0e42 61e3 0d42
35.588146 35.60616 35.50451 35.40827 35.732582 35.362114 35.628685 35.54631
35.53241 35.633953 35.38485 35.37965 35.6676 35.521584 35.646427 35.59034
35.551655 35.67331 35.61846 35.579185 35.72005 35.534473 35.64845 35.47682
35.53066 35.531567 35.650806 35.658295 35.41756 35.528687 35.679348 35.684563
35.62902 35.694492 35.487938 35.498547 35.53661 35.47447 35.796494 35.70158
35.782936 35.780884 35.714478 35.742252 35.5036 35.68573 35.56957 35.6089
35.68642 35.65149 35.68522 35.47492 35.618713 35.457344 35.65789 35.580135
35.382515 35.766872 35.60552 35.534813 35.61788 35.466297 35.636864 35.615963
35.336697 35.74242 35.778744 35.671234 35.521305 35.32904 35.58577 35.672413
35.747543 35.59187 35.58461 35.426838 35.673634 35.87524 35.438137 35.163296
35.522926 35.448936 35.663067 35.666874 35.177887 35.738285 35.669983 35.39763
35.64871 35.50087 35.73927 35.74878 35.703354 35.20234 35.496708 35.326294
35.270817 35.710243 35.65809 35.706066 35.681385 35.590324 35.612263 35.398853
35.606056 35.735165 35.46749 35.770844 35.63806 35.702938 35.39418 34.932343
35.693542 35.60128 35.630665 35.613026 35.658028 35.57889 35.65816 35.845043
35.343803 35.766113 35.55209 35.454426 35.581963 35.70139 35.71508 35.78229
35.76856 35.72579 35.71531 35.143513 35.70454 35.58035 35.5376 35.62883
35.43278 35.642372 35.48206 35.14943 35.71824 35.605865 35.664387 35.737537
35.668034 35.60024 35.74451 35.480434 35.541935 35.752514 35.7994 35.553055
35.68179 35.212845 35.501274 35.666275 35.83647 35.13634 35.672592 35.703926
35.52759 35.73561 35.543053 35.625267 35.539097 35.567764 35.632698 35.317673
35.666145 35.630405 35.563488 35.70546 35.588318 35.48911 35.65779 35.5923
35.63597 35.419662 35.383163 35.663265 35.686043 35.61479 35.630642 35.644695
35.562077 35.35302 35.573727 35.634308 35.094074 35.581512 35.720997 35.63147
35.643345 35.74597 35.811546 35.642166 35.654263 35.04523 35.53131 35.594273
35.468845 35.460514 35.633446 35.68503 35.392223 35.46804 35.56061 35.593754
35.34999 35.420376 35.7083 35.636585 35.62836 35.74812 35.37518 35.283775
35.578213 35.702732 35.6261 35.564556 35.53752 35.690388 35.72326 35.45885
35.46998 35.14379 35.51585 35.63972 35.46599 35.59956 35.63317 35.602303
35.567917 35.71857 35.52155 35.71649 35.836823 35.66603 35.627792 35.67633
35.550694 35.60659 35.574673 35.516193 35.38365 35.45004 35.568115 35.784668
35.499126 35.648884 35.572823 35.697662 34.955425 35.663692 35.672363 35.47205

fc2.weight f4 [122, 256]
00000000: 4d56 b740 961e b840 e117 b640 3ab3 b640
00000010: 3748 b740 9355 b740 75e8 b440 36fb b740
00000020: c75d b640 963b b740 a802 b540 d14a b640
00000030: d698 b740 3c56 b740 e499 b640 34dd b540
00000040: 6a7c b640 ba2b b640 97b6 b440 a871 b540
00000050: be9e b840 36b9 b740 03c2 b740 1e38 b840
00000060: 0fec b540 ad89 b640 bf02 b540 28aa b840
00000070: 039c b440 4093 b740 56a6 b840 f66f b840
00000080: 73b5 b740 a098 b640 e3b0 b540 f310 b640
00000090: c6d9 b440 8a5c b540 2619 b840 55e9 b440
000000a0: 8c3a b840 5900 b840 fc9c b540 b27f b740
000000b0: 2e5b b640 eaf7 b640 4199 b540 6888 b740
000000c0: 7aaa b640 416c b640 d63a b840 2219 b540
000000d0: d707 b640 e787 b640 7185 b640 604f b540
000000e0: 9c53 b640 ad2f b540 82a7 b640 4984 b840
000000f0: 27c2 b740 8ee0 b540 63fe b640 4604 b540
00000100: 9e5d b440 2573 b640 a270 b840 85cc b640
00000110: 3780 b440 16e4 b440 c73a b540 7b9e b640
00000120: 8450 b840 9325 b640 855f b440 0032 b640
00000130: b76e b740 394f b540 059e b540 06d7 b440
00000140: 1ff1 b540 0588 b840 2b5d b640 e328 b840
00000150: 11e6 b540 1cad b740 36bf b740 5854 b440
00000160: 528a b840 8115 b740 3264 b540 dc42 b540
00000170: 74bc b540 69c7 b340 2a6f b540 a256 b540
00000180: a662 b540 e09f b540 a5f6 b540 4120 b840
00000190: 4d18 b640 f8f5 b440 eb62 b740 15ca b340
000001a0: 3e3c b540 1ea4 b640 1def b440 1033 b840
000001b0: 1319 b540 18fb b440 c64e b740 42ae b240
000001c0: 4c2e b840 8e1f b740 99da b640 bdff b740
000001d0: 2fc1 b640 65bb b640 e249 b540 a94a b540
000001e0: accc b440 cb69 b740 f959 b840 04e4 b540
000001f0: 871a b740 5b17 b740 3f31 b640 b048 b540
00000200: d0d3 b440 93d5 b740 0b8c b840 cf02 b740
00000210: 892e b640 8e1a b740 03b2 b640 cdce b540
00000220: 0c7e b740 2650 b640 526a b540 5f59 b540
00000230: 83c3 b640 fe55 b840 ca64 b540 5fe6 b740
00000240: dd5b b740 3693 b640 3471 b540 99f4 b540
00000250: 3f5a b840 fc49 b640 31be b640 2c67 b540
00000260: f526 b540 25a4 b540 7e9c b740 6d46 b640
00000270: e601 b540 39fc b440 f3d7 b440 fd09 b840
00000280: bb03 b640 3c4b b540 8de2 b640 d96a b540
00000290: 92c4 b440 d168 b640 f7f8 b540 0951 b540
000002a0: 758b b840 9f68 b840 47c6 b440 b59b b740
000002b0: 7132 b840 f4e3 b540 db74 b440 7181 b640
000002c0: c4e7 b640 e158 b640 a382 b440 283d b540
000002d0: f620 b640 3d67 b540 8293 b740 0d66 b740
000002e0: 88dd b440 2b5b b540 1d6d b540 746f b740
000002f0: 4b80 b340 04ae b640 5d83 b640 b5f8 b740
00000300: e8f3 b640 7b59 b740 fcad b540 8841 b640
00000310: 6359 b540 78cc b440 2d59 b640 a082 b740
00000320: f183 b440 cba6 b640 19ca b640 c490 b740
00000330: 0755 b540 5659 b840 02d8 b540 1f7b b640
00000340: b0b2 b640 665c b640 4375 b640 5f08 b740
00000350: 97f0 b740 f7b9 b840 a846 b440 91f4 b440
00000360: 9bf6 b740 ba82 b840 629d b640 9b42 b640
00000370: 32f7 b740 7f4b b740 2594 b840 b54d b540
00000380: 2612 b740 8629 b540 ed3b b740 0942 b840
00000390: 8541 b840 3840 b740 4ddc b740 dc4d b640
000003a0: 6531 b740 2a97 b540 3446 b540 313c b840
000003b0: 2fe3 b640 b9b9 b540 a062 b640 78cd b440
000003c0: 7221 b740 482a b840 bdae b440 1c29 b640
000003d0: 6241 b540 421b b740 9ef3 b740 d909 b640
000003e0: 6f89 b540 5f0b b640 a8b0 b540 941f b740
000003f0: caa5 b340 65bc b440 b347 b640 f6d2 b640
5.729285 5.7537336 5.690415 5.7093782 5.7275653 5.729196 5.653376 5.7494154
5.6989474 5.7260237 5.6565742 5.696633 5.7374067 5.7292767 5.7062855 5.6832523
5.7026873 5.6928377 5.647289 5.670124 5.7693777 5.7413588 5.742433 5.7568502
5.6850657 5.704306 5.656585 5.770771 5.6440444 5.736725 5.7703047 5.763667
5.7408996 5.706131 5.6778426 5.689569 5.6515837 5.6675463 5.75307 5.653483
5.757147 5.7500424 5.675413 5.734338 5.6986303 5.717763 5.6749578 5.735401
5.70831 5.7007146 5.757182 5.659318 5.688457 5.7040896 5.703789 5.6659393
5.697706 5.66207 5.7079477 5.766148 5.74245 5.6836615 5.718553 5.6567717
5.636428 5.7015557 5.763749 5.712466 5.640651 5.6528425 5.663425 5.7068458
5.7598286 5.6920867 5.63666 5.6936035 5.732265 5.6659207 5.6755395 5.651248
5.6856837 5.766604 5.698873 5.754991 5.6843343 5.7398815 5.742091 5.635296
5.766885 5.721375 5.668481 5.6644115 5.6792545 5.618092 5.66982 5.6668253
5.668292 5.675766 5.686358 5.7539372 5.6904664 5.6550255 5.730825 5.618418
5.663604 5.707534 5.6541886 5.756233 5.659311 5.655651 5.728366 5.5837717
5.7556515 5.722602 5.7141843 5.749968 5.711082 5.7103753 5.665269 5.665364
5.6499844 5.731664 5.760983 5.684084 5.721988 5.721601 5.6935115 5.665123
5.650856 5.744821 5.767095 5.719093 5.6931806 5.7219915 5.70923 5.681494
5.7341366 5.6972837 5.6692286 5.6671596 5.711366 5.760497 5.6685534 5.7468715
5.729964 5.70547 5.6700687 5.686108 5.7610164 5.6965313 5.7107167 5.668844
5.6610055 5.676287 5.737853 5.696097 5.6564817 5.655789 5.651361 5.7512193
5.6879554 5.665434 5.715155 5.669293 5.6489954 5.700295 5.686641 5.666142
5.7670236 5.762771 5.649204 5.737757 5.7561574 5.6840763 5.6392646 5.703301
5.7157917 5.6983495 5.640947 5.6637154 5.6915236 5.6688523 5.7367563 5.7312074
5.6520424 5.667379 5.6695695 5.732355 5.609411 5.708742 5.7035356 5.7491097
5.7172737 5.729673 5.6774883 5.6954994 5.6671615 5.6499596 5.6983857 5.7346954
5.641106 5.7078605 5.71217 5.7364216 5.6666293 5.7609053 5.682618 5.7025294
5.7093124 5.698779 5.701814 5.719772 5.748119 5.772701 5.633625 5.6548543
5.748853 5.765958 5.706712 5.6956306 5.748925 5.727966 5.768084 5.6657357
5.7209654 5.661319 5.726065 5.758061 5.757998 5.726589 5.745642 5.6970043
5.7247796 5.6747026 5.6648197 5.7573476 5.7152324 5.678921 5.699539 5.6500816
5.7228327 5.7551613 5.6463304 5.692518 5.6642313 5.7220774 5.7484884 5.688702
5.6730266 5.688888 5.6778145 5.7226048 5.613988 5.6479974 5.6962523 5.713252

fc2.bias f4 [122]
00000000: 11f6 cd40 013d cb40 8621 cf40 75f8 c640
00000010: 9559 c240 fdd8 c640 aabb c440 2753 c940
00000020: d78a c940 019d ae40 fc59 9940 146c cb40
00000030: 3953 c940 c6ae c740 ab0a c740 0b29 c340
00000040: b93b c540 479e c140 eb53 ba40 85b5 be40
00000050: 6507 c340 17a5 aa40 f7b9 c840 6164 c540
00000060: 1375 c440 3875 c240 73cb c840 f697 c040
00000070: e019 9740 22ee c940 8563 c940 de50 a340
00000080: f630 c240 5720 cb40 aa16 c940 568b b940
00000090: ab7e c540 705b bb40 dc6e bf40 2953 8c40
000000a0: baec c040 4010 be40 b7fa 8e40 851d c540
000000b0: 6885 c740 42be c640 1ca2 b540 e058 aa40
000000c0: 8fc9 b840 9288 c240 478b 6b40 8ecf c840
000000d0: e9d1 a940 1ec1 c540 87f9 c940 4d2d cc40
000000e0: a5ee c540 b1f2 bd40 8617 c140 3dab 9e40
000000f0: 2a5a 8540 7f19 2540 21ff b140 6cb5 9140
00000100: 79d1 c540 96bc c840 41bf c540 df61 c740
00000110: b263 6940 5f58 5840 2d51 3b40 d2db 9640
00000120: b24e 4640 eb3a 8540 6e0f c240 b51d c840
00000130: 214a cf40 da7e c440 ec37 c540 98bb c140
00000140: f1a3 9f40 2e26 b940 93c3 bc40 2bf4 b440
00000150: 298d bf40 d0e0 c140 5960 c540 79f0 c940
00000160: 973c b240 dddd c040 7ec0 8c40 3457 b540
00000170: 4b90 7e40 2b92 be40 ce8d c540 caad c040
00000180: 8843 c840 5d5b c940 eb4c c840 e9e4 bd40
00000190: d616 5340 c66d c340 e8eb c140 6450 c540
000001a0: aa23 cb40 85a2 c840 5e46 c640 0729 cf40
000001b0: 679f c740 d3d6 c940 9e11 9440 6b76 bd40
000001c0: c962 c540 5f35 c540 860b cc40 9164 c640
000001d0: 8760 c540 007b cd40 4918 d140 56b3 cf40
000001e0: 25e2 cb40 883e 7bbd
6.4362874 6.351197 6.472842 6.217829 6.0734353 6.213988 6.147908 6.2914004
6.298198 5.4566655 4.7922344 6.356943 6.291409 6.2400846 6.2200522 6.09876
6.1635404 6.050571 5.822744 5.959658 6.0946527 5.3326526 6.272701 6.1685033
6.1392913 6.076809 6.274835 6.01855 4.7219086 6.310319 6.2933984 5.1036215
6.0684767 6.3476977 6.2840166 5.798259 6.1717124 5.854912 5.9822826 4.3851514
6.0288973 5.9394836 4.468105 6.1598535 6.235035 6.210725 5.6760387 5.323349
5.7746043 6.079171 3.6803758 6.2753363 5.306874 6.179824 6.31171 6.38053
6.1853814 5.9358754 6.0341215 4.958403 4.1672564 2.5796812 5.5623937 4.553396
6.1818204 6.2730207 6.1795964 6.230697 3.64671 3.3803937 2.9268296 4.7143335
3.0985532 4.163442 6.0643835 6.2536263 6.477799 6.140485 6.1630764 6.0541496
4.9887624 5.7859106 5.898874 5.6548057 5.9859815 6.058693 6.168011 6.3106046
5.569896 6.027083 4.3984976 5.666895 3.977557 5.955343 6.17356 6.0212145
6.2582436 6.2924027 6.2593894 5.934193 3.2982688 6.10715 6.060047 6.1660633
6.3481035 6.269839 6.1960897 6.473758 6.2382083 6.3074737 4.6271505 5.9207053
6.1683087 6.162765 6.3764067 6.199776 6.168033 6.4212646 6.5342145 6.4906416
6.3713555 -0.06133893

fc1.weight f4 [256, 122]
00000000: bdf9 ec41 ab46 ee41 36cd f041 82de e541
00000010: df5f ce41 9002 de41 8ca5 db41 2a91 e841
00000020: 7ecc ec41 8861 8f41 7c41 8041 0b1a e741
00000030: f4f7 df41 d09d e141 c433 d641 1307 ca41
00000040: 4137 d441 1241 bd41 2248 a841 1ba3 c941
00000050: dd02 c941 03b3 9e41 c911 e241 6f8d de41
00000060: a9ec c841 1f5c cb41 6b75 d741 2463 ac41
00000070: d822 7841 1593 e441 8b90 e141 0109 9441
00000080: ce5a cf41 c614 eb41 c9a8 de41 167d a241
00000090: 2f95 d041 529a ab41 a3f9 a341 3188 6841
000000a0: be9c c041 772b b841 30bb 6c41 dccf d741
000000b0: ca84 dc41 635e cf41 4900 9741 afd2 8541
000000c0: 33da 9641 9be4 c641 f230 4e41 63af cf41
000000d0: 8e07 9341 b832 d841 14a6 ed41 781e e741
000000e0: a893 dc41 baaa a641 4c94 b741 e8d8 7041
000000f0: c9eb 5541 50bb 5a41 3e9d 9a41 8486 7141
00000100: 8982 ce41 6133 de41 e2cf e441 902f df41
00000110: 8cf9 4e41 c9bf 4e41 f9a4 4e41 2b0a 6641
00000120: e193 5541 383e 5f41 b39a c441 5e09 e341
00000130: 2eda ec41 0818 d541 231c dd41 60b2 b741
00000140: 051b 8541 c034 a041 08f7 b041 ccc2 9141
00000150: f5d8 c441 e7f3 c941 a02a db41 d52d ec41
00000160: fe2c 8d41 4a98 c841 d035 6041 d323 9741
00000170: 51d0 5041 4020 ab41 231a db41 cb29 c541
00000180: 494e dd41 70e0 e841 e660 e341 d00a b341
00000190: 4bff 4c41 7d76 c741 3ca5 cb41 4e76 d141
000001a0: a745 e641 2515 e141 f0a7 e341 3828 f241
000001b0: bf4c da41 2fce e241 2079 8441 80df b541
000001c0: 8ca3 d441 d845 d941 6db7 ed41 f536 e441
000001d0: 1aa5 de41 1763 ee41 2eca f241 f05d ee41
000001e0: 914d f141 9051 84bb d2fc ec41 d029 ee41
000001f0: 0386 f041 8c12 e541 99d0 ce41 c7fa dd41
00000200: 9c34 db41 9ff6 e741 129c ec41 443f 8e41
00000210: ea6a 8041 3bee e541 34ed de41 c4de e041
00000220: d504 d641 8162 c941 343c d441 016d bc41
00000230: 3220 a841 15dc c941 179b c941 2329 9f41
00000240: 320d e241 8ef6 dd41 9792 c741 72f2 cb41
00000250: 58f4 d641 9e96 ab41 d6f0 7641 ca8f e441
00000260: a761 e141 8fc4 9341 e32b d041 7451 eb41
00000270: 6448 dd41 f3dd a141 240b d041 e8e9 a941
00000280: e583 a341 55a3 6741 b531 bf41 dfe9 b741
00000290: 78a5 6b41 9c7c d641 9be5 db41 6a90 ce41
000002a0: 40a5 9641 1317 8541 a364 9741 059b c641
000002b0: 73d7 4d41 6e4f cf41 d0dc 9341 5ae8 d741
000002c0: 4231 ee41 ed5f e741 22a5 db41 b4d6 a541
000002d0: 7f26 b641 0c26 7041 590d 5641 8f77 5941
000002e0: 73b4 9a41 9d92 7041 9175 ce41 fd88 dd41
000002f0: 0617 e541 b949 de41 5fb3 4d41 deaa 4f41
00000300: d97b 4f41 e93c 6541 2654 5341 7fa2 5c41
00000310: 75ce c441 6363 e241 5aff ec41 4538 d441
00000320: 6e75 dc41 d163 b641 54be 8441 eab9 9f41
00000330: d5ab b041 1b7c 9141 0e66 c441 fb44 ca41
00000340: 9cf1 da41 3f99 eb41 63cd 8c41 155a c841
00000350: 417a 5d41 d77f 9741 7575 5141 6ef1 ab41
00000360: 004b db41 7429 c541 7e45 dd41 f2ec e841
00000370: 1e55 e241 8e08 b341 b7be 4c41 1dc7 c541
00000380: 87b9 cb41 d733 d241 ad05 e641 490b e141
00000390: 8c56 e341 068a f241 0634 db41 62d5 e141
000003a0: 19ef 8341 8bcf b441 5097 d341 cce8 d841
000003b0: 749c ed41 f6a0 e341 cc3b df41 d039 ed41
000003c0: a1f6 f141 0861 ee41 5e26 f141 c0fe 8a3d
000003d0: 2018 ec41 e28f ed41 f176 f041 e20b e541
000003e0: 6a4f ce41 f8ef dd41 9f93 db41 e927 e741
000003f0: 5a0e ec41 6d3e 8e41 90ff 7f41 cace e541
29.621943 29.784506 30.1002 28.733646 25.796812 27.751251 27.455833 29.07088
29.59985 17.922623 16.031975 28.887716 27.99607 28.202057 26.775276 25.253454
26.52698 23.656773 21.035221 25.204641 25.126398 19.837408 28.258684 27.81906
25.115557 25.419981 26.932333 21.548409 15.508507 28.571817 28.195578 18.504396
25.919338 29.385143 27.832415 20.311077 26.072844 21.450352 20.496893 14.53325
24.076534 23.021223 14.7957 26.976494 27.564838 25.921087 18.87514 16.727873
18.856543 24.861624 12.88695 25.960638 18.378689 27.024765 29.706093 28.889877
27.572098 20.833363 22.94741 15.052956 13.370065 13.670731 19.326778 15.095341
25.813738 27.775087 28.601505 27.898224 12.935925 12.921823 12.915277 14.377482
13.348603 13.95269 24.575537 28.379574 29.606533 26.636734 27.638739 22.962097
16.638193 20.025757 22.12062 18.220116 24.605936 25.244093 27.395813 29.522379
17.646969 25.07436 14.013138 18.892492 13.0508585 21.390747 27.387762 24.645407
27.663225 29.109589 28.422314 22.38028 12.812327 24.932856 25.45568 26.182766
28.78401 28.135324 28.457 30.269638 27.287474 28.350676 16.559143 22.73413
26.579857 27.159103 29.714563 28.526834 27.830616 29.798384 30.34872 29.795868
30.162874 -0.0040380433 29.623447 29.770416 30.065435 28.634056 25.851854 27.74745
27.400688 28.99542 29.576206 17.780891 16.052204 28.741323 27.865822 28.108772
26.75236 25.173098 26.529396 23.553225 21.01572 25.232462 25.200727 19.895086
28.256443 27.745388 24.946577 25.493382 26.869308 21.448544 15.433798 28.57021
28.172682 18.470976 26.02143 29.414772 27.660347 20.233374 26.00544 21.239212
20.439402 14.477376 23.899271 22.989195 14.727898 26.810844 27.487112 25.820515
18.830688 16.636267 18.924139 24.825693 12.8651 25.913784 18.482819 26.988453
29.774052 28.921839 27.455631 20.729836 22.768797 15.009289 13.378259 13.591689
19.33811 15.035794 25.807405 27.691889 28.636242 27.785997 12.856292 12.979216
12.967736 14.327371 13.208044 13.789672 24.60081 28.298529 29.624683 26.527475
27.557339 22.798738 16.592934 19.965778 22.083902 18.185598 24.549831 25.283682
27.367973 29.449827 17.600286 25.043985 13.842347 18.937422 13.091176 21.492886
27.411621 24.64524 27.658932 29.115696 28.291561 22.379177 12.796561 24.722223
25.46559 26.275312 28.752771 28.13051 28.41726 30.317394 27.400402 28.22919
16.491747 22.60134 26.448883 27.11367 29.701393 28.453594 27.904198 29.653229
30.245424 29.797379 30.143734 0.06786871 29.51178 29.695255 30.058077 28.630802
25.788776 27.742172 27.44708 28.894487 29.507008 17.780481 15.999893 28.725971

fc1.bias f4 [256]
00000000: 2848 0e42 9e5a 0e42 89f2 0d42 0290 0d42
00000010: 13dc 0e42 b660 0d42 b271 0e42 551d 0e42
00000020: 240f 0e42 1b77 0e42 0378 0d42 b472 0d42
00000030: 8d99 0e42 0204 0e42 d583 0e42 714a 0e42
00000040: ce22 0e42 5f9f 0e42 4167 0e42 ff3e 0e42
00000050: 3bcf 0e42 3611 0e42 eb85 0e42 2fd6 0d42
00000060: 4c0d 0e42 3b0e 0e42 5688 0e42 0590 0e42
00000070: 7e99 0d42 4a0b 0e42 93a5 0e42 e9aa 0e42
00000080: 0672 0e42 16b5 0e42 90e1 0d42 6cec 0d42
00000090: 6a13 0e42 c3d3 0d42 861d 0f42 58bc 0e42
000000a0: a50f 0f42 8a0d 0f42 8cc9 0e42 02e6 0e42
000000b0: 9af1 0d42 17ac 0e42 2435 0e42 6e5d 0e42
000000c0: cdac 0e42 0989 0e42 93ab 0e42 44d4 0d42
000000d0: 7b67 0e42 3fc2 0d42 9b8f 0e42 f53f 0e42
000000e0: a275 0d42 30ff 0e42 f459 0e42 9111 0e42
000000f0: a366 0e42 6dcb 0d42 0d7a 0e42 b064 0e42
00000100: b646 0d42 25e6 0e42 580b 0f42 4a9d 0e42
00000110: ba03 0e42 d83e 0d42 bb45 0e42 749e 0e42
00000120: 69eb 0e42 fe4b 0e42 8f44 0e42 04a3 0d42
00000130: c19f 0e42 2e6e 0f42 8eae 0d42 2395 0c42
00000140: 6105 0e42 9ab9 0d42 e594 0e42 c798 0e42
00000150: 13a4 0c42 ede1 0e42 f79b 0e42 1985 0d42
00000160: 3486 0e42 cdee 0d42 eee2 0e42 a8ec 0e42
00000170: 29be 0e42 22bd 0c42 89ea 0d42 023c 0d42
00000180: 3f03 0d42 31c5 0e42 cc8f 0e42 e5c0 0e42
00000190: a9a7 0e42 6d4a 0e42 df60 0e42 5586 0d42
000001a0: 845a 0e42 bcde 0e42 9fcc 0d42 4003 0f42
000001b0: 4f7b 0e42 b9bd 0e42 8b81 0d42 a1a8 0b42
000001c0: 1db4 0e42 9f55 0e42 b473 0e42 ac61 0e42
000001d0: c08f 0e42 b43e 0e42 e48f 0e42 3e4f 0f42
000001e0: f44d 0d42 65fe 0e42 3c23 0e42 39bf 0d42
000001f0: d441 0e42 27bc 0e42 2bca 0e42 fe0e 0f42
00000200: ed00 0f42 23d5 0e42 5eca 0e42 e280 0c42
00000210: 5fbf 0e42 3840 0e42 6e14 0e42 d571 0e42
00000220: 18a9 0d42 b77f 0e42 8bdb 0d42 f086 0c42
00000230: 61cd 0e42 565a 0e42 4996 0e42 2be1 0e42
00000240: fa99 0e42 8c54 0e42 4ce8 0e42 dcd9 0d42
00000250: db18 0e42 7ef0 0e42 8320 0f42 3c24 0e42
00000260: 1ba8 0e42 dec7 0c42 32ef 0d42 3498 0e42
00000270: 8146 0f42 8979 0c42 a99e 0e42 b9be 0e42
00000280: 2f0a 0e42 2bdf 0e42 011a 0e42 2e6e 0e42
00000290: f815 0e42 4e33 0e42 ce75 0e42 3133 0d42
000002a0: 0998 0e42 7373 0e42 ed2e 0e42 4ec0 0e42
000002b0: 5b48 0e42 c0e2 0d42 838f 0e42 714c 0e42
000002c0: 2779 0e42 a69b 0d42 4276 0d42 1995 0e42
000002d0: 6dac 0e42 7463 0e42 b373 0e42 1382 0e42
000002e0: 802d 0e42 6257 0d42 6e39 0e42 7577 0e42
000002f0: 444e 0c42 5e41 0e42 34d0 0e42 8b74 0e42
00000300: b480 0e42 cae9 0e42 f62c 0f42 7e7f 0e42
00000310: e28b 0e42 401c 0c42 f40d 0e42 704e 0e42
00000320: 06ce 0d42 75c5 0d42 9076 0e42 67ab 0e42
00000330: 8b7f 0d42 2fcd 0d42 f82b 0e42 ea4d 0e42
00000340: 5254 0d42 5f9c 0d42 40c3 0e42 c579 0e42
00000350: 5a71 0e42 02ec 0e42 166e 0d42 8210 0d42
00000360: 023e 0e42 85bd 0e42 0c6f 0e42 0730 0e42
00000370: 5214 0e42 dfb0 0e42 8cd2 0e42 cdc3 0d42
00000380: 27cf 0d42 2a81 0c42 1cfe 0d42 fc7c 0e42
00000390: 16cb 0d42 e553 0e42 4776 0e42 b056 0e42
000003a0: 7e33 0e42 becd 0e42 fa03 0e42 96cb 0e42
000003b0: da46 0f42 e997 0e42 c370 0e42 7da2 0e42
000003c0: d821 0e42 0d5b 0e42 633a 0e42 82fe 0d42
000003d0: c376 0d42 c7ba 0d42 a833 0e42 6b11 0f42
000003e0: 02ed 0d42 5d86 0e42 7d38 0e42 4eb8 0e42
000003f0: 4cc0 0b42 8895 0e42 679e 0e42 50d1 0d42
35.570465 35.588493 35.48685 35.390633 35.714916 35.344444 35.61103 35.528645
35.514786 35.616314 35.3672 35.362015 35.649952 35.503914 35.628742 35.572697
35.53399 35.655636 35.600834 35.56152 35.702374 35.516808 35.63078 35.459164
35.512985 35.513897 35.63314 35.640644 35.399895 35.511024 35.661694 35.666904
35.61135 35.67684 35.470276 35.48088 35.51896 35.4568 35.77883 35.68393
35.765278 35.76322 35.696823 35.724617 35.48594 35.668056 35.551895 35.59124
35.66875 35.633823 35.667553 35.45729 35.601055 35.439693 35.64024 35.562458
35.364876 35.749207 35.587845 35.517155 35.60023 35.448658 35.61919 35.598328
35.319054 35.72475 35.761078 35.653603 35.50364 35.31137 35.568096 35.65474
35.729893 35.57421 35.56695 35.409195 35.65601 35.857597 35.420464 35.14564
35.505253 35.43125 35.645405 35.649197 35.16023 35.72063 35.65231 35.37998
35.631058 35.483204 35.72161 35.73111 35.685703 35.1847 35.47904 35.3086
35.25317 35.69257 35.640427 35.688374 35.66373 35.57268 35.5946 35.381184
35.588394 35.717514 35.449825 35.753174 35.62042 35.685276 35.376507 34.914677
35.67589 35.583614 35.61299 35.595383 35.64038 35.561234 35.64052 35.827385
35.326126 35.748432 35.53441 35.43674 35.564285 35.683743 35.69743 35.76464
35.750904 35.70814 35.697624 35.125862 35.686886 35.562714 35.51995 35.611164
35.41513 35.62472 35.464397 35.131775 35.700565 35.58822 35.646763 35.71989
35.650368 35.582565 35.726852 35.462753 35.524273 35.734856 35.78175 35.535385
35.664165 35.195183 35.48359 35.648636 35.81885 35.118687 35.65494 35.686253
35.509945 35.717937 35.525394 35.607597 35.521454 35.550102 35.615044 35.29999
35.64847 35.612743 35.545826 35.687798 35.57066 35.471436 35.64015 35.57465
35.618313 35.402 35.365486 35.645603 35.668385 35.597122 35.612988 35.627026
35.544434 35.335335 35.556084 35.616657 35.07643 35.563835 35.703323 35.61381
35.625687 35.72831 35.793907 35.624504 35.636604 35.027588 35.513626 35.5766
35.451195 35.44283 35.615784 35.667385 35.374554 35.450375 35.54294 35.576088
35.332344 35.402706 35.690674 35.618916 35.610695 35.730476 35.357506 35.26612
35.560555 35.685078 35.608444 35.5469 35.519844 35.672726 35.705612 35.44121
35.452297 35.126137 35.498154 35.622055 35.448326 35.58193 35.615505 35.584656
35.550285 35.70092 35.503883 35.698814 35.81919 35.64835 35.61012 35.65868
35.53305 35.588917 35.55702 35.498543 35.36598 35.4324 35.550446 35.76701
35.481453 35.631214 35.555164 35.679985 34.93779 35.646027 35.65469 35.454407

fc2.weight f4 [122, 256]
00000000: 4d56 b740 961e b840 e117 b640 3ab3 b640
00000010: 3748 b740 9355 b740 75e8 b440 36fb b740
00000020: c75d b640 963b b740 a802 b540 d14a b640
00000030: d698 b740 3c56 b740 e499 b640 34dd b540
00000040: 6a7c b640 ba2b b640 97b6 b440 a871 b540
00000050: be9e b840 36b9 b740 03c2 b740 1e38 b840
00000060: 0fec b540 ad89 b640 bf02 b540 28aa b840
00000070: 039c b440 4093 b740 56a6 b840 f66f b840
00000080: 73b5 b740 a098 b640 e3b0 b540 f310 b640
00000090: c6d9 b440 8a5c b540 2619 b840 55e9 b440
000000a0: 8c3a b840 5900 b840 fc9c b540 b27f b740
000000b0: 2e5b b640 eaf7 b640 4199 b540 6888 b740
000000c0: 7aaa b640 416c b640 d63a b840 2219 b540
000000d0: d707 b640 e787 b640 7185 b640 604f b540
000000e0: 9c53 b640 ad2f b540 82a7 b640 4984 b840
000000f0: 27c2 b740 8ee0 b540 63fe b640 4604 b540
00000100: 9e5d b440 2573 b640 a270 b840 85cc b640
00000110: 3780 b440 16e4 b440 c73a b540 7b9e b640
00000120: 8450 b840 9325 b640 855f b440 0032 b640
00000130: b76e b740 394f b540 059e b540 06d7 b440
00000140: 1ff1 b540 0588 b840 2b5d b640 e328 b840
00000150: 11e6 b540 1cad b740 36bf b740 5854 b440
00000160: 528a b840 8115 b740 3264 b540 dc42 b540
00000170: 74bc b540 69c7 b340 2a6f b540 a256 b540
00000180: a662 b540 e09f b540 a5f6 b540 4120 b840
00000190: 4d18 b640 f8f5 b440 eb62 b740 15ca b340
000001a0: 3e3c b540 1ea4 b640 1def b440 1033 b840
000001b0: 1319 b540 18fb b440 c64e b740 42ae b240
000001c0: 4c2e b840 8e1f b740 99da b640 bdff b740
000001d0: 2fc1 b640 65bb b640 e249 b540 a94a b540
000001e0: accc b440 cb69 b740 f959 b840 04e4 b540
000001f0: 871a b740 5b17 b740 3f31 b640 b048 b540
00000200: d0d3 b440 93d5 b740 0b8c b840 cf02 b740
00000210: 892e b640 8e1a b740 03b2 b640 cdce b540
00000220: 0c7e b740 2650 b640 526a b540 5f59 b540
00000230: 83c3 b640 fe55 b840 ca64 b540 5fe6 b740
00000240: dd5b b740 3693 b640 3471 b540 99f4 b540
00000250: 3f5a b840 fc49 b640 31be b640 2c67 b540
00000260: f526 b540 25a4 b540 7e9c b740 6d46 b640
00000270: e601 b540 39fc b440 f3d7 b440 fd09 b840
00000280: bb03 b640 3c4b b540 8de2 b640 d96a b540
00000290: 92c4 b440 d168 b640 f7f8 b540 0951 b540
000002a0: 758b b840 9f68 b840 47c6 b440 b59b b740
000002b0: 7132 b840 f4e3 b540 db74 b440 7181 b640
000002c0: c4e7 b640 e158 b640 a382 b440 283d b540
000002d0: f620 b640 3d67 b540 8293 b740 0d66 b740
000002e0: 88dd b440 2b5b b540 1d6d b540 746f b740
000002f0: 4b80 b340 04ae b640 5d83 b640 b5f8 b740
00000300: e8f3 b640 7b59 b740 fcad b540 8841 b640
00000310: 6359 b540 78cc b440 2d59 b640 a082 b740
00000320: f183 b440 cba6 b640 19ca b640 c490 b740
00000330: 0755 b540 5659 b840 02d8 b540 1f7b b640
00000340: b0b2 b640 665c b640 4375 b640 5f08 b740
00000350: 97f0 b740 f7b9 b840 a846 b440 91f4 b440
00000360: 9bf6 b740 ba82 b840 629d b640 9b42 b640
00000370: 32f7 b740 7f4b b740 2594 b840 b54d b540
00000380: 2612 b740 8629 b540 ed3b b740 0942 b840
00000390: 8541 b840 3840 b740 4ddc b740 dc4d b640
000003a0: 6531 b740 2a97 b540 3446 b540 313c b840
000003b0: 2fe3 b640 b9b9 b540 a062 b640 78cd b440
000003c0: 7221 b740 482a b840 bdae b440 1c29 b640
000003d0: 6241 b540 421b b740 9ef3 b740 d909 b640
000003e0: 6f89 b540 5f0b b640 a8b0 b540 941f b740
000003f0: caa5 b340 65bc b440 b347 b640 f6d2 b640
5.729285 5.7537336 5.690415 5.7093782 5.7275653 5.729196 5.653376 5.7494154
5.6989474 5.7260237 5.6565742 5.696633 5.7374067 5.7292767 5.7062855 5.6832523
5.7026873 5.6928377 5.647289 5.670124 5.7693777 5.7413588 5.742433 5.7568502
5.6850657 5.704306 5.656585 5.770771 5.6440444 5.736725 5.7703047 5.763667
5.7408996 5.706131 5.6778426 5.689569 5.6515837 5.6675463 5.75307 5.653483
5.757147 5.7500424 5.675413 5.734338 5.6986303 5.717763 5.6749578 5.735401
5.70831 5.7007146 5.757182 5.659318 5.688457 5.7040896 5.703789 5.6659393
5.697706 5.66207 5.7079477 5.766148 5.74245 5.6836615 5.718553 5.6567717
5.636428 5.7015557 5.763749 5.712466 5.640651 5.6528425 5.663425 5.7068458
5.7598286 5.6920867 5.63666 5.6936035 5.732265 5.6659207 5.6755395 5.651248
5.6856837 5.766604 5.698873 5.754991 5.6843343 5.7398815 5.742091 5.635296
5.766885 5.721375 5.668481 5.6644115 5.6792545 5.618092 5.66982 5.6668253
5.668292 5.675766 5.686358 5.7539372 5.6904664 5.6550255 5.730825 5.618418
5.663604 5.707534 5.6541886 5.756233 5.659311 5.655651 5.728366 5.5837717
5.7556515 5.722602 5.7141843 5.749968 5.711082 5.7103753 5.665269 5.665364
5.6499844 5.731664 5.760983 5.684084 5.721988 5.721601 5.6935115 5.665123
5.650856 5.744821 5.767095 5.719093 5.6931806 5.7219915 5.70923 5.681494
5.7341366 5.6972837 5.6692286 5.6671596 5.711366 5.760497 5.6685534 5.7468715
5.729964 5.70547 5.6700687 5.686108 5.7610164 5.6965313 5.7107167 5.668844
5.6610055 5.676287 5.737853 5.696097 5.6564817 5.655789 5.651361 5.7512193
5.6879554 5.665434 5.715155 5.669293 5.6489954 5.700295 5.686641 5.666142
5.7670236 5.762771 5.649204 5.737757 5.7561574 5.6840763 5.6392646 5.703301
5.7157917 5.6983495 5.640947 5.6637154 5.6915236 5.6688523 5.7367563 5.7312074
5.6520424 5.667379 5.6695695 5.732355 5.609411 5.708742 5.7035356 5.7491097
5.7172737 5.729673 5.6774883 5.6954994 5.6671615 5.6499596 5.6983857 5.7346954
5.641106 5.7078605 5.71217 5.7364216 5.6666293 5.7609053 5.682618 5.7025294
5.7093124 5.698779 5.701814 5.719772 5.748119 5.772701 5.633625 5.6548543
5.748853 5.765958 5.706712 5.6956306 5.748925 5.727966 5.768084 5.6657357
5.7209654 5.661319 5.726065 5.758061 5.757998 5.726589 5.745642 5.6970043
5.7247796 5.6747026 5.6648197 5.7573476 5.7152324 5.678921 5.699539 5.6500816
5.7228327 5.7551613 5.6463304 5.692518 5.6642313 5.7220774 5.7484884 5.688702
5.6730266 5.688888 5.6778145 5.7226048 5.613988 5.6479974 5.6962523 5.713252

fc2.bias f4 [122]
00000000: 11f6 cd40 de58 cb40 8621 cf40 5b0d c740
00000010: af70 c240 49eb c640 aabb c440 2753 c940
00000020: af9e c940 019d ae40 e02f 9940 a184 cb40
00000030: 4e74 c940 c6ae c740 ab0a c740 7247 c340
00000040: b93b c540 479e c140 eb3c ba40 62ca be40
00000050: 6507 c340 2b81 aa40 4fdb c840 cc76 c540
00000060: 1375 c440 5c8e c240 73cb c840 2381 c040
00000070: 5bfa 9640 22ee c940 8563 c940 de50 a340
00000080: f630 c240 512e cb40 aa16 c940 0169 b940
00000090: ab7e c540 705b bb40 1e66 bf40 2953 8c40
000000a0: ef10 c140 e931 be40 b7fa 8e40 6824 c540
000000b0: 6885 c740 42be c640 c58b b540 e058 aa40
000000c0: 8fc9 b840 9288 c240 478b 6b40 8ecf c840
000000d0: e19f a940 1ec1 c540 87f9 c940 4d2d cc40
000000e0: 3604 c640 1ed2 bd40 af25 c140 3dab 9e40
000000f0: 8748 8540 7f19 2540 21ff b140 139f 9140
00000100: 2be1 c540 96bc c840 41bf c540 df61 c740
00000110: b263 6940 5f58 5840 2d51 3b40 d2db 9640
00000120: b24e 4640 eb3a 8540 411a c240 b51d c840
00000130: 214a cf40 da7e c440 d74c c540 98bb c140
00000140: 4071 9f40 2e26 b940 93c3 bc40 2bf4 b440
00000150: 298d bf40 33f0 c140 0771 c540 1d0d ca40
00000160: aa11 b240 64f5 c040 6fa0 8c40 bd35 b540
00000170: 4b90 7e40 2b92 be40 cfa4 c540 caad c040
00000180: 0053 c840 f972 c940 eb4c c840 e9e4 bd40
00000190: d616 5340 1880 c340 e8eb c140 8664 c540
000001a0: 1f35 cb40 85a2 c840 5e46 c640 0729 cf40
000001b0: 679f c740 1deb c940 9e11 9440 3f5b bd40
000001c0: c962 c540 da50 c540 f322 cc40 2d82 c640
000001d0: 4476 c540 007b cd40 e534 d140 56b3 cf40
000001e0: 11f1 cb40 883e 7bbd
6.4362874 6.354598 6.472842 6.2203803 6.0762553 6.2162213 6.147908 6.2914004
6.3006206 5.4566655 4.787094 6.35994 6.2954473 6.2400846 6.2200522 6.1024714
6.1635404 6.050571 5.8199363 5.962205 6.0946527 5.3282676 6.276771 6.1707516
6.1392913 6.079878 6.274835 6.0157638 4.718061 6.310319 6.2933984 5.1036215
6.0684767 6.349404 6.2840166 5.794068 6.1717124 5.854912 5.9812155 4.3851514
6.033317 5.9435925 4.468105 6.160694 6.235035 6.210725 5.6733117 5.323349
5.7746043 6.079171 3.6803758 6.2753363 5.3007665 6.179824 6.31171 6.38053
6.188014 5.931899 6.03585 4.958403 4.1651034 2.5796812 5.5623937 4.5506682
6.1837363 6.2730207 6.1795964 6.230697 3.64671 3.3803937 2.9268296 4.7143335
3.0985532 4.163442 6.065705 6.2536263 6.477799 6.140485 6.16563 6.0541496
4.9825745 5.7859106 5.898874 5.6548057 5.9859815 6.060571 6.1700473 6.3141007
5.5646563 6.029955 4.394584 5.66281 3.977557 5.955343 6.176368 6.0212145
6.260132 6.2952847 6.2593894 5.934193 3.2982688 6.1093864 6.060047 6.168521
6.3502345 6.269839 6.1960897 6.473758 6.2382083 6.3099504 4.6271505 5.9173884
6.1683087 6.1661196 6.3792663 6.2033906 6.1706867 6.4212646 6.537707 6.4906416
6.373177 -0.06133893
