g13agent.pth (torch, 505868 bytes, 8 tensors)

fc1.weight f4 [256, 122]
000000 8c a2 ec 41 6a e2 ed 41 a6 61 f0 41 bc a4 e5 41
       29.579369 29.735554 30.04768 28.705437
000010 07 b9 cd 41 91 d7 dd 41 e6 8e db 41 18 7b e8 41
       25.715345 27.730257 27.444775 29.060104
000020 64 76 ec 41 39 53 8f 41 7c 41 80 41 dd cb e6 41
       29.557808 17.915636 16.031975 28.849543
000030 7c a7 df 41 f7 2c e1 41 90 1d d6 41 00 d8 c9 41
       27.95678 28.146955 26.764435 25.230469
000040 ae 0a d4 41 e6 2c bd 41 d6 cd a7 41 49 8d c9 41
       26.505215 23.646923 20.975506 25.193987
000050 7b ac c8 41 4a be 9e 41 55 d9 e1 41 07 44 de 41
       25.084219 19.842915 28.23112 27.783216
000060 69 97 c8 41 cb 4e cb 41 8e 45 d7 41 f9 d5 ab 41
       25.07393 25.413473 26.908962 21.479479
000070 a1 55 78 41 b1 57 e4 41 6d 3b e1 41 57 0a 94 41
       15.5209055 28.542818 28.154016 18.505049
000080 5a 44 cf 41 e6 f3 ea 41 fe 5b de 41 e4 49 a2 41
       25.908375 29.369091 27.794918 20.28608
000090 cd 4a d0 41 9f f7 aa 41 cd 52 a3 41 31 9f 68 41
       26.036524 21.370909 20.41543 14.538865
0000a0 0e 8e c0 41 f7 19 b8 41 85 49 6c 41 45 5b d7 41
       24.069363 23.012678 14.767949 26.919565
0000b0 75 6a dc 41 a1 1a cf 41 91 9a 96 41 05 d4 85 41
       27.551981 25.888002 18.825472 16.728525
0000c0 e9 b3 96 41 ef 97 c6 41 f2 30 4e 41 d9 9b cf 41
       18.837847 24.824186 12.88695 25.951097
0000d0 fd 10 93 41 f3 e7 d7 41 d0 91 ed 41 db e8 e6 41
       18.383295 26.988256 29.696198 28.863699
0000e0 7d 3e dc 41 4f 15 a6 41 d8 7d b7 41 0d c7 6f 41
       27.530512 20.760405 22.936447 14.986096
0000f0 9b 4f 55 41 06 82 5a 41 80 9f 9a 41 ea 99 70 41
       13.331935 13.656744 19.32788 15.037577
000100 ec 2d ce 41 d5 c9 dd 41 7f 8f e4 41 16 d3 de 41
       25.772423 27.72355 28.570066 27.85307
000110 8c f9 4e 41 c9 bf 4e 41 ab 9e 4d 41 d7 0c 66 41
       12.935925 12.921823 12.851237 14.378135
000120 12 c1 55 41 00 d8 5e 41 d1 0b c4 41 98 df e2 41
       13.359636 13.927734 24.50577 28.359177
000130 76 86 ec 41 9f f1 d4 41 f0 8e dc 41 b5 68 b7 41
       29.565655 26.61798 27.569794 22.926126
000140 99 b2 84 41 7b b7 9f 41 7a 65 b0 41 44 5a 91 41
       16.587206 19.96459 22.04955 18.169075
000150 11 c9 c4 41 7a bb c9 41 dd d7 da 41 da 02 ec 41
       24.598177 25.216541 27.355402 29.501392
000160 44 32 8d 41 b1 36 c8 41 7c 38 60 41 34 f4 96 41
       17.649544 25.026705 14.01379 18.86924
000170 9e 92 50 41 78 ed aa 41 6f f5 da 41 9c 0f c5 41
       13.035795 21.365952 27.36984 24.632622
000180 ec 0f dd 41 5b a1 e8 41 b1 19 e3 41 35 8f b2 41
       27.632774 29.078787 28.387545 22.319925
000190 1b 24 4d 41 69 32 c7 41 8b 86 cb 41 f2 36 d1 41
       12.821315 24.899614 25.440695 26.151829
0001a0 a1 ee e5 41 95 ed e0 41 e9 58 e3 41 53 d1 f1 41
       28.741518 28.116007 28.418413 30.22721
0001b0 3d ac d9 41 f9 b5 e2 41 0d f1 83 41 24 c7 b5 41
       27.2091 28.338854 16.4927 22.722237
0001c0 5b 52 d4 41 34 0b d9 41 fc 83 ed 41 b5 ea e3 41
       26.540213 27.13047 29.689445 28.489603
0001d0 35 5f de 41 db ff ed 41 8c 87 f2 41 de 2c ee 41
       27.796488 29.74993 30.316185 29.771908
0001e0 d2 d1 f0 41 90 51 84 bb c1 a5 ec 41 a6 c5 ed 41
       30.102451 -0.0040380433 29.580935 29.721508
0001f0 7f 1a f0 41 d0 d8 e4 41 d0 29 ce 41 f8 cf dd 41
       30.012938 28.605865 25.770416 27.726547
000200 ef 1d db 41 7b e0 e7 41 09 46 ec 41 f1 30 8e 41
       27.389616 28.98461 29.534197 17.773897
000210 ea 6a 80 41 24 a0 e5 41 c7 9c de 41 ea 6d e0 41
       16.052204 28.703194 27.826551 28.053669
000220 9d ee d5 41 74 33 c9 41 9c 0f d4 41 da 58 bc 41
       26.74151 25.150124 26.507622 23.543385
000230 fe a5 a7 41 31 c6 c9 41 d6 44 c9 41 69 34 9f 41
       20.95605 25.221773 25.158611 19.90059
000240 df d4 e1 41 35 ad dd 41 73 3d c7 41 0c e5 cb 41
       28.228941 27.709574 24.905005 25.48684
000250 8f c4 d6 41 7f 09 ab 41 96 23 77 41 7a 54 e4 41
       26.845976 21.379637 15.446188 28.541248
000260 8d 0c e1 41 e5 c5 93 41 5e 15 d0 41 83 30 eb 41
       28.131128 18.471628 26.010433 29.398687
000270 a6 fb dc 41 ba aa a1 41 d0 c0 cf 41 3c 47 a9 41
       27.622875 20.208363 25.969147 21.159782
000280 1b dd a2 41 49 ba 67 41 eb 22 bf 41 43 d8 b7 41
       20.357962 14.48298 23.89205 22.980597
000290 e0 33 6b 41 28 08 d6 41 39 cb db 41 bf 4c ce 41
       14.700165 26.753983 27.47423 25.787474
0002a0 b2 3f 96 41 69 18 85 41 56 3e 97 41 54 4e c6 41
       18.781101 16.636919 18.905437 24.788246
0002b0 73 d7 4d 41 de 3b cf 41 3f e6 93 41 ad 9d d7 41
       12.8651 25.904232 18.487425 26.95199
0002c0 eb 1c ee 41 70 2a e7 41 ff 4f db 41 57 41 a5 41
       29.76412 28.895721 27.41406 20.656904
0002d0 fa 0f b6 41 50 14 6f 41 4e 71 55 41 24 3e 59 41
       22.757801 14.942459 13.340162 13.577671
0002e0 ab b6 9a 41 30 a6 6f 41 0a 21 ce 41 82 1f dd 41
       19.339193 14.978073 25.766132 27.640385
0002f0 af d6 e4 41 4d ed dd 41 5f b3 4d 41 de aa 4f 41
       28.604826 27.74087 12.856292 12.979216
000300 b0 75 4e 41 95 3f 65 41 3f 81 53 41 55 3c 5c 41
       12.903732 14.328023 13.219054 13.7647295
000310 9c 3f c4 41 94 39 e2 41 be ab ec 41 ea 11 d4 41
       24.53106 28.278114 29.583858 26.508747
000320 62 e8 db 41 15 1a b6 41 f8 55 84 41 ac 3c 9f 41
       27.488468 22.762735 16.541977 19.904625
000330 55 1a b0 41 ad 13 91 41 19 56 c4 41 9e 0c ca 41
       22.012857 18.134607 24.54204 25.25616
000340 f3 9e da 41 3c 6e eb 41 a9 d2 8c 41 93 f8 c7 41
       27.327612 29.428825 17.602861 24.996374
000350 ed 7c 5d 41 2a 50 97 41 b1 37 51 41 9c be ab 41
       13.842999 18.914143 13.076097 21.468071
000360 4a 26 db 41 35 0f c5 41 24 07 dd 41 ea ad e8 41
       27.393696 24.632425 27.628487 29.084919
000370 07 0e e2 41 ec 8c b2 41 82 e3 4c 41 2b 83 c5 41
       28.25685 22.31881 12.805544 24.689047
000380 c2 9a cb 41 94 f4 d1 41 b8 ae e5 41 c5 e3 e0 41
       25.450565 26.244423 28.710312 28.111216
000390 8d 07 e3 41 39 33 f2 41 83 93 da 41 16 bd e1 41
       28.378687 30.275011 27.322027 28.217327
0003a0 1f 67 83 41 19 b7 b4 41 3d 46 d3 41 1f ae d8 41
       16.425352 22.589403 26.409296 27.08502
0003b0 2e 69 ed 41 c7 54 e3 41 03 f6 de 41 8a d6 ec 41
       29.676357 28.416395 27.870123 29.604755
0003c0 0e b4 f1 41 20 30 ee 41 aa aa f0 41 c0 fe 8a 3d
       30.212917 29.773499 30.083332 0.06786871
0003d0 b9 c0 eb 41 6f 2b ed 41 21 0b f0 41 d4 d1 e4 41
       29.469103 29.646208 30.005434 28.602455
0003e0 45 a8 cd 41 ee c4 dd 41 e4 7c db 41 bd 11 e7 41
       25.707163 27.721157 27.435982 28.883661
0003f0 ff b7 eb 41 1a 30 8e 41 90 ff 7f 41 64 80 e5 41
       29.464842 17.773487 15.999893 28.68769

fc1.bias f4 [256]
000000 8d 1c 0e 42 15 2f 0e 42 c2 c6 0d 42 57 64 0d 42
       35.52788 35.54598 35.4441 35.34799
000010 81 b0 0e 42 1b 35 0d 42 0a 46 0e 42 bb f1 0d 42
       35.672367 35.30186 35.568398 35.486065
000020 88 e3 0d 42 69 4b 0e 42 6f 4c 0d 42 19 47 0d 42
       35.4722 35.573643 35.324642 35.31943
000030 fa 6d 0e 42 5c d8 0d 42 30 58 0e 42 c3 1e 0e 42
       35.6074 35.46129 35.58612 35.53004
000040 14 f7 0d 42 bb 73 0e 42 97 3b 0e 42 4a 13 0e 42
       35.491287 35.613018 35.558193 35.518837
000050 7b a3 0e 42 89 e5 0d 42 3c 5a 0e 42 80 aa 0d 42
       35.65965 35.474155 35.58812 35.416504
000060 ab e1 0d 42 99 e2 0d 42 a3 5c 0e 42 5c 64 0e 42
       35.47038 35.471287 35.590466 35.598007
000070 d4 6d 0d 42 a8 df 0d 42 fa 79 0e 42 40 7f 0e 42
       35.357254 35.468414 35.619118 35.624268
000080 61 46 0e 42 75 89 0e 42 f5 b5 0d 42 c1 c0 0d 42
       35.56873 35.634235 35.427692 35.438236
000090 c9 e7 0d 42 2c a8 0d 42 d6 f1 0e 42 b1 90 0e 42
       35.476353 35.41423 35.736168 35.6413
0000a0 ff e3 0e 42 f1 e1 0e 42 ec 9d 0e 42 6b ba 0e 42
       35.722652 35.720646 35.65422 35.68205
0000b0 f1 c5 0d 42 7d 80 0e 42 9e 09 0e 42 d0 31 0e 42
       35.443302 35.625477 35.50939 35.548645
0000c0 1d 81 0e 42 73 5d 0e 42 11 80 0e 42 a1 a8 0d 42
       35.626087 35.59126 35.625065 35.414677
0000d0 cd 3b 0e 42 ac 96 0d 42 17 64 0e 42 5c 14 0e 42
       35.5584 35.39714 35.597744 35.519882
0000e0 f3 49 0d 42 90 d3 0e 42 5d 2e 0e 42 ea e5 0d 42
       35.322216 35.706604 35.545277 35.474525
0000f0 f5 3a 0e 42 a9 9f 0d 42 67 4e 0e 42 10 39 0e 42
       35.557575 35.40592 35.576565 35.555725
000100 05 1b 0d 42 82 ba 0e 42 b9 df 0e 42 9d 71 0e 42
       35.276386 35.682137 35.71848 35.61095
000110 1d d8 0d 42 26 13 0d 42 24 1a 0e 42 c7 72 0e 42
       35.46105 35.2687 35.525528 35.612087
000120 d9 bf 0e 42 5b 20 0e 42 f6 18 0e 42 57 77 0d 42
       35.68735 35.531597 35.524376 35.366543
000130 16 74 0e 42 93 42 0f 42 05 83 0d 42 70 69 0c 42
       35.613365 35.815014 35.37795 35.102966
000140 c5 d9 0d 42 f8 8d 0d 42 31 69 0e 42 34 6d 0e 42
       35.462666 35.38864 35.602726 35.606644
000150 53 78 0c 42 43 b6 0e 42 4c 70 0e 42 83 59 0d 42
       35.117504 35.67799 35.609665 35.337414
000160 95 5a 0e 42 35 c3 0d 42 3e b7 0e 42 18 c1 0e 42
       35.58846 35.44063 35.678947 35.68857
000170 8f 92 0e 42 7f 91 0c 42 00 bf 0d 42 51 10 0d 42
       35.643124 35.142086 35.436523 35.265934
000180 a9 d7 0c 42 85 99 0e 42 21 64 0e 42 44 95 0e 42
       35.210606 35.64992 35.597782 35.645767
000190 09 7c 0e 42 ca 1e 0e 42 3a 35 0e 42 a5 5a 0d 42
       35.621128 35.530067 35.55198 35.33852
0001a0 e1 2e 0e 42 3b b3 0e 42 08 a1 0d 42 95 d7 0e 42
       35.54578 35.67503 35.407257 35.71053
0001b0 b3 4f 0e 42 0a 92 0e 42 dd 55 0d 42 f5 7c 0b 42
       35.57783 35.642616 35.33385 34.87203
0001c0 72 88 0e 42 e9 29 0e 42 22 48 0e 42 01 36 0e 42
       35.633247 35.540928 35.570442 35.55274
0001d0 06 64 0e 42 05 13 0e 42 4c 64 0e 42 92 23 0f 42
       35.59768 35.518574 35.597946 35.784737
0001e0 61 22 0d 42 d9 d2 0e 42 b9 f7 0d 42 8b 93 0d 42
       35.283573 35.705906 35.491917 35.394085
0001f0 1f 16 0e 42 9a 90 0e 42 77 9e 0e 42 76 e3 0e 42
       35.521603 35.641212 35.65475 35.72213
000200 48 d5 0e 42 80 a9 0e 42 be 9e 0e 42 41 55 0c 42
       35.708282 35.665527 35.65502 35.083256
000210 c4 93 0e 42 8d 14 0e 42 cf e8 0d 42 2d 46 0e 42
       35.644302 35.52007 35.477352 35.56853
000220 65 7d 0d 42 16 54 0e 42 dd af 0d 42 57 5b 0c 42
       35.372456 35.582115 35.42174 35.0892
000230 ac a1 0e 42 c6 2e 0e 42 9d 6a 0e 42 9c b5 0e 42
       35.657883 35.545677 35.604115 35.677353
000240 6f 6e 0e 42 eb 28 0e 42 b9 bc 0e 42 44 ae 0d 42
       35.607845 35.53996 35.6843 35.42018
000250 30 ed 0d 42 c7 c4 0e 42 d9 f4 0e 42 99 f8 0d 42
       35.48163 35.692165 35.73911 35.49277
000260 6b 7c 0e 42 47 9c 0c 42 8e c3 0d 42 81 6c 0e 42
       35.621502 35.152615 35.44097 35.60596
000270 ec 1a 0f 42 f2 4d 0c 42 12 73 0e 42 09 93 0e 42
       35.77629 35.07612 35.612373 35.64359
000280 89 de 0d 42 7c b3 0e 42 62 ee 0d 42 83 42 0e 42
       35.46732 35.675278 35.482796 35.564953
000290 5a ea 0d 42 a9 07 0e 42 24 4a 0e 42 8a 07 0d 42
       35.47886 35.50748 35.572403 35.257362
0002a0 60 6c 0e 42 d3 47 0e 42 5e 03 0e 42 a7 94 0e 42
       35.605835 35.57014 35.50329 35.64517
0002b0 c1 1c 0e 42 20 b7 0d 42 d9 63 0e 42 d5 20 0e 42
       35.52808 35.428833 35.597507 35.532063
0002c0 86 4d 0e 42 e8 6f 0d 42 c0 4a 0d 42 90 69 0e 42
       35.575706 35.359283 35.322998 35.60309
0002d0 b3 80 0e 42 cf 37 0e 42 1f 48 0e 42 5b 56 0e 42
       35.625683 35.5545 35.57043 35.58433
0002e0 e3 01 0e 42 a4 2b 0d 42 db 0d 0e 42 d8 4b 0e 42
       35.501842 35.292618 35.51353 35.574066
0002f0 ba 22 0c 42 a5 15 0e 42 97 a4 0e 42 f5 48 0e 42
       35.033913 35.521137 35.660732 35.571247
000300 0b 55 0e 42 1b be 0e 42 52 01 0f 42 e8 53 0e 42
       35.58305 35.68565 35.75129 35.58194
000310 44 60 0e 42 a1 f0 0b 42 71 e2 0d 42 be 22 0e 42
       35.59401 34.98499 35.471134 35.533928
000320 67 a2 0d 42 cf 99 0d 42 f1 4a 0e 42 c1 7f 0e 42
       35.408596 35.400204 35.573185 35.62476
000330 f9 53 0d 42 97 a1 0d 42 4f 00 0e 42 3d 22 0e 42
       35.332005 35.407803 35.5003 35.533436
000340 a8 28 0d 42 b7 70 0d 42 86 97 0e 42 18 4e 0e 42
       35.289703 35.360073 35.647972 35.576263
000350 b9 45 0e 42 52 c0 0e 42 77 42 0d 42 d2 e4 0c 42
       35.56809 35.687813 35.314907 35.223457
000360 59 12 0e 42 e1 91 0e 42 7d 43 0e 42 76 04 0e 42
       35.517918 35.64246 35.565907 35.504356
000370 c7 e8 0d 42 40 85 0e 42 ec a6 0e 42 36 98 0d 42
       35.47732 35.630127 35.66301 35.398643
000380 68 a3 0d 42 8b 55 0c 42 78 d2 0d 42 4e 51 0e 42
       35.409576 35.083538 35.455536 35.5794
000390 7b 9f 0d 42 48 28 0e 42 a9 4a 0e 42 fc 2a 0e 42
       35.405743 35.539337 35.57291 35.541977
0003a0 ef 07 0e 42 21 a2 0e 42 3a d8 0d 42 ef 9f 0e 42
       35.507748 35.65833 35.46116 35.656185
0003b0 34 1b 0f 42 46 6c 0e 42 1b 45 0e 42 e3 76 0e 42
       35.776566 35.605736 35.567486 35.6161
0003c0 34 f6 0d 42 82 2f 0e 42 c3 0e 0e 42 cb d2 0d 42
       35.490433 35.546394 35.514416 35.455853
0003d0 1d 4b 0d 42 27 8f 0d 42 08 08 0e 42 ca e5 0e 42
       35.323353 35.389797 35.507843 35.724403
0003e0 55 c1 0d 42 b3 5a 0e 42 da 0c 0e 42 ac 8c 0e 42
       35.4388 35.588573 35.51255 35.637375
0003f0 ae 94 0b 42 e0 69 0e 42 ce 72 0e 42 a4 a5 0d 42
       34.895195 35.603394 35.612114 35.41176

fc2.weight f4 [122, 256]
000000 e3 fd b6 40 2c c6 b7 40 77 bf b5 40 d0 5a b6 40
       5.718492 5.742941 5.679622 5.6985855
000010 cd ef b6 40 29 fd b6 40 0b 90 b4 40 cc a2 b7 40
       5.7167726 5.7184033 5.6425834 5.7386227
000020 5d 05 b6 40 2c e3 b6 40 3e aa b4 40 67 f2 b5 40
       5.6881547 5.715231 5.6457815 5.68584
000030 6c 40 b7 40 d2 fd b6 40 7a 41 b6 40 ca 84 b5 40
       5.726614 5.718484 5.6954927 5.6724596
000040 00 24 b6 40 50 d3 b5 40 2d 5e b4 40 3e 19 b5 40
       5.6918945 5.682045 5.636496 5.6593313
000050 54 46 b8 40 cc 60 b7 40 99 69 b7 40 b4 df b7 40
       5.758585 5.730566 5.7316403 5.7460575
000060 a5 93 b5 40 43 31 b6 40 55 aa b4 40 be 51 b8 40
       5.674273 5.6935134 5.6457925 5.7599783
000070 99 43 b4 40 d6 3a b7 40 ec 4d b8 40 8c 17 b8 40
       5.6332517 5.725932 5.759512 5.7528744
000080 09 5d b7 40 36 40 b6 40 79 58 b5 40 89 b8 b5 40
       5.730107 5.6953382 5.66705 5.6787763
000090 5c 81 b4 40 20 04 b5 40 bc c0 b7 40 eb 90 b4 40
       5.640791 5.6567535 5.742277 5.64269
0000a0 22 e2 b7 40 ef a7 b7 40 92 44 b5 40 48 27 b7 40
       5.746354 5.7392497 5.6646204 5.723545
0000b0 c4 02 b6 40 80 9f b6 40 d7 40 b5 40 fe 2f b7 40
       5.6878376 5.70697 5.664165 5.7246084
0000c0 10 52 b6 40 d7 13 b6 40 6c e2 b7 40 b8 c0 b4 40
       5.6975174 5.689922 5.7463894 5.648525
0000d0 6d af b5 40 7d 2f b6 40 07 2d b6 40 f6 f6 b4 40
       5.6776643 5.693297 5.6929965 5.6551466
0000e0 32 fb b5 40 43 d7 b4 40 18 4f b6 40 df 2b b8 40
       5.6869135 5.651277 5.697155 5.7553554
0000f0 bd 69 b7 40 24 88 b5 40 f9 a5 b6 40 dc ab b4 40
       5.7316575 5.6728687 5.7077603 5.645979
000100 34 05 b4 40 bb 1a b6 40 38 18 b8 40 1b 74 b6 40
       5.625635 5.690763 5.7529564 5.701673
000110 cd 27 b4 40 ac 8b b4 40 5d e2 b4 40 11 46 b6 40
       5.6298585 5.64205 5.652632 5.696053
000120 1a f8 b7 40 29 cd b5 40 1b 07 b4 40 96 d9 b5 40
       5.749036 5.681294 5.6258674 5.682811
000130 4d 16 b7 40 cf f6 b4 40 9b 45 b5 40 9c 7e b4 40
       5.7214723 5.655128 5.6647468 5.6404552
000140 b5 98 b5 40 9b 2f b8 40 c1 04 b6 40 79 d0 b7 40
       5.674891 5.755811 5.6880803 5.7441983
000150 a7 8d b5 40 b2 54 b7 40 cc 66 b7 40 ee fb b3 40
       5.6735415 5.729089 5.7312984 5.624503
000160 e8 31 b8 40 17 bd b6 40 c8 0b b5 40 72 ea b4 40
       5.756092 5.7105823 5.657688 5.653619
000170 0a 64 b5 40 ff 6e b3 40 c0 16 b5 40 38 fe b4 40
       5.668462 5.6072993 5.659027 5.6560326
000180 3c 0a b5 40 76 47 b5 40 3b 9e b5 40 d7 c7 b7 40
       5.6574993 5.6649733 5.6755652 5.7431445
000190 e3 bf b5 40 8e 9d b4 40 81 0a b7 40 ab 71 b3 40
       5.6796737 5.6442327 5.720032 5.6076255
0001a0 d4 e3 b4 40 b4 4b b6 40 b3 96 b4 40 a6 da b7 40
       5.652811 5.696741 5.643396 5.7454405
0001b0 a9 c0 b4 40 ae a2 b4 40 5c f6 b6 40 d8 55 b2 40
       5.648518 5.6448584 5.717573 5.572979
0001c0 e2 d5 b7 40 24 c7 b6 40 2f 82 b6 40 53 a7 b7 40
       5.7448587 5.711809 5.7033916 5.7391753
0001d0 c5 68 b6 40 fb 62 b6 40 78 f1 b4 40 3f f2 b4 40
       5.7002892 5.6995826 5.654476 5.654571
0001e0 42 74 b4 40 61 11 b7 40 8f 01 b8 40 9a 8b b5 40
       5.6391916 5.7208714 5.7501903 5.673291
0001f0 1d c2 b6 40 f1 be b6 40 d5 d8 b5 40 46 f0 b4 40
       5.7111955 5.7108083 5.6827188 5.6543303
000200 66 7b b4 40 29 7d b7 40 a1 33 b8 40 65 aa b6 40
       5.6400633 5.7340283 5.7563024 5.7083
000210 1f d6 b5 40 24 c2 b6 40 99 59 b6 40 63 76 b5 40
       5.682388 5.711199 5.698437 5.6707015
000220 a2 25 b7 40 bc f7 b5 40 e8 11 b5 40 f5 00 b5 40
       5.723344 5.686491 5.658436 5.656367
000230 19 6b b6 40 94 fd b7 40 60 0c b5 40 f5 8d b7 40
       5.7005734 5.7497044 5.6577606 5.7360787
000240 73 03 b7 40 cc 3a b6 40 ca 18 b5 40 2f 9c b5 40
       5.719171 5.6946774 5.659276 5.6753154
000250 d5 01 b8 40 92 f1 b5 40 c7 65 b6 40 c2 0e b5 40
       5.7502236 5.6857386 5.699924 5.6580515
000260 8b ce b4 40 bb 4b b5 40 14 44 b7 40 03 ee b5 40
       5.650213 5.6654944 5.7270603 5.685304
000270 7c a9 b4 40 cf a3 b4 40 89 7f b4 40 93 b1 b7 40
       5.645689 5.644996 5.6405683 5.7404265
000280 51 ab b5 40 d2 f2 b4 40 23 8a b6 40 6f 12 b5 40
       5.6771626 5.654641 5.7043624 5.6585
000290 28 6c b4 40 67 10 b6 40 8d a0 b5 40 9f f8 b4 40
       5.6382027 5.6895022 5.6758485 5.6553493
0002a0 0b 33 b8 40 35 10 b8 40 dd 6d b4 40 4b 43 b7 40
       5.756231 5.7519784 5.638411 5.7269645
0002b0 07 da b7 40 8a 8b b5 40 71 1c b4 40 07 29 b6 40
       5.7453647 5.6732836 5.628472 5.692508
0002c0 5a 8f b6 40 77 00 b6 40 39 2a b4 40 be e4 b4 40
       5.704999 5.6875567 5.630154 5.6529226
0002d0 8c c8 b5 40 d3 0e b5 40 18 3b b7 40 a3 0d b7 40
       5.680731 5.6580596 5.7259636 5.7204146
0002e0 1e 85 b4 40 c1 02 b5 40 b3 14 b5 40 0a 17 b7 40
       5.6412497 5.656586 5.6587768 5.7215624
0002f0 e1 27 b3 40 9a 55 b6 40 f3 2a b6 40 4b a0 b7 40
       5.598618 5.6979494 5.692743 5.738317
000300 7e 9b b6 40 11 01 b7 40 92 55 b5 40 1e e9 b5 40
       5.706481 5.71888 5.6666956 5.6847067
000310 f9 00 b5 40 0e 74 b4 40 c3 00 b6 40 36 2a b7 40
       5.6563687 5.639167 5.687593 5.7239027
000320 87 2b b4 40 61 4e b6 40 af 71 b6 40 5a 38 b7 40
       5.6303134 5.6970677 5.7013774 5.725629
000330 9d fc b4 40 ec 00 b8 40 98 7f b5 40 b5 22 b6 40
       5.6558366 5.7501125 5.6718254 5.6917367
000340 46 5a b6 40 fc 03 b6 40 d9 1c b6 40 f5 af b6 40
       5.6985197 5.6879864 5.6910214 5.708979
000350 2d 98 b7 40 8d 61 b8 40 3e ee b3 40 27 9c b4 40
       5.737326 5.761908 5.6228323 5.6440616
000360 31 9e b7 40 50 2a b8 40 f8 44 b6 40 31 ea b5 40
       5.7380605 5.755165 5.695919 5.684838
000370 c8 9e b7 40 15 f3 b6 40 bb 3b b8 40 4b f5 b4 40
       5.7381325 5.717173 5.7572913 5.654943
000380 bc b9 b6 40 1c d1 b4 40 83 e3 b6 40 9f e9 b7 40
       5.7101727 5.650526 5.7152724 5.747268
000390 1b e9 b7 40 ce e7 b6 40 e3 83 b7 40 72 f5 b5 40
       5.7472053 5.7157965 5.7348495 5.6862116
0003a0 fb d8 b6 40 c0 3e b5 40 ca ed b4 40 c7 e3 b7 40
       5.713987 5.66391 5.654027 5.746555
0003b0 c5 8a b6 40 4f 61 b5 40 36 0a b6 40 0e 75 b4 40
       5.7044396 5.6681285 5.6887465 5.639289
0003c0 08 c9 b6 40 de d1 b7 40 53 56 b4 40 b2 d0 b5 40
       5.71204 5.7443686 5.6355376 5.6817255
0003d0 f8 e8 b4 40 d8 c2 b6 40 34 9b b7 40 6f b1 b5 40
       5.6534386 5.7112846 5.7376957 5.6779094
0003e0 05 31 b5 40 f5 b2 b5 40 3e 58 b5 40 2a c7 b6 40
       5.662234 5.6780953 5.6670218 5.711812
0003f0 60 4d b3 40 fb 63 b4 40 49 ef b5 40 8c 7a b6 40
       5.603195 5.6372046 5.6854596 5.7024593

fc2.bias f4 [122]
000000 9b 9d cd 40 bf 8e cb 40 86 21 cf 40 f3 e9 c6 40
       6.425489 6.361175 6.472842 6.2160583
000010 8d b3 c2 40 35 d0 c6 40 21 db c4 40 5d 1e c9 40
       6.084418 6.212916 6.151749 6.2849565
000020 78 95 c9 40 01 9d ae 40 37 35 99 40 ee 5f cb 40
       6.2994957 5.4566655 4.787746 6.35546
000030 85 5a c9 40 c6 ae c7 40 12 e1 c6 40 2e 3a c3 40
       6.2922997 6.2400846 6.2149744 6.100852
000040 f9 dc c4 40 97 4e c1 40 f4 0a ba 40 18 e4 be 40
       6.151974 6.0408435 5.813837 5.9653435
000050 6e a8 c2 40 87 70 aa 40 7a b0 c8 40 46 54 c5 40
       6.0830603 5.3262362 6.2715425 6.1665373
000060 a1 18 c4 40 fb 97 c2 40 31 6f c8 40 eb 41 c0 40
       6.1280065 6.0810523 6.263573 6.0080466
000070 5b fa 96 40 36 84 c9 40 85 63 c9 40 de 50 a3 40
       4.718061 6.297389 6.2933984 5.1036215
000080 f6 30 c2 40 ce 6c cb 40 cc d0 c8 40 bd 36 b9 40
       6.0684767 6.357032 6.275488 5.787932
000090 16 22 c5 40 70 5b bb 40 87 3c bf 40 29 53 8c 40
       6.160411 5.854912 5.9761386 4.3851514
0000a0 33 fa c0 40 67 26 be 40 b7 fa 8e 40 04 4c c5 40
       6.030542 5.942188 4.468105 6.1655293
0000b0 c4 48 c7 40 56 64 c6 40 51 70 b5 40 a6 7b aa 40
       6.2276325 6.199748 5.6699605 5.327594
0000c0 8f c9 b8 40 92 88 c2 40 47 8b 6b 40 6b 7c c8 40
       5.7746043 6.079171 3.6803758 6.2651877
0000d0 e1 9f a9 40 1e c1 c5 40 87 f9 c9 40 ff c9 cb 40
       5.3007665 6.179824 6.31171 6.3684077
0000e0 6c 46 c6 40 f5 a1 bd 40 7f 12 c1 40 3d ab 9e 40
       6.1960964 5.92602 6.033508 4.958403
0000f0 87 48 85 40 7f 19 25 40 ae 2a b2 40 13 9f 91 40
       4.1651034 2.5796812 5.56771 4.5506682
000100 27 c3 c5 40 96 bc c8 40 83 65 c5 40 df 61 c7 40
       6.1800723 6.2730207 6.1686416 6.230697
000110 b2 63 69 40 5f 58 58 40 2d 51 3b 40 d2 db 96 40
       3.64671 3.3803937 2.9268296 4.7143335
000120 b2 4e 46 40 eb 3a 85 40 a6 56 c2 40 d7 be c7 40
       3.0985532 4.163442 6.073077 6.242046
000130 e1 f4 ce 40 2f 15 c4 40 b3 8b c5 40 98 bb c1 40
       6.4673924 6.127586 6.173303 6.0541496
000140 40 71 9f 40 2e 26 b9 40 93 c3 bc 40 2b f4 b4 40
       4.9825745 5.7859106 5.898874 5.6548057
000150 d8 5e bf 40 da e2 c1 40 e6 45 c5 40 3d e6 c9 40
       5.9803276 6.058942 6.1647825 6.3093553
000160 c6 08 b2 40 d4 3e c1 40 6f a0 8c 40 af 18 b5 40
       5.563571 6.0389194 4.394584 5.659263
000170 4b 90 7e 40 2b 92 be 40 5d 82 c5 40 36 4c c0 40
       3.977557 5.955343 6.1721635 6.009303
000180 8f 40 c8 40 40 54 c9 40 84 ee c7 40 e9 e4 bd 40
       6.2578807 6.2915344 6.2478657 5.934193
000190 d6 16 53 40 ad c3 c3 40 92 82 c1 40 66 a3 c5 40
       3.2982688 6.117636 6.0471888 6.176196
0001a0 0f 7b cb 40 33 53 c8 40 89 e7 c5 40 b3 f6 ce 40
       6.358772 6.260156 6.1845136 6.4676147
0001b0 67 9f c7 40 2d d0 c9 40 9e 11 94 40 48 23 bd 40
       6.2382083 6.306662 4.6271505 5.910557
0001c0 5b fb c4 40 94 84 c5 40 1a f4 cb 40 a2 70 c6 40
       6.155683 6.172434 6.3735476 6.201249
0001d0 fd 50 c5 40 00 7b cd 40 9f 19 d1 40 99 56 cf 40
       6.1661363 6.4212646 6.5343776 6.479321
0001e0 23 35 cc 40 88 3e 7b bd
       6.3814864 -0.06133893

fc1.weight f4 [256, 122]
000000 a8 be ec 41 90 fd ed 41 ad 7d f0 41 31 b7 e5 41
       29.593094 29.74881 30.061365 28.714449
000010 88 d4 cd 41 27 e2 dd 41 7f 7c db 41 56 7e e8 41
       25.728775 27.735426 27.43579 29.061687
000020 1b 92 ec 41 73 51 8f 41 7c 41 80 41 4f e5 e6 41
       29.57134 17.91477 16.031975 28.861967
000030 90 c1 df 41 17 49 e1 41 26 04 d6 41 80 e4 c9 41
       27.969513 28.160688 26.752026 25.236572
000040 1c 17 d4 41 68 2e bd 41 f3 e0 a7 41 98 7c c9 41
       26.511284 23.64766 20.984838 25.185837
000050 5e c8 c8 41 03 b3 9e 41 8d ea e1 41 92 5b de 41
       25.097836 19.837408 28.239527 27.794712
000060 ea b2 c8 41 84 43 cb 41 cb 52 d7 41 b9 ea ab 41
       25.08736 25.407967 26.915426 21.48961
000070 d8 22 78 41 ce 6a e4 41 90 54 e1 41 01 09 94 41
       15.508507 28.55215 28.16629 18.504396
000080 66 45 cf 41 aa fa ea 41 21 75 de 41 4a 4e a2 41
       25.908886 29.372395 27.807192 20.288227
000090 f2 62 d0 41 56 13 ab 41 f2 6a a3 41 31 88 68 41
       26.048313 21.384441 20.42722 14.53325
0000a0 b7 89 c0 41 0a 18 b8 41 47 5d 6c 41 db 65 d7 41
       24.067244 23.011738 14.772773 26.924734
0000b0 db 6e dc 41 47 30 cf 41 60 aa 96 41 af d2 85 41
       27.554129 25.898573 18.83319 16.727873
0000c0 6b b5 96 41 5d a4 c6 41 f2 30 4e 41 13 9a cf 41
       18.838583 24.830256 12.88695 25.950232
0000d0 8e 07 93 41 07 ff d7 41 79 8d ed 41 aa f8 e6 41
       18.378689 26.999525 29.694078 28.871418
0000e0 8b 53 dc 41 da 2d a6 41 e4 7e b7 41 3b ff 6f 41
       27.540792 20.772388 22.936958 14.999812
0000f0 bb 68 55 41 70 88 5a 41 01 94 9a 41 f4 c8 70 41
       13.338069 13.65831 19.322268 15.049061
000100 4c 49 ce 41 47 e3 dd 41 3f a4 e4 41 60 ed de 41
       25.78579 27.735975 28.580198 27.865906
000110 8c f9 4e 41 c9 bf 4e 41 0f d4 4d 41 2b 0a 66 41
       12.935925 12.921823 12.864272 14.377482
000120 e1 93 55 41 87 e9 5e 41 31 27 c4 41 4b ea e2 41
       13.348603 13.9320135 24.519136 28.3644
000130 9c a1 ec 41 2c fb d4 41 28 a0 dc 41 42 72 b7 41
       29.57891 26.622643 27.578201 22.93079
000140 cf c6 84 41 53 cb 9f 41 20 7b b0 41 ef 6a 91 41
       16.597075 19.97428 22.06012 18.177214
000150 72 b2 c4 41 25 cc c9 41 97 f2 da 41 38 0e ec 41
       24.587132 25.22468 27.368452 29.506943
000160 d5 28 8d 41 26 49 c8 41 d0 35 60 41 cc f8 96 41
       17.644938 25.035717 14.013138 18.871483
000170 53 97 50 41 8b eb aa 41 32 fe da 41 34 14 c5 41
       13.036944 21.365011 27.374119 24.634865
000180 c4 23 dd 41 91 b5 e8 41 c5 30 e3 41 93 9a b2 41
       27.642464 29.088655 28.398813 22.325476
000190 4b ff 4c 41 1c 41 c7 41 4f 8d cb 41 c6 44 d1 41
       12.812327 24.906792 25.443998 26.15858
0001a0 0f 05 e6 41 77 f7 e0 41 be 72 e3 41 5a ed f1 41
       28.75247 28.120832 28.431026 30.240894
0001b0 51 c6 d9 41 54 b8 e2 41 f0 0c 84 41 73 b6 b5 41
       27.221834 28.340004 16.506317 22.714087
0001c0 a5 6c d4 41 e7 15 d9 41 af 92 ed 41 40 03 e4 41
       26.55305 27.135695 29.696623 28.501587
0001d0 a3 75 de 41 18 0d ee 41 9a 9c f2 41 b2 3a ee 41
       27.80744 29.756393 30.326466 29.77866
0001e0 a7 eb f0 41 90 51 84 bb c6 c1 ec 41 bf e0 ed 41
       30.115065 -0.0040380433 29.594616 29.73474
0001f0 6d 36 f0 41 33 eb e4 41 3f 45 ce 41 83 da dd 41
       30.026575 28.614843 25.783812 27.731695
000200 8c 0b db 41 b8 e3 e7 41 af 61 ec 41 2d 2f 8e 41
       27.380638 28.98619 29.547697 17.773035
000210 ea 6a 80 41 88 b9 e5 41 d1 b6 de 41 f6 89 e0 41
       16.052204 28.715591 27.839266 28.067364
000220 36 d5 d5 41 f1 3f c9 41 04 1c d4 41 58 5a bc 41
       26.729107 25.156221 26.51368 23.544113
000230 0a b9 a7 41 93 b5 c9 41 a4 60 c9 41 23 29 9f 41
       20.965351 25.21366 25.172188 19.895086
000240 08 e6 e1 41 ad c4 dd 41 e2 58 c7 41 c6 d9 cb 41
       28.23732 27.721033 24.9184 25.481335
000250 c0 d1 d6 41 31 1e ab 41 d6 f0 76 41 86 67 e4 41
       26.852417 21.389742 15.433798 28.550549
000260 9e 25 e1 41 8f c4 93 41 71 16 d0 41 4a 37 eb 41
       28.143368 18.470976 26.010958 29.401997
000270 b7 14 dd 41 23 af a1 41 e5 d8 cf 41 e2 62 a9 41
       27.635115 20.210516 25.980906 21.173283
000280 30 f5 a2 41 55 a3 67 41 96 1e bf 41 5d d6 b7 41
       20.36972 14.477376 23.889935 22.97967
000290 9b 47 6b 41 b3 12 d6 41 a2 cf db 41 55 62 ce 41
       14.704982 26.75913 27.476383 25.798014
0002a0 6e 4f 96 41 13 17 85 41 d4 3f 97 41 bc 5a c6 41
       18.788784 16.636267 18.906166 24.794304
0002b0 73 d7 4d 41 1a 3a cf 41 d0 dc 93 41 aa b4 d7 41
       12.8651 25.90337 18.482819 26.963215
0002c0 96 18 ee 41 2c 3a e7 41 ff 64 db 41 d0 59 a5 41
       29.762005 28.903404 27.424314 20.668854
0002d0 0d 11 b6 41 62 4c 6f 41 4d 8a 55 41 97 44 59 41
       22.758326 14.956148 13.346265 13.579246
0002e0 35 ab 9a 41 14 d5 6f 41 5e 3c ce 41 e6 38 dd 41
       19.333597 14.989521 25.779476 27.652782
0002f0 61 eb e4 41 8a 07 de 41 5f b3 4d 41 de aa 4f 41
       28.614931 27.753681 12.856292 12.979216
000300 f3 aa 4e 41 e9 3c 65 41 26 54 53 41 d7 4d 5c 41
       12.916736 14.327371 13.208044 13.769004
000310 f0 5a c4 41 4b 44 e2 41 d7 c6 ec 41 70 1b d4 41
       24.544403 28.283346 29.59709 26.513397
000320 8b f9 db 41 9b 23 b6 41 1d 6a 84 41 7a 50 9f 41
       27.496847 22.767385 16.551813 19.914295
000330 eb 2f b0 41 4b 24 91 41 8c 3f c4 41 3c 1d ca 41
       22.023397 18.142721 24.531029 25.264275
000340 9c b9 da 41 96 79 eb 41 3a c9 8c 41 f6 0a c8 41
       27.34063 29.434368 17.598255 25.005352
000350 41 7a 5d 41 c9 54 97 41 69 3c 51 41 b6 bc ab 41
       13.842347 18.916399 13.077249 21.467144
000360 0a 2f db 41 d4 13 c5 41 f2 1a dd 41 0f c2 e8 41
       27.397968 24.634682 27.638157 29.094755
000370 04 25 e2 41 46 98 b2 41 b7 be 4c 41 d2 91 c5 41
       28.268074 22.324352 12.796561 24.696201
000380 89 a1 cb 41 5a 02 d2 41 16 c5 e5 41 9f ed e0 41
       25.453875 26.251148 28.721233 28.116026
000390 57 21 e3 41 27 4f f2 41 8d ad da 41 7a bf e1 41
       28.39128 30.288649 27.334742 28.218494
0003a0 ed 82 83 41 7b a6 b4 41 7a 60 d3 41 d6 b8 d8 41
       16.438929 22.58129 26.422108 27.090252
0003b0 d5 77 ed 41 40 6d e3 41 61 0c df 41 bb e3 ec 41
       29.683512 28.428345 27.881044 29.611197
0003c0 0e c9 f1 41 e6 3d ee 41 74 c4 f0 41 c0 fe 8a 3d
       30.223171 29.780224 30.095924 0.06786871
0003d0 e3 dc eb 41 9e 46 ed 41 33 27 f0 41 5b e4 e4 41
       29.482855 29.659481 30.01914 28.611502
0003e0 d6 c3 cd 41 93 cf dd 41 7e 6a db 41 fd 14 e7 41
       25.720623 27.726355 27.426998 28.885248
0003f0 c5 d3 eb 41 57 2e 8e 41 90 ff 7f 41 de 99 e5 41
       29.478403 17.772627 15.999893 28.70013

fc1.bias f4 [256]
000000 9e 2a 0e 42 1e 3d 0e 42 d8 d4 0d 42 6b 72 0d 42
       35.54162 35.559685 35.457855 35.361736
000010 96 be 0e 42 2c 43 0d 42 1e 54 0e 42 c0 ff 0d 42
       35.68612 35.315598 35.582146 35.499756
000020 9c f1 0d 42 82 59 0e 42 6e 5a 0d 42 2b 55 0d 42
       35.485947 35.58741 35.33831 35.33317
000030 0f 7c 0e 42 5d e6 0d 42 42 66 0e 42 d7 2c 0e 42
       35.62115 35.474964 35.59986 35.54379
000040 2d 05 0e 42 cb 81 0e 42 ae 49 0e 42 51 21 0e 42
       35.505054 35.62675 35.571953 35.532536
000050 95 b1 0e 42 a2 f3 0d 42 5c 68 0e 42 8c b8 0d 42
       35.67342 35.487923 35.601913 35.43022
000060 ac ef 0d 42 9c f0 0d 42 b9 6a 0e 42 70 72 0e 42
       35.484055 35.48497 35.60422 35.611755
000070 db 7b 0d 42 b5 ed 0d 42 00 88 0e 42 42 8d 0e 42
       35.370953 35.482136 35.632812 35.637947
000080 75 54 0e 42 87 97 0e 42 f8 c3 0d 42 d6 ce 0d 42
       35.582478 35.647976 35.441376 35.45199
000090 da f5 0d 42 38 b6 0d 42 e7 ff 0e 42 bc 9e 0e 42
       35.49009 35.427948 35.749905 35.655014
0000a0 12 f2 0e 42 06 f0 0e 42 07 ac 0e 42 83 c8 0e 42
       35.736397 35.734398 35.667995 35.695812
0000b0 02 d4 0d 42 88 8e 0e 42 a0 17 0e 42 e5 3f 0e 42
       35.45704 35.63919 35.52307 35.562397
0000c0 2e 8f 0e 42 86 6b 0e 42 1e 8e 0e 42 a9 b6 0d 42
       35.639824 35.605003 35.638786 35.42838
0000d0 d6 49 0e 42 b8 a4 0d 42 27 72 0e 42 6d 22 0e 42
       35.572105 35.41086 35.611477 35.53362
0000e0 08 58 0d 42 a1 e1 0e 42 6d 3c 0e 42 f8 f3 0d 42
       35.335968 35.72034 35.55901 35.48825
0000f0 0a 49 0e 42 c8 ad 0d 42 78 5c 0e 42 27 47 0e 42
       35.571327 35.41971 35.5903 35.569485
000100 1a 29 0d 42 94 c8 0e 42 c8 ed 0e 42 ac 7f 0e 42
       35.29014 35.695877 35.73221 35.62468
000110 2e e6 0d 42 3a 21 0d 42 31 28 0e 42 e9 80 0e 42
       35.474785 35.282448 35.53925 35.62589
000120 e2 cd 0e 42 6c 2e 0e 42 f7 26 0e 42 5c 85 0d 42
       35.701057 35.545334 35.53805 35.380234
000130 2b 82 0e 42 ab 50 0f 42 0b 91 0d 42 8a 77 0c 42
       35.627117 35.828777 35.391644 35.116737
000140 d0 e7 0d 42 07 9c 0d 42 4a 77 0e 42 31 7b 0e 42
       35.47638 35.40237 35.616493 35.620304
000150 6b 86 0c 42 4c c4 0e 42 65 7e 0e 42 8e 67 0d 42
       35.131268 35.691696 35.623432 35.351128
000160 9c 68 0e 42 43 d1 0d 42 57 c5 0e 42 15 cf 0e 42
       35.602158 35.454357 35.692715 35.70223
000170 97 a0 0e 42 89 9f 0c 42 06 cd 0d 42 60 1e 0d 42
       35.656826 35.155796 35.45022 35.279663
000180 ba e5 0c 42 a4 a7 0e 42 3b 72 0e 42 54 a3 0e 42
       35.224342 35.66371 35.611553 35.6595
000190 14 8a 0e 42 e4 2c 0e 42 4d 43 0e 42 bb 68 0d 42
       35.634842 35.54384 35.565723 35.352276
0001a0 ed 3c 0e 42 4a c1 0e 42 04 af 0d 42 ac e5 0e 42
       35.559498 35.68876 35.420914 35.72429
0001b0 bc 5d 0e 42 1e a0 0e 42 f5 63 0d 42 06 8b 0b 42
       35.591537 35.656364 35.347614 34.885765
0001c0 7b 96 0e 42 e6 37 0e 42 26 56 0e 42 14 44 0e 42
       35.646954 35.55459 35.58413 35.566483
0001d0 1c 72 0e 42 1b 21 0e 42 52 72 0e 42 a0 31 0f 42
       35.611435 35.53233 35.61164 35.798462
0001e0 68 30 0d 42 d7 e0 0e 42 bd 05 0e 42 96 a1 0d 42
       35.29727 35.71957 35.505604 35.4078
0001f0 35 24 0e 42 9c 9e 0e 42 8f ac 0e 42 81 f1 0e 42
       35.53536 35.654892 35.668514 35.735844
000200 5e e3 0e 42 90 b7 0e 42 c4 ac 0e 42 49 63 0c 42
       35.72204 35.67926 35.668716 35.09696
000210 d9 a1 0e 42 9c 22 0e 42 e3 f6 0d 42 49 54 0e 42
       35.658054 35.5338 35.4911 35.58231
000220 75 8b 0d 42 1a 62 0e 42 f0 bd 0d 42 66 69 0c 42
       35.38619 35.595802 35.435486 35.10293
000230 b7 af 0e 42 c7 3c 0e 42 a9 78 0e 42 9b c3 0e 42
       35.671597 35.559353 35.617832 35.69102
000240 72 7c 0e 42 f0 36 0e 42 d0 ca 0e 42 52 bc 0d 42
       35.62153 35.55365 35.69806 35.433907
000250 42 fb 0d 42 dd d2 0e 42 e8 02 0f 42 b0 06 0e 42
       35.49537 35.70592 35.75284 35.50653
000260 7d 8a 0e 42 48 aa 0c 42 a0 d1 0d 42 92 7a 0e 42
       35.635242 35.16629 35.454712 35.619698
000270 00 29 0f 42 06 5c 0c 42 1b 81 0e 42 20 a1 0e 42
       35.79004 35.089867 35.62608 35.65735
000280 9e ec 0d 42 90 c1 0e 42 7d fc 0d 42 8d 50 0e 42
       35.48107 35.689026 35.49657 35.578663
000290 6d f8 0d 42 ab 15 0e 42 36 58 0e 42 93 15 0d 42
       35.492603 35.52116 35.586143 35.27107
0002a0 74 7a 0e 42 db 55 0e 42 61 11 0e 42 b0 a2 0e 42
       35.619583 35.583843 35.51697 35.658875
0002b0 bf 2a 0e 42 2b c5 0d 42 f4 71 0e 42 e8 2e 0e 42
       35.541744 35.442547 35.611282 35.545807
0002c0 86 5b 0e 42 fd 7d 0d 42 b5 58 0d 42 8f 77 0e 42
       35.58938 35.373035 35.336628 35.616756
0002d0 cb 8e 0e 42 e4 45 0e 42 2a 56 0e 42 64 64 0e 42
       35.639446 35.568253 35.584145 35.598038
0002e0 e0 0f 0e 42 c0 39 0d 42 eb 1b 0e 42 da 59 0e 42
       35.515503 35.306396 35.527264 35.587746
0002f0 bc 30 0c 42 b2 23 0e 42 a7 b2 0e 42 09 57 0e 42
       35.047592 35.53486 35.674465 35.584995
000300 1b 63 0e 42 26 cc 0e 42 6a 0f 0f 42 ed 61 0e 42
       35.596783 35.699364 35.765053 35.59563
000310 56 6e 0e 42 b0 fe 0b 42 6d f0 0d 42 d1 30 0e 42
       35.60775 34.99872 35.48479 35.547672
000320 6e b0 0d 42 dc a7 0d 42 fa 58 0e 42 d3 8d 0e 42
       35.422295 35.413925 35.58689 35.6385
000330 08 62 0d 42 96 af 0d 42 5f 0e 0e 42 4a 30 0e 42
       35.345734 35.42147 35.514034 35.547157
000340 ba 36 0d 42 cf 7e 0d 42 a3 a5 0e 42 29 5c 0e 42
       35.303444 35.373837 35.661755 35.59
000350 cb 53 0e 42 61 ce 0e 42 83 50 0d 42 ea f2 0c 42
       35.58183 35.70154 35.328625 35.23722
000360 74 20 0e 42 f0 9f 0e 42 8a 51 0e 42 74 12 0e 42
       35.531693 35.65619 35.579628 35.51802
000370 c5 f6 0d 42 50 93 0e 42 f9 b4 0e 42 49 a6 0d 42
       35.490986 35.64386 35.67673 35.412388
000380 78 b1 0d 42 9f 63 0c 42 7e e0 0d 42 61 5f 0e 42
       35.42331 35.097286 35.46923 35.593143
000390 7e ad 0d 42 5a 36 0e 42 b2 58 0e 42 0f 39 0e 42
       35.419426 35.553078 35.586617 35.55572
0003a0 03 16 0e 42 3a b0 0e 42 49 e6 0d 42 05 ae 0e 42
       35.521496 35.672096 35.474888 35.66994
0003b0 3f 29 0f 42 58 7a 0e 42 2e 53 0e 42 de 84 0e 42
       35.79028 35.619476 35.58123 35.629753
0003c0 4a 04 0e 42 84 3d 0e 42 cf 1c 0e 42 dc e0 0d 42
       35.50419 35.560074 35.528133 35.46959
0003d0 17 59 0d 42 38 9d 0d 42 16 16 0e 42 d7 f3 0e 42
       35.337 35.403534 35.52157 35.738125
0003e0 60 cf 0d 42 b9 68 0e 42 e6 1a 0e 42 ac 9a 0e 42
       35.452515 35.60227 35.526268 35.651047
0003f0 c3 a2 0b 42 f7 77 0e 42 e5 80 0e 42 b9 b3 0d 42
       34.908947 35.617153 35.625874 35.42551

fc2.weight f4 [122, 256]
000000 60 19 b7 40 a9 e1 b7 40 f4 da b5 40 4d 76 b6 40
       5.7218475 5.7462964 5.6829777 5.701941
000010 4a 0b b7 40 a6 18 b7 40 88 ab b4 40 49 be b7 40
       5.720128 5.721759 5.645939 5.741978
000020 da 20 b6 40 a9 fe b6 40 bb c5 b4 40 e4 0d b6 40
       5.69151 5.7185864 5.649137 5.6891956
000030 e9 5b b7 40 4f 19 b7 40 f7 5c b6 40 47 a0 b5 40
       5.7299695 5.7218394 5.6988482 5.675815
000040 7d 3f b6 40 cd ee b5 40 aa 79 b4 40 bb 34 b5 40
       5.69525 5.6854005 5.6398516 5.662687
000050 d1 61 b8 40 49 7c b7 40 16 85 b7 40 31 fb b7 40
       5.7619405 5.7339215 5.734996 5.749413
000060 22 af b5 40 c0 4c b6 40 d2 c5 b4 40 3b 6d b8 40
       5.6776285 5.696869 5.649148 5.763334
000070 16 5f b4 40 53 56 b7 40 69 69 b8 40 09 33 b8 40
       5.636607 5.7292876 5.7628675 5.75623
000080 86 78 b7 40 b3 5b b6 40 f6 73 b5 40 06 d4 b5 40
       5.7334623 5.6986938 5.6704054 5.682132
000090 d9 9c b4 40 9d 1f b5 40 39 dc b7 40 68 ac b4 40
       5.6441464 5.660109 5.7456326 5.6460457
0000a0 9f fd b7 40 6c c3 b7 40 0f 60 b5 40 c5 42 b7 40
       5.7497096 5.742605 5.667976 5.7269006
0000b0 41 1e b6 40 fd ba b6 40 54 5c b5 40 7b 4b b7 40
       5.691193 5.7103257 5.6675205 5.727964
0000c0 8d 6d b6 40 54 2f b6 40 e9 fd b7 40 35 dc b4 40
       5.700873 5.6932774 5.749745 5.6518807
0000d0 ea ca b5 40 fa 4a b6 40 84 48 b6 40 73 12 b5 40
       5.68102 5.6966524 5.696352 5.658502
0000e0 af 16 b6 40 c0 f2 b4 40 95 6a b6 40 5c 47 b8 40
       5.690269 5.6546326 5.7005105 5.758711
0000f0 3a 85 b7 40 a1 a3 b5 40 76 c1 b6 40 59 c7 b4 40
       5.735013 5.676224 5.711116 5.6493344
000100 b1 20 b4 40 38 36 b6 40 b5 33 b8 40 98 8f b6 40
       5.6289907 5.6941185 5.756312 5.7050285
000110 4a 43 b4 40 29 a7 b4 40 da fd b4 40 8e 61 b6 40
       5.633214 5.6454053 5.6559877 5.6994085
000120 97 13 b8 40 a6 e8 b5 40 98 22 b4 40 13 f5 b5 40
       5.7523913 5.6846495 5.629223 5.6861663
000130 ca 31 b7 40 4c 12 b5 40 18 61 b5 40 19 9a b4 40
       5.724828 5.6584835 5.6681023 5.6438107
000140 32 b4 b5 40 18 4b b8 40 3e 20 b6 40 f6 eb b7 40
       5.6782465 5.7591667 5.691436 5.747554
000150 24 a9 b5 40 2f 70 b7 40 49 82 b7 40 6b 17 b4 40
       5.676897 5.7324443 5.734654 5.6278586
000160 65 4d b8 40 94 d8 b6 40 45 27 b5 40 ef 05 b5 40
       5.7594476 5.7139378 5.6610436 5.6569743
000170 87 7f b5 40 7c 8a b3 40 3d 32 b5 40 b5 19 b5 40
       5.6718173 5.610655 5.6623826 5.659388
000180 b9 25 b5 40 f3 62 b5 40 b8 b9 b5 40 54 e3 b7 40
       5.660855 5.668329 5.6789207 5.7465
000190 60 db b5 40 0b b9 b4 40 fe 25 b7 40 28 8d b3 40
       5.683029 5.6475883 5.7233877 5.610981
0001a0 51 ff b4 40 31 67 b6 40 30 b2 b4 40 23 f6 b7 40
       5.6561666 5.7000966 5.6467514 5.748796
0001b0 26 dc b4 40 2b be b4 40 d9 11 b7 40 55 71 b2 40
       5.6518736 5.648214 5.7209287 5.5763345
0001c0 5f f1 b7 40 a1 e2 b6 40 ac 9d b6 40 d0 c2 b7 40
       5.7482142 5.7151647 5.706747 5.742531
0001d0 42 84 b6 40 78 7e b6 40 f5 0c b5 40 bc 0d b5 40
       5.7036448 5.702938 5.6578317 5.6579266
0001e0 bf 8f b4 40 de 2c b7 40 0c 1d b8 40 17 a7 b5 40
       5.642547 5.724227 5.7535458 5.6766467
0001f0 9a dd b6 40 6e da b6 40 52 f4 b5 40 c3 0b b5 40
       5.714551 5.714164 5.6860743 5.6576858
000200 e3 96 b4 40 a6 98 b7 40 1e 4f b8 40 e2 c5 b6 40
       5.643419 5.737384 5.759658 5.7116556
000210 9c f1 b5 40 a1 dd b6 40 16 75 b6 40 e0 91 b5 40
       5.6857433 5.7145543 5.7017927 5.674057
000220 1f 41 b7 40 39 13 b6 40 65 2d b5 40 72 1c b5 40
       5.7266994 5.6898465 5.6617913 5.6597223
000230 96 86 b6 40 11 19 b8 40 dd 27 b5 40 72 a9 b7 40
       5.703929 5.75306 5.661116 5.7394342
000240 f0 1e b7 40 49 56 b6 40 47 34 b5 40 ac b7 b5 40
       5.7225266 5.698033 5.6626315 5.678671
000250 52 1d b8 40 0f 0d b6 40 44 81 b6 40 3f 2a b5 40
       5.753579 5.689094 5.7032795 5.661407
000260 08 ea b4 40 38 67 b5 40 91 5f b7 40 80 09 b6 40
       5.6535683 5.66885 5.730416 5.6886597
000270 f9 c4 b4 40 4c bf b4 40 06 9b b4 40 10 cd b7 40
       5.6490445 5.6483517 5.6439238 5.743782
000280 ce c6 b5 40 4f 0e b5 40 a0 a5 b6 40 ec 2d b5 40
       5.680518 5.6579967 5.707718 5.6618557
000290 a5 87 b4 40 e4 2b b6 40 0a bc b5 40 1c 14 b5 40
       5.641558 5.6928577 5.679204 5.6587048
0002a0 88 4e b8 40 b2 2b b8 40 5a 89 b4 40 c8 5e b7 40
       5.7595863 5.755334 5.6417665 5.73032
0002b0 84 f5 b7 40 07 a7 b5 40 ee 37 b4 40 84 44 b6 40
       5.74872 5.676639 5.6318274 5.6958637
0002c0 d7 aa b6 40 f4 1b b6 40 b6 45 b4 40 3b 00 b5 40
       5.7083545 5.6909122 5.6335096 5.656278
0002d0 09 e4 b5 40 50 2a b5 40 95 56 b7 40 20 29 b7 40
       5.6840863 5.661415 5.729319 5.72377
0002e0 9b a0 b4 40 3e 1e b5 40 30 30 b5 40 87 32 b7 40
       5.644605 5.6599417 5.6621323 5.724918
0002f0 5e 43 b3 40 17 71 b6 40 70 46 b6 40 c8 bb b7 40
       5.6019735 5.701305 5.6960983 5.7416725
000300 fb b6 b6 40 8e 1c b7 40 0f 71 b5 40 9b 04 b6 40
       5.7098365 5.7222357 5.670051 5.688062
000310 76 1c b5 40 8b 8f b4 40 40 1c b6 40 b3 45 b7 40
       5.659724 5.6425223 5.6909485 5.727258
000320 04 47 b4 40 de 69 b6 40 2c 8d b6 40 d7 53 b7 40
       5.633669 5.7004232 5.704733 5.7289844
000330 1a 18 b5 40 69 1c b8 40 15 9b b5 40 32 3e b6 40
       5.659192 5.753468 5.675181 5.695092
000340 c3 75 b6 40 79 1f b6 40 56 38 b6 40 72 cb b6 40
       5.701875 5.691342 5.694377 5.7123346
000350 aa b3 b7 40 0a 7d b8 40 bb 09 b4 40 a4 b7 b4 40
       5.7406816 5.7652636 5.626188 5.647417
000360 ae b9 b7 40 cd 45 b8 40 75 60 b6 40 ae 05 b6 40
       5.741416 5.7585206 5.6992745 5.6881933
000370 45 ba b7 40 92 0e b7 40 38 57 b8 40 c8 10 b5 40
       5.741488 5.7205286 5.760647 5.6582985
000380 39 d5 b6 40 99 ec b4 40 00 ff b6 40 1c 05 b8 40
       5.713528 5.6538815 5.718628 5.7506237
000390 98 04 b8 40 4b 03 b7 40 60 9f b7 40 ef 10 b6 40
       5.7505608 5.719152 5.738205 5.689567
0003a0 78 f4 b6 40 3d 5a b5 40 47 09 b5 40 44 ff b7 40
       5.7173424 5.6672654 5.6573825 5.7499104
0003b0 42 a6 b6 40 cc 7c b5 40 b3 25 b6 40 8b 90 b4 40
       5.707795 5.671484 5.692102 5.6426444
0003c0 85 e4 b6 40 5b ed b7 40 d0 71 b4 40 2f ec b5 40
       5.7153955 5.747724 5.638893 5.685081
0003d0 75 04 b5 40 55 de b6 40 b1 b6 b7 40 ec cc b5 40
       5.656794 5.71464 5.741051 5.681265
0003e0 82 4c b5 40 72 ce b5 40 bb 73 b5 40 a7 e2 b6 40
       5.6655893 5.681451 5.6703773 5.7151675
0003f0 dd 68 b3 40 78 7f b4 40 c6 0a b6 40 09 96 b6 40
       5.6065507 5.64056 5.688815 5.705815

fc2.bias f4 [122]
000000 1e b9 cd 40 bf 8e cb 40 86 21 cf 40 36 09 c7 40
       6.4288473 6.361175 6.472842 6.2198744
000010 8d b3 c2 40 5b e6 c6 40 aa bb c4 40 a0 29 c9 40
       6.084418 6.2156196 6.147908 6.286331
000020 66 b2 c9 40 01 9d ae 40 e0 2f 99 40 fa 7e cb 40
       6.303027 5.4566655 4.787094 6.35925
000030 e3 6f c9 40 c6 ae c7 40 ab 0a c7 40 a5 52 c3 40
       6.294908 6.2400846 6.2200522 6.1038384
000040 43 f2 c4 40 a2 73 c1 40 f4 0a ba 40 a4 0b bf 40
       6.154573 6.0453653 5.813837 5.970171
000050 af c3 c2 40 87 70 aa 40 ec dd c8 40 39 7b c5 40
       6.086387 5.3262362 6.27709 6.171292
000060 98 35 c4 40 f3 c8 c2 40 3f 89 c8 40 eb 41 c0 40
       6.131542 6.08703 6.2667537 6.0080466
000070 5b fa 96 40 93 a5 c9 40 85 63 c9 40 de 50 a3 40
       4.718061 6.3014617 6.2933984 5.1036215
000080 f6 30 c2 40 ce 6c cb 40 4a e3 c8 40 bd 36 b9 40
       6.0684767 6.357032 6.2777452 5.787932
000090 55 3e c5 40 70 5b bb 40 87 3c bf 40 29 53 8c 40
       6.163859 5.854912 5.9761386 4.3851514
0000a0 8a 33 c1 40 42 48 be 40 b7 fa 8e 40 04 4c c5 40
       6.0375414 5.9463205 4.468105 6.1655293
0000b0 f5 5c c7 40 54 85 c6 40 51 70 b5 40 e0 58 aa 40
       6.2300973 6.2037754 5.6699605 5.323349
0000c0 8f c9 b8 40 92 88 c2 40 47 8b 6b 40 5a ab c8 40
       5.7746043 6.079171 3.6803758 6.270917
0000d0 e1 9f a9 40 1e c1 c5 40 87 f9 c9 40 14 ec cb 40
       5.3007665 6.179824 6.31171 6.372568
0000e0 6c 46 c6 40 f5 a1 bd 40 bf 37 c1 40 3d ab 9e 40
       6.1960964 5.92602 6.038055 4.958403
0000f0 87 48 85 40 7f 19 25 40 21 ff b1 40 13 9f 91 40
       4.1651034 2.5796812 5.5623937 4.5506682
000100 c3 d6 c5 40 96 bc c8 40 fe 7a c5 40 df 61 c7 40
       6.182466 6.2730207 6.1712637 6.230697
000110 b2 63 69 40 5f 58 58 40 2d 51 3b 40 d2 db 96 40
       3.64671 3.3803937 2.9268296 4.7143335
000120 b2 4e 46 40 eb 3a 85 40 a6 56 c2 40 13 dc c7 40
       3.0985532 4.163442 6.073077 6.2456145
000130 3b 12 cf 40 4f 39 c4 40 b3 8b c5 40 98 bb c1 40
       6.4709754 6.1319957 6.173303 6.0541496
000140 40 71 9f 40 2e 26 b9 40 93 c3 bc 40 2b f4 b4 40
       4.9825745 5.7859106 5.898874 5.6548057
000150 29 8d bf 40 83 00 c2 40 46 6b c5 40 8c 07 ca 40
       5.9859815 6.0625625 6.169345 6.3134212
000160 92 f5 b1 40 d4 3e c1 40 6f a0 8c 40 af 18 b5 40
       5.561227 6.0389194 4.394584 5.659263
000170 4b 90 7e 40 2b 92 be 40 ee ab c5 40 00 7b c0 40
       3.977557 5.955343 6.1772375 6.0150146
000180 da 58 c8 40 2c 72 c9 40 61 04 c8 40 e9 e4 bd 40
       6.260846 6.295187 6.2505345 5.934193
000190 d6 16 53 40 ad c3 c3 40 a9 b0 c1 40 66 a3 c5 40
       3.2982688 6.117636 6.052815 6.176196
0001a0 0f 7b cb 40 32 60 c8 40 89 02 c6 40 7f 14 cf 40
       6.358772 6.2617426 6.1878095 6.471252
0001b0 67 9f c7 40 d8 fb c9 40 9e 11 94 40 48 23 bd 40
       6.2382083 6.3119926 4.6271505 5.910557
0001c0 ea 1c c5 40 94 84 c5 40 58 17 cc 40 d6 91 c6 40
       6.1597795 6.172434 6.3778496 6.2053022
0001d0 32 6f c5 40 00 7b cd 40 3e 34 d1 40 03 78 cf 40
       6.1698236 6.4212646 6.537627 6.4834
0001e0 23 35 cc 40 88 3e 7b bd
       6.3814864 -0.06133893
