g13agent.pth (torch, 505868 bytes, 8 tensors)

fc1.weight f4 [256, 122]
00000000: 4188 463f c446 1d3f f32b 2e3f 22d4 363f
00000010: 4f6b 0e3f 3b6d 263f d095 653f 3bd5 103f
00000020: cff7 0e3f d500 3e3f 9b59 133f da9f 373f
00000030: 29e6 4f3f 6e3b 493f c424 0f3f ed8a 493f
00000040: 9c8a 503f e932 2b3f e1b8 083f 0a2a 283f
00000050: ee67 193f f192 643f 9143 393f 62a2 483f
00000060: de0c 2d3f 04d8 2d3f 4c6d 323f 30cd 3c3f
00000070: b801 253f 07d5 313f 215c 3d3f 8f2a 103f
00000080: 6fa7 453f 89f3 143f 9162 2d3f 4003 1b3f
00000090: 803d 0a3f d142 2c3f 06c1 2a3f 12a9 263f
000000a0: 826b 2b3f d11c 383f b646 1f3f 73d9 0e3f
000000b0: 69a8 373f 5e76 5b3f 4133 133f 49a2 2a3f
000000c0: 011b 2e3f 73b1 3c3f 4844 433f 7b4b 3d3f
000000d0: 1d2b 0c3f 2b6a 363f c2ab 213f a4b0 273f
000000e0: a79b 103f f164 243f ead7 253f 0926 553f
000000f0: dadf 2c3f dff0 3a3f c5ff 383f b088 433f
00000100: 7d65 563f 37b1 623f c43d 283f d839 543f
00000110: a1c7 3f3f ee0d 333f 391c 2e3f 4804 1d3f
00000120: 3952 2d3f 6fa7 323f 497d 423f 277c 093f
00000130: 3ddf 143f 7aa0 423f 6936 473f 71a8 143f
00000140: 4515 163f 16cf 233f de47 2a3f ca73 243f
00000150: 7918 0a3f be94 3f3f 8f59 323f 7e2d 303f
00000160: 52b4 1d3f d488 293f 0fe6 133f dd16 4d3f
00000170: 99aa 243f 7af1 2e3f 3070 1a3f af94 323f
00000180: c584 243f a987 183f 44a8 523f a12d 0a3f
00000190: 5dd0 473f c2c6 153f 7ed9 343f 2bb9 153f
000001a0: d215 1f3f af6b 363f 5ea6 373f ab22 2f3f
000001b0: 4785 723f 4bc1 323f 0a30 673f 63b9 1f3f
000001c0: f1e8 1d3f b9d3 153f 160f 333f 6709 133f
000001d0: 9eae 123f 882b 0f3f 8f42 223f 432d 2f3f
000001e0: 048e 313f 00b6 1d3a 7bf9 593f 1cb8 303f
000001f0: b3f1 613f e565 563f 4fb0 2c3f cd80 4f3f
00000200: ccf0 683f 32a5 433f 2d25 4a3f ed67 443f
00000210: 6598 393f 9e7f 5a3f 057b 523f 18c9 7f3f
00000220: 8b82 1b3f 6376 5f3f 0f6e 6b3f 81c4 273f
00000230: 7edd 373f 7c24 433f ab10 523f 228a 6c3f
00000240: ba5d 413f 1c2a 553f 983e 283f c67b 533f
00000250: 6f98 4a3f 213f 3f3f 31ae 4f3f 2414 343f
00000260: 64e4 353f 44b7 343f 0b28 303f 7029 4d3f
00000270: 2330 373f 6b82 403f 7dab 4e3f 1976 2d3f
00000280: ba32 1e3f 0af9 3d3f 730c 363f c77f 373f
00000290: f4c0 563f ec28 3e3f 16ca 3d3f cbff 783f
000002a0: b3a5 353f b79d 403f 04ef 373f c8ca 493f
000002b0: 1456 6f3f b317 383f bd49 333f c4da 3f3f
000002c0: eb16 313f ed24 3f3f 1a47 213f 7464 593f
000002d0: 38c9 383f 4526 6a3f 7b3e 413f ffd3 523f
000002e0: 57d3 3b3f c213 3f3f 5fd0 483f d2f2 683f
000002f0: b3fa 403f bc3c 863f ec27 5f3f c33b 4c3f
00000300: f0ee 2a3f f54b 2e3f 3dd9 443f 51b5 5b3f
00000310: f2ab 4c3f e9ed 473f 308e 3f3f ffae 4c3f
00000320: 6138 653f 1111 373f 2973 4b3f 12dd 2f3f
00000330: 23d5 1e3f 3bac 4b3f 94fb 373f 87ec 4b3f
00000340: 6b05 493f cec0 493f ad44 4d3f a024 503f
00000350: 06c8 3c3f 1553 573f 620b 303f a1c6 3d3f
00000360: 5c7d 3c3f ae23 3a3f 7349 1f3f db70 523f
00000370: b083 6f3f 294d 1e3f 95b1 583f dd7e 293f
00000380: b92e 2e3f a67b 403f 4ae5 333f d3eb 5a3f
00000390: 1df4 4a3f 6910 4b3f c6f5 593f ba42 5a3f
000003a0: 9a7d 7d3f ecc1 3d3f 4628 393f a61b 433f
000003b0: 6665 503f 3dd6 443f 6b8d 443f a346 3e3f
000003c0: 0f3b 303f d7b5 333f 32bd 2b3f 74fd 89bd
000003d0: 46d2 423f 4105 3c3f 96ba 453f 77eb 5e3f
000003e0: 3f16 543f cd66 473f fb29 7b3f 39ef 393f
000003f0: f183 373f 17fa 603f 3eeb 373f a467 533f
0.77551657 0.61436105 0.6803581 0.7141744 0.5563249 0.6501042 0.8968172 0.56575364
0.55846876 0.7422002 0.575586 0.7172829 0.8121057 0.7860631 0.55915475 0.7872761
0.814615 0.6687456 0.534071 0.65689147 0.5992421 0.89286715 0.72368723 0.78372777
0.6759776 0.6790774 0.69698024 0.7375059 0.6445575 0.6946568 0.739687 0.5631494
0.7720861 0.58184105 0.67728525 0.60551834 0.5400009 0.67289454 0.6670078 0.6510173
0.6696092 0.7191897 0.6221727 0.5580055 0.7174135 0.8572749 0.5750008 0.6665388
0.68009955 0.73708266 0.76276064 0.739433 0.54753286 0.7125575 0.63152707 0.6550391
0.56487507 0.64216524 0.64782584 0.8326116 0.6752907 0.7302379 0.72265273 0.76380444
0.8374861 0.8855166 0.65719247 0.8290076 0.74913985 0.6994313 0.68011814 0.6133466
0.67703587 0.69786733 0.7597242 0.53705066 0.58153135 0.7602612 0.778174 0.5806952
0.58626205 0.63987863 0.6651591 0.6423918 0.5394359 0.7483634 0.69667906 0.68819416
0.6160327 0.6622441 0.57772917 0.8011301 0.6432281 0.68337214 0.60327435 0.69758123
0.6426509 0.59582 0.82288 0.53975874 0.7805231 0.58506405 0.70644367 0.5848567
0.6214267 0.7125806 0.7173823 0.68412274 0.94734615 0.6982619 0.90307677 0.6239225
0.61683565 0.5852619 0.69944894 0.5743622 0.57297695 0.559258 0.6338281 0.6842844
0.69357324 0.0006016195 0.851463 0.6903093 0.8825943 0.8374923 0.67456526 0.8105591
0.90992427 0.76423943 0.78962976 0.7672108 0.7249816 0.8535098 0.8221896 0.9991622
0.6074607 0.8729002 0.9196481 0.65534216 0.71822345 0.76227546 0.82056683 0.92398274
0.7553364 0.8326738 0.6572051 0.8261074 0.79138845 0.747057 0.8112517 0.7034323
0.7105162 0.7059214 0.688111 0.80141354 0.71557826 0.75199 0.8073042 0.6775833
0.6179615 0.7420813 0.71112746 0.7167935 0.83888173 0.7428119 0.74136484 0.9726531
0.7095596 0.75240654 0.71849084 0.78825045 0.9349072 0.7191116 0.7003439 0.74943185
0.69175595 0.7466572 0.6299912 0.84918904 0.72182035 0.91464645 0.7548596 0.8235473
0.73369354 0.74639523 0.7844295 0.90995514 0.75382537 1.0487285 0.8717029 0.7977869
0.6677084 0.6808465 0.7689398 0.8582354 0.7994987 0.780974 0.74826336 0.7995452
0.8953915 0.71510416 0.79472595 0.686967 0.6204397 0.7955968 0.7186825 0.7965779
0.7852389 0.7880982 0.80182916 0.81305885 0.7374271 0.8411115 0.6876737 0.7413121
0.73628783 0.7271069 0.6222145 0.82203454 0.93560314 0.6183649 0.8464597 0.66209203
0.68040043 0.7518867 0.7027174 0.8551609 0.7927874 0.79321915 0.85140646 0.85258067
0.9901978 0.74124026 0.7232708 0.76214063 0.8140472 0.768894 0.76778287 0.74326533
0.68840116 0.7019934 0.67085564 -0.067377955 0.761021 0.73445517 0.7723783 0.8707804
0.82846445 0.77891237 0.9811093 0.7263065 0.716857 0.87881607 0.71843326 0.8258002

fc1.bias f4 [256]
00000000: 9836 953f 8679 ae3f a2f8 ac3f 15b6 c33f
00000010: 30ba b03f 4093 bf3f e8a8 c93f 9c90 c63f
00000020: e756 bf3f 905d c43f efb8 b83f b686 ba3f
00000030: c790 bd3f 38c0 c13f fc14 8f3f d5e1 c43f
00000040: 5429 c43f 8b55 d43f ec27 ce3f 1b4b bf3f
00000050: bd75 c33f f785 c03f 28ce 903f dbc2 9f3f
00000060: d3d5 c23f 018d bb3f f0d9 ca3f ca2f cc3f
00000070: b809 b13f 19ea c13f 6224 d63f 412c d03f
00000080: 2044 d53f 3743 d23f 2e03 c63f 3a4d d93f
00000090: 5ea9 b03f 3a29 d53f 2635 a73f d95e 973f
000000a0: 8181 b93f 6a54 c73f f6bb b03f 8570 c83f
000000b0: 0787 b33f bd85 cb3f cd85 733f 8d6e ad3f
000000c0: 7676 c53f fd01 c73f 7590 bc3f 6f58 bc3f
000000d0: 4a7f cd3f e743 c43f 5728 bd3f be1d c53f
000000e0: 5d96 d23f 13ca bd3f db57 c73f 7e37 823f
000000f0: a5b9 be3f 4dc1 893f 9023 b93f 3d88 cc3f
00000100: c1ff c53f 3d56 cb3f 4687 c93f d684 bf3f
00000110: 82ae aa3f 3d70 cb3f dcde c43f 3f05 ba3f
00000120: f8c1 cf3f 2f45 c03f 41e2 8c3f 5082 973f
00000130: a53d c73f b81a d33f 9c8f b73f 5688 cb3f
00000140: 020c cf3f 11cb be3f 7074 d13f a2af bf3f
00000150: 0288 cf3f 1686 b73f b6d1 c23f fedb c83f
00000160: ea3d bc3f c0b7 c13f afdc bb3f 26ef 803f
00000170: e594 c33f 959f d33f d1ed ba3f b75a c23f
00000180: 7433 b83f f40a be3f d119 c03f f2ca db3f
00000190: 0913 b63f 4e7d b93f 66a4 9d3f d398 ba3f
000001a0: a375 c83f d8c1 c33f fdb5 d23f fdb3 9d3f
000001b0: 27d0 bb3f a57b bd3f 1da2 ce3f fa5c b83f
000001c0: 07f5 ad3f 607e cb3f c175 c13f 6905 d03f
000001d0: 48f1 bf3f 127f b83f 67de c93f 66c6 c73f
000001e0: bf5c bc3f 86ad bc3f 887b c33f e60e a53f
000001f0: 7e8c ba3f facf b13f e1fa c23f 0a44 bc3f
00000200: f7f9 8d3f b5d8 c53f 2a23 c73f fd70 b63f
00000210: 9da0 ce3f dc3d c33f 237c bf3f ceb8 c03f
00000220: 3c02 b03f 736a bb3f 6303 ce3f 1ec9 bc3f
00000230: cca8 4c3f 753d c83f f6fc a73f 9d1e a83e
00000240: 69a6 be3f 6d75 d03f 7661 d83f 6fa3 cb3f
00000250: 9d63 c63f 75b4 c63f 8e1e bb3f 04df cb3f
00000260: 128d c83f 56b3 ca3f 1ebe c93f 9f1f b23f
00000270: 6e18 9b3f b083 783f 9570 a03f c6e9 b73f
00000280: 3043 2f3f b263 ca3f 695c c93f fbd2 d03f
00000290: 02d5 d03f 0deb c53f ff54 c73f fa99 bc3f
000002a0: a9b4 af3f 854b c43f df1b bd3f 2508 c03f
000002b0: e020 cd3f 3d86 cd3f 7e12 bf3f 68f4 cb3f
000002c0: 2df8 cc3f 11c4 c03f af51 d23f 4807 c33f
000002d0: 576d b83f a721 b53f 1a61 c03f f1bf b23f
000002e0: 48dc be3f 4223 c93f 637a c43f 6bda b93f
000002f0: 1731 d13f 5008 cc3f dc93 b73f 6e2c c83f
00000300: 94f1 ca3f 7aad c23f d05e a83f 5ec2 b83f
00000310: feb4 cf3f bfb9 ba3f 450d cb3f b917 bb3f
00000320: 203e 913f ce25 b13f 77e9 ca3f 641d b13f
00000330: 0ac7 be3f bf61 b63f 0bb9 ac3f d0f3 d23f
00000340: cbc9 cb3f 5a00 b23f 9505 bc3f 3051 c83f
00000350: 57fa cb3f 106b a53f fa2e c93f ac34 d63f
00000360: 0bfd c93f 2c4f bf3f 20fe db3f ce83 b83f
00000370: 45ad ca3f 78bf c73f cff6 aa3f aa25 c83f
00000380: 65c1 c63f 20b4 b73f b79a c83f 6547 993f
00000390: 26f1 6a3f 29e0 923f fa2f bf3f 65bc c53f
000003a0: 96f4 d13f cfc4 b23f 0ba9 a43f bd01 d13f
000003b0: 0ce2 d03f e149 ba3f c553 c83f cbf1 d93f
000003c0: 4cb7 b33f 1704 c43f 6f50 d03f fde6 c43f
000003d0: 295e c33f 7bd7 be3f 6673 b23f c76f d03f
000003e0: 428d b03f 70e6 cf3f c666 cb3f ea3a b13f
000003f0: 5be8 c13f f11e ba3f ac17 af3f 3df4 cb3f
1.1657286 1.3630836 1.3513377 1.5289942 1.380682 1.4966812 1.5754671 1.5512881
1.4948395 1.5341053 1.4431437 1.457236 1.4809808 1.5136786 1.1178279 1.5381418
1.5325112 1.6588606 1.6105933 1.4944795 1.5270306 1.5040883 1.1312914 1.248134
1.5221504 1.4652406 1.5847759 1.5952084 1.3831091 1.5149566 1.6729853 1.6263505
1.6661415 1.6426762 1.546972 1.6976693 1.3801687 1.6653206 1.3063095 1.182582
1.4492646 1.5572636 1.3807361 1.5659338 1.4025582 1.5900189 0.9512604 1.3549362
1.5426776 1.5547482 1.4731585 1.4714488 1.605447 1.5333222 1.4777936 1.5399702
1.6452137 1.4827293 1.5573686 1.0173185 1.4900404 1.0762116 1.4463978 1.5979077
1.5468675 1.5885693 1.5744407 1.4962413 1.3334506 1.5893627 1.5380511 1.4532851
1.623107 1.5021113 1.1006547 1.1836643 1.5565687 1.6492529 1.4340701 1.5900981
1.617554 1.4905721 1.6363659 1.4975474 1.6213381 1.4337795 1.5220249 1.5692136
1.4706395 1.5134201 1.4676722 1.0072982 1.5279814 1.6533076 1.4603826 1.5183934
1.4390702 1.4847093 1.5007879 1.7171309 1.4224559 1.4491365 1.2315795 1.4577888
1.56609 1.5293531 1.6461788 1.2320553 1.4672898 1.4803358 1.6143223 1.4403374
1.3590401 1.5897942 1.5114061 1.6251651 1.4995508 1.4413779 1.5770997 1.5607421
1.4715804 1.4740455 1.5272074 1.2895172 1.4574125 1.3891594 1.5232812 1.4708264
1.1091908 1.5456759 1.5557606 1.4253231 1.6142765 1.5253253 1.4959759 1.5056398
1.3750682 1.4641861 1.6094784 1.4748876 0.79945064 1.5643755 1.3124073 0.32835856
1.4894534 1.6285836 1.6904743 1.5909251 1.549915 1.5523821 1.46187 1.5927434
1.5668051 1.5835979 1.5761144 1.39159 1.211683 0.9707594 1.2534357 1.4368217
0.68461895 1.5811675 1.5731326 1.6314386 1.6315005 1.5462357 1.5572814 1.473449
1.3727008 1.5335547 1.477413 1.5002486 1.6025658 1.6056591 1.4927518 1.5933962
1.6013237 1.5059835 1.6431178 1.5236597 1.4408368 1.4150895 1.5029633 1.3964826
1.4910975 1.5713885 1.534985 1.4519781 1.6343106 1.5940037 1.4341998 1.5638559
1.5854974 1.5209191 1.3153934 1.4434316 1.622711 1.4587935 1.5863425 1.4616615
1.1347084 1.3839662 1.5852498 1.3837094 1.4904492 1.424858 1.3493971 1.6480656
1.5920957 1.3906357 1.4689204 1.5649776 1.5935773 1.2923298 1.5717461 1.6734824
1.5780348 1.4946036 1.7186928 1.4415224 1.5834128 1.5605307 1.335657 1.5636494
1.5527769 1.4351845 1.5672215 1.1974913 0.91774213 1.1474658 1.4936516 1.5448118
1.6402767 1.3966311 1.2864088 1.6328655 1.6318984 1.4553796 1.5650564 1.7026914
1.4040313 1.5313748 1.6274546 1.5382992 1.526311 1.490951 1.3941467 1.6284112
1.3793108 1.6242199 1.5890739 1.3846104 1.5149034 1.4540693 1.3679099 1.5933911

fc2.weight f4 [122, 256]
00000000: c5b8 403e 2faf 393e abae 403e 3ea1 453e
00000010: b3bc 523e 46d2 673e 0d2d 833e 0dc7 843e
00000020: 262c 693e 2d6c 8d3e 7467 833e 73d8 823e
00000030: 020d 433e c043 363e 9fc7 523e 0620 873e
00000040: 2584 4f3e 3bab 513e 8db7 853e ca7c 8f3e
00000050: e221 8b3e 54d2 353e 29ec 883e 2b7a 7a3e
00000060: e0b3 933e f430 503e f33a 6b3e 7dfb 583e
00000070: 3849 923e 1dc5 743e 142a 533e fa83 873e
00000080: b840 4b3e 6365 333e 3b36 813e 8d03 4a3e
00000090: 8c55 773e 3058 843e 1148 3d3e 0803 4b3e
000000a0: 2a89 2e3e 84ae 913e b801 403e fad4 373e
000000b0: 005b 483e 1be4 903e d67f 6c3e 6447 5f3e
000000c0: 5f48 913e 35b3 443e 44ee 7c3e ca2f 313e
000000d0: 5416 5f3e ba26 373e aa45 413e bf3e 963e
000000e0: 4bba 453e b48c 483e 072e 8b3e f93b 053e
000000f0: d15f 293e 4228 1e3e 10cb 573e 9bf7 5d3e
00000100: dd60 7e3e 4a7e 963e 8afc 803e 2ebe 4a3e
00000110: 0992 853e 9781 863e 290f 453e 741d 823e
00000120: 6a48 393e 75eb 763e 2067 343e daa4 8f3e
00000130: b9fe 3e3e 7661 953e ce16 693e be76 793e
00000140: fe90 8e3e f03a 843e 9478 903e 5b4d 8e3e
00000150: 768e 883e ab5d 8e3e 6aac 3d3e bf22 903e
00000160: 94de 6b3e 8e3e 3c3e 7add 403e 81a4 593e
00000170: 78f5 363e 2683 643e e4ec 3a3e c675 943e
00000180: 43b8 913e 69e5 703e 0a8d 713e db2e 7f3e
00000190: 0e02 8b3e 6b66 423e 9e2c 843e 903c 873e
000001a0: a0e1 853e 012d 893e e12c 663e c83f 353e
000001b0: 125b 893e 5666 6d3e bbf2 783e f0e6 853e
000001c0: 4178 803e 1173 423e cdd4 803e 9f64 723e
000001d0: a649 453e 4b26 4e3e 961f 693e 8e4c 813e
000001e0: 578e 853e 5610 723e e98e 923e 9984 5e3e
000001f0: b66d 7b3e 9205 533e 2f4a 903e bd75 713e
00000200: e0f0 543e 5c13 443e 3ee7 7a3e 6f4b 953e
00000210: 0737 783e 8b71 963e d8eb 763e ff0c 953e
00000220: 60dd 7e3e f255 8f3e aec3 3d3e 10e1 4b3e
00000230: ad05 183e b7ea 923e b284 853e 4d5f fe3d
00000240: 7dd9 8a3e d556 933e c582 3d3e 7403 5a3e
00000250: 54f9 373e 4009 743e d961 393e 0297 863e
00000260: 9843 8a3e 0ab3 563e 5c22 313e 9d90 723e
00000270: f9ad 7b3e 75b0 353e af0f 573e da82 893e
00000280: 59b1 0e3e ffa7 943e 59f3 423e e69f 803e
00000290: 4548 8b3e dd69 883e fc60 6c3e 006d 6e3e
000002a0: 6a5d 8b3e 56d2 8d3e 858f 583e 1835 8c3e
000002b0: 4683 8f3e 8097 3d3e 23c9 413e 9001 363e
000002c0: c446 823e a45d 983e 66e2 3e3e 5b3e 8f3e
000002d0: cffe 593e 2eff 8c3e 2a71 303e 1385 8e3e
000002e0: 40a2 563e 7b2e 903e 3c81 4a3e e863 6a3e
000002f0: 760d 853e e4ad 2f3e 04db 943e abfe 413e
00000300: 73cd 963e 0b36 763e 4929 363e eaab 963e
00000310: 2fc0 833e 4a7d 3a3e 2985 703e 8f36 843e
00000320: caf4 253e 25e2 853e 0eea 613e daa1 6b3e
00000330: f7c3 8e3e 8337 683e a6ad 703e 00e1 8e3e
00000340: 6237 3e3e 7c4c 863e 9ae6 6c3e 7a21 593e
00000350: 5625 3a3e cc91 5a3e af60 8d3e a6e6 703e
00000360: 97ad 6d3e 380a 6e3e 20cc 763e 12db 3a3e
00000370: 9359 8c3e f4b4 8b3e 4c8e 833e ee65 533e
00000380: 0f2c 323e f5b0 353e c095 643e b1cd 5a3e
00000390: 6f8f 373e b668 183e 483c 823e c78c 533e
000003a0: 3115 943e 911a 743e 3673 833e c2ce 443e
000003b0: 6dd3 423e abb4 913e 6ccc 2f3e b1fd 943e
000003c0: 54eb 513e debf 733e 9ed7 8f3e bef0 2f3e
000003d0: 5dcb 423e fae2 693e 2357 543e 06ce 723e
000003e0: 933f 663e c8de 333e cf27 973e ddea 3c3e
000003f0: 97e7 853e 0f8d 8e3e c7af 583e 0dd7 903e
0.18820484 0.18133233 0.1881663 0.1929979 0.20579796 0.22638807 0.2562031 0.25933114
0.22770748 0.27621594 0.25664866 0.25555763 0.19047931 0.17799282 0.20583962 0.2639162
0.20265253 0.20475475 0.261166 0.28024894 0.27174288 0.17756015 0.26742676 0.24460666
0.2884817 0.20331174 0.22971706 0.21189685 0.28571486 0.23903318 0.2062152 0.26467878
0.19848907 0.17519145 0.25236687 0.19727917 0.24153727 0.25848532 0.18484522 0.19825375
0.17044511 0.28453457 0.18750656 0.17952338 0.19565964 0.2829903 0.2309564 0.21804577
0.28375527 0.19208987 0.24700266 0.17303386 0.21785861 0.17885867 0.18874231 0.29344746
0.19309346 0.19584924 0.27183554 0.13011159 0.16540457 0.15445045 0.21073556 0.21676485
0.24841638 0.29393226 0.25192672 0.1979911 0.26087978 0.26270744 0.19244064 0.25413096
0.1809403 0.24113257 0.17617464 0.2805546 0.18651856 0.2917592 0.22762606 0.24361703
0.27844995 0.25826216 0.28216994 0.27793393 0.2667119 0.27805838 0.18522802 0.2815151
0.23034126 0.18383238 0.18834487 0.2125416 0.17867076 0.22315654 0.18254429 0.28996104
0.28460893 0.23525013 0.23588958 0.24920218 0.27150005 0.18984382 0.2581529 0.26413393
0.261487 0.26792148 0.22478057 0.17700112 0.26827294 0.2318357 0.24311344 0.26152754
0.25091746 0.18989207 0.25162354 0.23671196 0.19266376 0.20131795 0.22765955 0.2525372
0.2608516 0.23639044 0.28624657 0.2173027 0.2455357 0.20607594 0.28181598 0.2358007
0.20795012 0.1914801 0.24502274 0.29159114 0.24239741 0.293835 0.24113405 0.29111478
0.24889135 0.2799526 0.18531677 0.19910073 0.14845915 0.28694698 0.260778 0.12420521
0.27119055 0.28777185 0.18506916 0.2129038 0.17966205 0.23831654 0.18103732 0.26287085
0.27004695 0.20966735 0.17298263 0.23687978 0.24578084 0.17743094 0.21002077 0.26857644
0.1393484 0.2903442 0.19038142 0.25121993 0.27203575 0.26643267 0.23083872 0.23283768
0.27219707 0.27699536 0.21148498 0.27384257 0.2802984 0.18514824 0.18924384 0.17774034
0.25444615 0.29758942 0.18641052 0.2797726 0.21288608 0.27538437 0.17230669 0.27835903
0.20960331 0.28160462 0.19775862 0.22889674 0.25986832 0.17156178 0.29073346 0.18944804
0.2945362 0.24044053 0.17789187 0.29428035 0.25732562 0.18211856 0.23488297 0.25822875
0.16206661 0.26149097 0.22061941 0.2301096 0.27883884 0.22677426 0.23503742 0.27906036
0.18575814 0.26230228 0.23134843 0.21204177 0.18178305 0.2134468 0.27612826 0.23525485
0.2321075 0.23246086 0.24101305 0.18247631 0.2741209 0.27286494 0.256945 0.20644352
0.1739962 0.17743285 0.2232275 0.21367528 0.1792581 0.14883694 0.25436616 0.20659171
0.28922418 0.2383826 0.25673836 0.19219497 0.19025965 0.2845815 0.17167825 0.290998
0.20499927 0.2380366 0.2809419 0.1718168 0.1902289 0.22840491 0.20736365 0.23711404
0.22485189 0.17565453 0.2952256 0.18448968 0.26153252 0.27841994 0.21160804 0.2828907

fc2.bias f4 [122]
00000000: 7b15 693e cc89 893e 8948 7e3e 1a0e 853e
00000010: 9753 693e bfa0 533e db98 903e be60 713e
00000020: 5dfe 193e 4f63 813e 4f6e 523e 9607 843e
00000030: 81e2 673e 95ba 763e 062b 9f3e 0eb1 733e
00000040: 7e00 a93e 8b61 903e 74d5 783e 1474 603e
00000050: bc3b 703e e2e5 833e c956 6d3e e459 903e
00000060: afe6 8a3e 4e52 953e 55db 943e f558 3c3e
00000070: 9206 833e da80 3f3e 802a 963e 0eac 303e
00000080: e192 603e 1e6e 583e d6a6 523e 4c56 5e3e
00000090: d10a 943e 9831 733e fe3f 433e 6c1e 3f3e
000000a0: a9b7 8a3e ee96 203e 7a83 793e 8680 833e
000000b0: 82a3 8e3e c8f1 523e c690 8e3e d5f6 873e
000000c0: d878 873e f7ce 903e 6a7e 993e da58 543e
000000d0: 8f5c 863e 211a 553e 7235 3e3e ffd8 983e
000000e0: 2ab1 513e 15a9 893e 5b15 613e fbb9 4b3e
000000f0: aac9 123e 9d68 853e d9c9 523e bf5a 793e
00000100: fbac 973e 8d86 a73e 5cae 823e 7029 823e
00000110: 83b1 8d3e e6e4 513e 6470 2f3e 1f2b 533e
00000120: 71a2 393e 2408 7c3e 7a7c 863e 8261 923e
00000130: 4248 6d3e 0763 6f3e 6246 8d3e 9807 813e
00000140: 6224 3e3e 9dcc 2e3e 676f 2b3e 9df7 623e
00000150: efb9 763e f691 303e f683 883e da24 9a3e
00000160: a6c3 893e 2609 143e 0784 893e 282a 793e
00000170: 7b75 173e 5bd4 6e3e 71ef 843e 001b a53e
00000180: 1013 2c3e feec 3a3e b77c 553e 3ed8 233e
00000190: 2cfc 853e 12bf 2f3e bad8 2a3e 0acd 613e
000001a0: f159 7d3e eab4 603e d97e 863e 1837 663e
000001b0: c981 ae3e a506 6b3e d27b 903e 959d 8e3e
000001c0: 379b 6e3e 2808 913e 8209 513e ef52 843e
000001d0: 9d1c 413e 1311 553e d8f8 713e e5e7 3a3e
000001e0: 660c 9d3e 86e0 343d
0.227621 0.26862943 0.24832357 0.2598732 0.22785793 0.20666789 0.2824162 0.2357206
0.15038438 0.2527108 0.20549892 0.25787038 0.22644998 0.24094613 0.31087512 0.2379801
0.33008188 0.2819942 0.24300176 0.2191928 0.23460287 0.25761324 0.23177637 0.2819358
0.27129123 0.29164356 0.29073587 0.1839331 0.2559095 0.18701497 0.293293 0.17253134
0.2193103 0.21135756 0.20571455 0.21712607 0.28914502 0.23749387 0.1906738 0.18663949
0.27093247 0.15682575 0.2436656 0.25683993 0.27859122 0.20600045 0.27844828 0.26555505
0.26459384 0.28282902 0.2997926 0.20737019 0.26242492 0.20810749 0.18575075 0.29853055
0.20477739 0.26886812 0.21980803 0.19895165 0.14334741 0.26056376 0.20584811 0.24351023
0.2962416 0.32719842 0.2552365 0.2542224 0.27674493 0.20497474 0.17132717 0.20621918
0.18128373 0.2461248 0.26266843 0.28590018 0.23172095 0.2337762 0.2759276 0.25201106
0.18568566 0.17070241 0.16741715 0.2216477 0.24094366 0.1724318 0.26663178 0.3010624
0.2690708 0.14456615 0.2685854 0.24332488 0.14790909 0.23323195 0.2596393 0.32247162
0.16804147 0.18254468 0.20848356 0.16000459 0.26168954 0.17162731 0.16684237 0.22050872
0.24741341 0.21944013 0.26268652 0.22481954 0.34083393 0.22951753 0.28219467 0.278546
0.23301397 0.28326535 0.20413783 0.25844523 0.18858571 0.20807295 0.23630083 0.18252523
0.30673522 0.044159435

fc1.weight f4 [256, 122]
00000000: 4188 463f c446 1d3f f32b 2e3f 22d4 363f
00000010: 4f6b 0e3f 3b6d 263f d095 653f 3bd5 103f
00000020: cff7 0e3f d500 3e3f 9b59 133f da9f 373f
00000030: 29e6 4f3f 6e3b 493f c424 0f3f ed8a 493f
00000040: 9c8a 503f e932 2b3f e1b8 083f 0a2a 283f
00000050: ee67 193f f192 643f 9143 393f 62a2 483f
00000060: de0c 2d3f 04d8 2d3f 4c6d 323f 30cd 3c3f
00000070: b801 253f 07d5 313f 215c 3d3f 8f2a 103f
00000080: 6fa7 453f 89f3 143f 9162 2d3f 4003 1b3f
00000090: 803d 0a3f d142 2c3f 06c1 2a3f 12a9 263f
000000a0: 826b 2b3f d11c 383f b646 1f3f 73d9 0e3f
000000b0: 69a8 373f 5e76 5b3f 4133 133f 49a2 2a3f
000000c0: 011b 2e3f 73b1 3c3f 4844 433f 7b4b 3d3f
000000d0: 1d2b 0c3f 2b6a 363f c2ab 213f a4b0 273f
000000e0: a79b 103f f164 243f ead7 253f 0926 553f
000000f0: dadf 2c3f dff0 3a3f c5ff 383f b088 433f
00000100: 7d65 563f 37b1 623f c43d 283f d839 543f
00000110: a1c7 3f3f ee0d 333f 391c 2e3f 4804 1d3f
00000120: 3952 2d3f 6fa7 323f 497d 423f 277c 093f
00000130: 3ddf 143f 7aa0 423f 6936 473f 71a8 143f
00000140: 4515 163f 16cf 233f de47 2a3f ca73 243f
00000150: 7918 0a3f be94 3f3f 8f59 323f 7e2d 303f
00000160: 52b4 1d3f d488 293f 0fe6 133f dd16 4d3f
00000170: 99aa 243f 7af1 2e3f 3070 1a3f af94 323f
00000180: c584 243f a987 183f 44a8 523f a12d 0a3f
00000190: 5dd0 473f c2c6 153f 7ed9 343f 2bb9 153f
000001a0: d215 1f3f af6b 363f 5ea6 373f ab22 2f3f
000001b0: 4785 723f 4bc1 323f 0a30 673f 63b9 1f3f
000001c0: f1e8 1d3f b9d3 153f 160f 333f 6709 133f
000001d0: 9eae 123f 882b 0f3f 8f42 223f 432d 2f3f
000001e0: 048e 313f 00b6 1d3a 7bf9 593f 1cb8 303f
000001f0: b3f1 613f e565 563f 4fb0 2c3f cd80 4f3f
00000200: ccf0 683f 32a5 433f 2d25 4a3f ed67 443f
00000210: 6598 393f 9e7f 5a3f 057b 523f 18c9 7f3f
00000220: 8b82 1b3f 6376 5f3f 0f6e 6b3f 81c4 273f
00000230: 7edd 373f 7c24 433f ab10 523f 228a 6c3f
00000240: ba5d 413f 1c2a 553f 983e 283f c67b 533f
00000250: 6f98 4a3f 213f 3f3f 31ae 4f3f 2414 343f
00000260: 64e4 353f 44b7 343f 0b28 303f 7029 4d3f
00000270: 2330 373f 6b82 403f 7dab 4e3f 1976 2d3f
00000280: ba32 1e3f 0af9 3d3f 730c 363f c77f 373f
00000290: f4c0 563f ec28 3e3f 16ca 3d3f cbff 783f
000002a0: b3a5 353f b79d 403f 04ef 373f c8ca 493f
000002b0: 1456 6f3f b317 383f bd49 333f c4da 3f3f
000002c0: eb16 313f ed24 3f3f 1a47 213f 7464 593f
000002d0: 38c9 383f 4526 6a3f 7b3e 413f ffd3 523f
000002e0: 57d3 3b3f c213 3f3f 5fd0 483f d2f2 683f
000002f0: b3fa 403f bc3c 863f ec27 5f3f c33b 4c3f
00000300: f0ee 2a3f f54b 2e3f 3dd9 443f 51b5 5b3f
00000310: f2ab 4c3f e9ed 473f 308e 3f3f ffae 4c3f
00000320: 6138 653f 1111 373f 2973 4b3f 12dd 2f3f
00000330: 23d5 1e3f 3bac 4b3f 94fb 373f 87ec 4b3f
00000340: 6b05 493f cec0 493f ad44 4d3f a024 503f
00000350: 06c8 3c3f 1553 573f 620b 303f a1c6 3d3f
00000360: 5c7d 3c3f ae23 3a3f 7349 1f3f db70 523f
00000370: b083 6f3f 294d 1e3f 95b1 583f dd7e 293f
00000380: b92e 2e3f a67b 403f 4ae5 333f d3eb 5a3f
00000390: 1df4 4a3f 6910 4b3f c6f5 593f ba42 5a3f
000003a0: 9a7d 7d3f ecc1 3d3f 4628 393f a61b 433f
000003b0: 6665 503f 3dd6 443f 6b8d 443f a346 3e3f
000003c0: 0f3b 303f d7b5 333f 32bd 2b3f 74fd 89bd
000003d0: 46d2 423f 4105 3c3f 96ba 453f 77eb 5e3f
000003e0: 3f16 543f cd66 473f fb29 7b3f 39ef 393f
000003f0: f183 373f 17fa 603f 3eeb 373f a467 533f
0.77551657 0.61436105 0.6803581 0.7141744 0.5563249 0.6501042 0.8968172 0.56575364
0.55846876 0.7422002 0.575586 0.7172829 0.8121057 0.7860631 0.55915475 0.7872761
0.814615 0.6687456 0.534071 0.65689147 0.5992421 0.89286715 0.72368723 0.78372777
0.6759776 0.6790774 0.69698024 0.7375059 0.6445575 0.6946568 0.739687 0.5631494
0.7720861 0.58184105 0.67728525 0.60551834 0.5400009 0.67289454 0.6670078 0.6510173
0.6696092 0.7191897 0.6221727 0.5580055 0.7174135 0.8572749 0.5750008 0.6665388
0.68009955 0.73708266 0.76276064 0.739433 0.54753286 0.7125575 0.63152707 0.6550391
0.56487507 0.64216524 0.64782584 0.8326116 0.6752907 0.7302379 0.72265273 0.76380444
0.8374861 0.8855166 0.65719247 0.8290076 0.74913985 0.6994313 0.68011814 0.6133466
0.67703587 0.69786733 0.7597242 0.53705066 0.58153135 0.7602612 0.778174 0.5806952
0.58626205 0.63987863 0.6651591 0.6423918 0.5394359 0.7483634 0.69667906 0.68819416
0.6160327 0.6622441 0.57772917 0.8011301 0.6432281 0.68337214 0.60327435 0.69758123
0.6426509 0.59582 0.82288 0.53975874 0.7805231 0.58506405 0.70644367 0.5848567
0.6214267 0.7125806 0.7173823 0.68412274 0.94734615 0.6982619 0.90307677 0.6239225
0.61683565 0.5852619 0.69944894 0.5743622 0.57297695 0.559258 0.6338281 0.6842844
0.69357324 0.0006016195 0.851463 0.6903093 0.8825943 0.8374923 0.67456526 0.8105591
0.90992427 0.76423943 0.78962976 0.7672108 0.7249816 0.8535098 0.8221896 0.9991622
0.6074607 0.8729002 0.9196481 0.65534216 0.71822345 0.76227546 0.82056683 0.92398274
0.7553364 0.8326738 0.6572051 0.8261074 0.79138845 0.747057 0.8112517 0.7034323
0.7105162 0.7059214 0.688111 0.80141354 0.71557826 0.75199 0.8073042 0.6775833
0.6179615 0.7420813 0.71112746 0.7167935 0.83888173 0.7428119 0.74136484 0.9726531
0.7095596 0.75240654 0.71849084 0.78825045 0.9349072 0.7191116 0.7003439 0.74943185
0.69175595 0.7466572 0.6299912 0.84918904 0.72182035 0.91464645 0.7548596 0.8235473
0.73369354 0.74639523 0.7844295 0.90995514 0.75382537 1.0487285 0.8717029 0.7977869
0.6677084 0.6808465 0.7689398 0.8582354 0.7994987 0.780974 0.74826336 0.7995452
0.8953915 0.71510416 0.79472595 0.686967 0.6204397 0.7955968 0.7186825 0.7965779
0.7852389 0.7880982 0.80182916 0.81305885 0.7374271 0.8411115 0.6876737 0.7413121
0.73628783 0.7271069 0.6222145 0.82203454 0.93560314 0.6183649 0.8464597 0.66209203
0.68040043 0.7518867 0.7027174 0.8551609 0.7927874 0.79321915 0.85140646 0.85258067
0.9901978 0.74124026 0.7232708 0.76214063 0.8140472 0.768894 0.76778287 0.74326533
0.68840116 0.7019934 0.67085564 -0.067377955 0.761021 0.73445517 0.7723783 0.8707804
0.82846445 0.77891237 0.9811093 0.7263065 0.716857 0.87881607 0.71843326 0.8258002

fc1.bias f4 [256]
00000000: 9836 953f 8679 ae3f a2f8 ac3f 15b6 c33f
00000010: 30ba b03f 4093 bf3f e8a8 c93f 9c90 c63f
00000020: e756 bf3f 905d c43f efb8 b83f b686 ba3f
00000030: c790 bd3f 38c0 c13f fc14 8f3f d5e1 c43f
00000040: 5429 c43f 8b55 d43f ec27 ce3f 1b4b bf3f
00000050: bd75 c33f f785 c03f 28ce 903f dbc2 9f3f
00000060: d3d5 c23f 018d bb3f f0d9 ca3f ca2f cc3f
00000070: b809 b13f 19ea c13f 6224 d63f 412c d03f
00000080: 2044 d53f 3743 d23f 2e03 c63f 3a4d d93f
00000090: 5ea9 b03f 3a29 d53f 2635 a73f d95e 973f
000000a0: 8181 b93f 6a54 c73f f6bb b03f 8570 c83f
000000b0: 0787 b33f bd85 cb3f cd85 733f 8d6e ad3f
000000c0: 7676 c53f fd01 c73f 7590 bc3f 6f58 bc3f
000000d0: 4a7f cd3f e743 c43f 5728 bd3f be1d c53f
000000e0: 5d96 d23f 13ca bd3f db57 c73f 7e37 823f
000000f0: a5b9 be3f 4dc1 893f 9023 b93f 3d88 cc3f
00000100: c1ff c53f 3d56 cb3f 4687 c93f d684 bf3f
00000110: 82ae aa3f 3d70 cb3f dcde c43f 3f05 ba3f
00000120: f8c1 cf3f 2f45 c03f 41e2 8c3f 5082 973f
00000130: a53d c73f b81a d33f 9c8f b73f 5688 cb3f
00000140: 020c cf3f 11cb be3f 7074 d13f a2af bf3f
00000150: 0288 cf3f 1686 b73f b6d1 c23f fedb c83f
00000160: ea3d bc3f c0b7 c13f afdc bb3f 26ef 803f
00000170: e594 c33f 959f d33f d1ed ba3f b75a c23f
00000180: 7433 b83f f40a be3f d119 c03f f2ca db3f
00000190: 0913 b63f 4e7d b93f 66a4 9d3f d398 ba3f
000001a0: a375 c83f d8c1 c33f fdb5 d23f fdb3 9d3f
000001b0: 27d0 bb3f a57b bd3f 1da2 ce3f fa5c b83f
000001c0: 07f5 ad3f 607e cb3f c175 c13f 6905 d03f
000001d0: 48f1 bf3f 127f b83f 67de c93f 66c6 c73f
000001e0: bf5c bc3f 86ad bc3f 887b c33f e60e a53f
000001f0: 7e8c ba3f facf b13f e1fa c23f 0a44 bc3f
00000200: f7f9 8d3f b5d8 c53f 2a23 c73f fd70 b63f
00000210: 9da0 ce3f dc3d c33f 237c bf3f ceb8 c03f
00000220: 3c02 b03f 736a bb3f 6303 ce3f 1ec9 bc3f
00000230: cca8 4c3f 753d c83f f6fc a73f 9d1e a83e
00000240: 69a6 be3f 6d75 d03f 7661 d83f 6fa3 cb3f
00000250: 9d63 c63f 75b4 c63f 8e1e bb3f 04df cb3f
00000260: 128d c83f 56b3 ca3f 1ebe c93f 9f1f b23f
00000270: 6e18 9b3f b083 783f 9570 a03f c6e9 b73f
00000280: 3043 2f3f b263 ca3f 695c c93f fbd2 d03f
00000290: 02d5 d03f 0deb c53f ff54 c73f fa99 bc3f
000002a0: a9b4 af3f 854b c43f df1b bd3f 2508 c03f
000002b0: e020 cd3f 3d86 cd3f 7e12 bf3f 68f4 cb3f
000002c0: 2df8 cc3f 11c4 c03f af51 d23f 4807 c33f
000002d0: 576d b83f a721 b53f 1a61 c03f f1bf b23f
000002e0: 48dc be3f 4223 c93f 637a c43f 6bda b93f
000002f0: 1731 d13f 5008 cc3f dc93 b73f 6e2c c83f
00000300: 94f1 ca3f 7aad c23f d05e a83f 5ec2 b83f
00000310: feb4 cf3f bfb9 ba3f 450d cb3f b917 bb3f
00000320: 203e 913f ce25 b13f 77e9 ca3f 641d b13f
00000330: 0ac7 be3f bf61 b63f 0bb9 ac3f d0f3 d23f
00000340: cbc9 cb3f 5a00 b23f 9505 bc3f 3051 c83f
00000350: 57fa cb3f 106b a53f fa2e c93f ac34 d63f
00000360: 0bfd c93f 2c4f bf3f 20fe db3f ce83 b83f
00000370: 45ad ca3f 78bf c73f cff6 aa3f aa25 c83f
00000380: 65c1 c63f 20b4 b73f b79a c83f 6547 993f
00000390: 26f1 6a3f 29e0 923f fa2f bf3f 65bc c53f
000003a0: 96f4 d13f cfc4 b23f 0ba9 a43f bd01 d13f
000003b0: 0ce2 d03f e149 ba3f c553 c83f cbf1 d93f
000003c0: 4cb7 b33f 1704 c43f 6f50 d03f fde6 c43f
000003d0: 295e c33f 7bd7 be3f 6673 b23f c76f d03f
000003e0: 428d b03f 70e6 cf3f c666 cb3f ea3a b13f
000003f0: 5be8 c13f f11e ba3f ac17 af3f 3df4 cb3f
1.1657286 1.3630836 1.3513377 1.5289942 1.380682 1.4966812 1.5754671 1.5512881
1.4948395 1.5341053 1.4431437 1.457236 1.4809808 1.5136786 1.1178279 1.5381418
1.5325112 1.6588606 1.6105933 1.4944795 1.5270306 1.5040883 1.1312914 1.248134
1.5221504 1.4652406 1.5847759 1.5952084 1.3831091 1.5149566 1.6729853 1.6263505
1.6661415 1.6426762 1.546972 1.6976693 1.3801687 1.6653206 1.3063095 1.182582
1.4492646 1.5572636 1.3807361 1.5659338 1.4025582 1.5900189 0.9512604 1.3549362
1.5426776 1.5547482 1.4731585 1.4714488 1.605447 1.5333222 1.4777936 1.5399702
1.6452137 1.4827293 1.5573686 1.0173185 1.4900404 1.0762116 1.4463978 1.5979077
1.5468675 1.5885693 1.5744407 1.4962413 1.3334506 1.5893627 1.5380511 1.4532851
1.623107 1.5021113 1.1006547 1.1836643 1.5565687 1.6492529 1.4340701 1.5900981
1.617554 1.4905721 1.6363659 1.4975474 1.6213381 1.4337795 1.5220249 1.5692136
1.4706395 1.5134201 1.4676722 1.0072982 1.5279814 1.6533076 1.4603826 1.5183934
1.4390702 1.4847093 1.5007879 1.7171309 1.4224559 1.4491365 1.2315795 1.4577888
1.56609 1.5293531 1.6461788 1.2320553 1.4672898 1.4803358 1.6143223 1.4403374
1.3590401 1.5897942 1.5114061 1.6251651 1.4995508 1.4413779 1.5770997 1.5607421
1.4715804 1.4740455 1.5272074 1.2895172 1.4574125 1.3891594 1.5232812 1.4708264
1.1091908 1.5456759 1.5557606 1.4253231 1.6142765 1.5253253 1.4959759 1.5056398
1.3750682 1.4641861 1.6094784 1.4748876 0.79945064 1.5643755 1.3124073 0.32835856
1.4894534 1.6285836 1.6904743 1.5909251 1.549915 1.5523821 1.46187 1.5927434
1.5668051 1.5835979 1.5761144 1.39159 1.211683 0.9707594 1.2534357 1.4368217
0.68461895 1.5811675 1.5731326 1.6314386 1.6315005 1.5462357 1.5572814 1.473449
1.3727008 1.5335547 1.477413 1.5002486 1.6025658 1.6056591 1.4927518 1.5933962
1.6013237 1.5059835 1.6431178 1.5236597 1.4408368 1.4150895 1.5029633 1.3964826
1.4910975 1.5713885 1.534985 1.4519781 1.6343106 1.5940037 1.4341998 1.5638559
1.5854974 1.5209191 1.3153934 1.4434316 1.622711 1.4587935 1.5863425 1.4616615
1.1347084 1.3839662 1.5852498 1.3837094 1.4904492 1.424858 1.3493971 1.6480656
1.5920957 1.3906357 1.4689204 1.5649776 1.5935773 1.2923298 1.5717461 1.6734824
1.5780348 1.4946036 1.7186928 1.4415224 1.5834128 1.5605307 1.335657 1.5636494
1.5527769 1.4351845 1.5672215 1.1974913 0.91774213 1.1474658 1.4936516 1.5448118
1.6402767 1.3966311 1.2864088 1.6328655 1.6318984 1.4553796 1.5650564 1.7026914
1.4040313 1.5313748 1.6274546 1.5382992 1.526311 1.490951 1.3941467 1.6284112
1.3793108 1.6242199 1.5890739 1.3846104 1.5149034 1.4540693 1.3679099 1.5933911

fc2.weight f4 [122, 256]
00000000: c5b8 403e 2faf 393e abae 403e 3ea1 453e
00000010: b3bc 523e 46d2 673e 0d2d 833e 0dc7 843e
00000020: 262c 693e 2d6c 8d3e 7467 833e 73d8 823e
00000030: 020d 433e c043 363e 9fc7 523e 0620 873e
00000040: 2584 4f3e 3bab 513e 8db7 853e ca7c 8f3e
00000050: e221 8b3e 54d2 353e 29ec 883e 2b7a 7a3e
00000060: e0b3 933e f430 503e f33a 6b3e 7dfb 583e
00000070: 3849 923e 1dc5 743e 142a 533e fa83 873e
00000080: b840 4b3e 6365 333e 3b36 813e 8d03 4a3e
00000090: 8c55 773e 3058 843e 1148 3d3e 0803 4b3e
000000a0: 2a89 2e3e 84ae 913e b801 403e fad4 373e
000000b0: 005b 483e 1be4 903e d67f 6c3e 6447 5f3e
000000c0: 5f48 913e 35b3 443e 44ee 7c3e ca2f 313e
000000d0: 5416 5f3e ba26 373e aa45 413e bf3e 963e
000000e0: 4bba 453e b48c 483e 072e 8b3e f93b 053e
000000f0: d15f 293e 4228 1e3e 10cb 573e 9bf7 5d3e
00000100: dd60 7e3e 4a7e 963e 8afc 803e 2ebe 4a3e
00000110: 0992 853e 9781 863e 290f 453e 741d 823e
00000120: 6a48 393e 75eb 763e 2067 343e daa4 8f3e
00000130: b9fe 3e3e 7661 953e ce16 693e be76 793e
00000140: fe90 8e3e f03a 843e 9478 903e 5b4d 8e3e
00000150: 768e 883e ab5d 8e3e 6aac 3d3e bf22 903e
00000160: 94de 6b3e 8e3e 3c3e 7add 403e 81a4 593e
00000170: 78f5 363e 2683 643e e4ec 3a3e c675 943e
00000180: 43b8 913e 69e5 703e 0a8d 713e db2e 7f3e
00000190: 0e02 8b3e 6b66 423e 9e2c 843e 903c 873e
000001a0: a0e1 853e 012d 893e e12c 663e c83f 353e
000001b0: 125b 893e 5666 6d3e bbf2 783e f0e6 853e
000001c0: 4178 803e 1173 423e cdd4 803e 9f64 723e
000001d0: a649 453e 4b26 4e3e 961f 693e 8e4c 813e
000001e0: 578e 853e 5610 723e e98e 923e 9984 5e3e
000001f0: b66d 7b3e 9205 533e 2f4a 903e bd75 713e
00000200: e0f0 543e 5c13 443e 3ee7 7a3e 6f4b 953e
00000210: 0737 783e 8b71 963e d8eb 763e ff0c 953e
00000220: 60dd 7e3e f255 8f3e aec3 3d3e 10e1 4b3e
00000230: ad05 183e b7ea 923e b284 853e 4d5f fe3d
00000240: 7dd9 8a3e d556 933e c582 3d3e 7403 5a3e
00000250: 54f9 373e 4009 743e d961 393e 0297 863e
00000260: 9843 8a3e 0ab3 563e 5c22 313e 9d90 723e
00000270: f9ad 7b3e 75b0 353e af0f 573e da82 893e
00000280: 59b1 0e3e ffa7 943e 59f3 423e e69f 803e
00000290: 4548 8b3e dd69 883e fc60 6c3e 006d 6e3e
000002a0: 6a5d 8b3e 56d2 8d3e 858f 583e 1835 8c3e
000002b0: 4683 8f3e 8097 3d3e 23c9 413e 9001 363e
000002c0: c446 823e a45d 983e 66e2 3e3e 5b3e 8f3e
000002d0: cffe 593e 2eff 8c3e 2a71 303e 1385 8e3e
000002e0: 40a2 563e 7b2e 903e 3c81 4a3e e863 6a3e
000002f0: 760d 853e e4ad 2f3e 04db 943e abfe 413e
00000300: 73cd 963e 0b36 763e 4929 363e eaab 963e
00000310: 2fc0 833e 4a7d 3a3e 2985 703e 8f36 843e
00000320: caf4 253e 25e2 853e 0eea 613e daa1 6b3e
00000330: f7c3 8e3e 8337 683e a6ad 703e 00e1 8e3e
00000340: 6237 3e3e 7c4c 863e 9ae6 6c3e 7a21 593e
00000350: 5625 3a3e cc91 5a3e af60 8d3e a6e6 703e
00000360: 97ad 6d3e 380a 6e3e 20cc 763e 12db 3a3e
00000370: 9359 8c3e f4b4 8b3e 4c8e 833e ee65 533e
00000380: 0f2c 323e f5b0 353e c095 643e b1cd 5a3e
00000390: 6f8f 373e b668 183e 483c 823e c78c 533e
000003a0: 3115 943e 911a 743e 3673 833e c2ce 443e
000003b0: 6dd3 423e abb4 913e 6ccc 2f3e b1fd 943e
000003c0: 54eb 513e debf 733e 9ed7 8f3e bef0 2f3e
000003d0: 5dcb 423e fae2 693e 2357 543e 06ce 723e
000003e0: 933f 663e c8de 333e cf27 973e ddea 3c3e
000003f0: 97e7 853e 0f8d 8e3e c7af 583e 0dd7 903e
0.18820484 0.18133233 0.1881663 0.1929979 0.20579796 0.22638807 0.2562031 0.25933114
0.22770748 0.27621594 0.25664866 0.25555763 0.19047931 0.17799282 0.20583962 0.2639162
0.20265253 0.20475475 0.261166 0.28024894 0.27174288 0.17756015 0.26742676 0.24460666
0.2884817 0.20331174 0.22971706 0.21189685 0.28571486 0.23903318 0.2062152 0.26467878
0.19848907 0.17519145 0.25236687 0.19727917 0.24153727 0.25848532 0.18484522 0.19825375
0.17044511 0.28453457 0.18750656 0.17952338 0.19565964 0.2829903 0.2309564 0.21804577
0.28375527 0.19208987 0.24700266 0.17303386 0.21785861 0.17885867 0.18874231 0.29344746
0.19309346 0.19584924 0.27183554 0.13011159 0.16540457 0.15445045 0.21073556 0.21676485
0.24841638 0.29393226 0.25192672 0.1979911 0.26087978 0.26270744 0.19244064 0.25413096
0.1809403 0.24113257 0.17617464 0.2805546 0.18651856 0.2917592 0.22762606 0.24361703
0.27844995 0.25826216 0.28216994 0.27793393 0.2667119 0.27805838 0.18522802 0.2815151
0.23034126 0.18383238 0.18834487 0.2125416 0.17867076 0.22315654 0.18254429 0.28996104
0.28460893 0.23525013 0.23588958 0.24920218 0.27150005 0.18984382 0.2581529 0.26413393
0.261487 0.26792148 0.22478057 0.17700112 0.26827294 0.2318357 0.24311344 0.26152754
0.25091746 0.18989207 0.25162354 0.23671196 0.19266376 0.20131795 0.22765955 0.2525372
0.2608516 0.23639044 0.28624657 0.2173027 0.2455357 0.20607594 0.28181598 0.2358007
0.20795012 0.1914801 0.24502274 0.29159114 0.24239741 0.293835 0.24113405 0.29111478
0.24889135 0.2799526 0.18531677 0.19910073 0.14845915 0.28694698 0.260778 0.12420521
0.27119055 0.28777185 0.18506916 0.2129038 0.17966205 0.23831654 0.18103732 0.26287085
0.27004695 0.20966735 0.17298263 0.23687978 0.24578084 0.17743094 0.21002077 0.26857644
0.1393484 0.2903442 0.19038142 0.25121993 0.27203575 0.26643267 0.23083872 0.23283768
0.27219707 0.27699536 0.21148498 0.27384257 0.2802984 0.18514824 0.18924384 0.17774034
0.25444615 0.29758942 0.18641052 0.2797726 0.21288608 0.27538437 0.17230669 0.27835903
0.20960331 0.28160462 0.19775862 0.22889674 0.25986832 0.17156178 0.29073346 0.18944804
0.2945362 0.24044053 0.17789187 0.29428035 0.25732562 0.18211856 0.23488297 0.25822875
0.16206661 0.26149097 0.22061941 0.2301096 0.27883884 0.22677426 0.23503742 0.27906036
0.18575814 0.26230228 0.23134843 0.21204177 0.18178305 0.2134468 0.27612826 0.23525485
0.2321075 0.23246086 0.24101305 0.18247631 0.2741209 0.27286494 0.256945 0.20644352
0.1739962 0.17743285 0.2232275 0.21367528 0.1792581 0.14883694 0.25436616 0.20659171
0.28922418 0.2383826 0.25673836 0.19219497 0.19025965 0.2845815 0.17167825 0.290998
0.20499927 0.2380366 0.2809419 0.1718168 0.1902289 0.22840491 0.20736365 0.23711404
0.22485189 0.17565453 0.2952256 0.18448968 0.26153252 0.27841994 0.21160804 0.2828907

fc2.bias f4 [122]
00000000: 7b15 693e cc89 893e 8948 7e3e 1a0e 853e
00000010: 9753 693e bfa0 533e db98 903e be60 713e
00000020: 5dfe 193e 4f63 813e 4f6e 523e 9607 843e
00000030: 81e2 673e 95ba 763e 062b 9f3e 0eb1 733e
00000040: 7e00 a93e 8b61 903e 74d5 783e 1474 603e
00000050: bc3b 703e e2e5 833e c956 6d3e e459 903e
00000060: afe6 8a3e 4e52 953e 55db 943e f558 3c3e
00000070: 9206 833e da80 3f3e 802a 963e 0eac 303e
00000080: e192 603e 1e6e 583e d6a6 523e 4c56 5e3e
00000090: d10a 943e 9831 733e fe3f 433e 6c1e 3f3e
000000a0: a9b7 8a3e ee96 203e 7a83 793e 8680 833e
000000b0: 82a3 8e3e c8f1 523e c690 8e3e d5f6 873e
000000c0: d878 873e f7ce 903e 6a7e 993e da58 543e
000000d0: 8f5c 863e 211a 553e 7235 3e3e ffd8 983e
000000e0: 2ab1 513e 15a9 893e 5b15 613e fbb9 4b3e
000000f0: aac9 123e 9d68 853e d9c9 523e bf5a 793e
00000100: fbac 973e 8d86 a73e 5cae 823e 7029 823e
00000110: 83b1 8d3e e6e4 513e 6470 2f3e 1f2b 533e
00000120: 71a2 393e 2408 7c3e 7a7c 863e 8261 923e
00000130: 4248 6d3e 0763 6f3e 6246 8d3e 9807 813e
00000140: 6224 3e3e 9dcc 2e3e 676f 2b3e 9df7 623e
00000150: efb9 763e f691 303e f683 883e da24 9a3e
00000160: a6c3 893e 2609 143e 0784 893e 282a 793e
00000170: 7b75 173e 5bd4 6e3e 71ef 843e 001b a53e
00000180: 1013 2c3e feec 3a3e b77c 553e 3ed8 233e
00000190: 2cfc 853e 12bf 2f3e bad8 2a3e 0acd 613e
000001a0: f159 7d3e eab4 603e d97e 863e 1837 663e
000001b0: c981 ae3e a506 6b3e d27b 903e 959d 8e3e
000001c0: 379b 6e3e 2808 913e 8209 513e ef52 843e
000001d0: 9d1c 413e 1311 553e d8f8 713e e5e7 3a3e
000001e0: 660c 9d3e 86e0 343d
0.227621 0.26862943 0.24832357 0.2598732 0.22785793 0.20666789 0.2824162 0.2357206
0.15038438 0.2527108 0.20549892 0.25787038 0.22644998 0.24094613 0.31087512 0.2379801
0.33008188 0.2819942 0.24300176 0.2191928 0.23460287 0.25761324 0.23177637 0.2819358
0.27129123 0.29164356 0.29073587 0.1839331 0.2559095 0.18701497 0.293293 0.17253134
0.2193103 0.21135756 0.20571455 0.21712607 0.28914502 0.23749387 0.1906738 0.18663949
0.27093247 0.15682575 0.2436656 0.25683993 0.27859122 0.20600045 0.27844828 0.26555505
0.26459384 0.28282902 0.2997926 0.20737019 0.26242492 0.20810749 0.18575075 0.29853055
0.20477739 0.26886812 0.21980803 0.19895165 0.14334741 0.26056376 0.20584811 0.24351023
0.2962416 0.32719842 0.2552365 0.2542224 0.27674493 0.20497474 0.17132717 0.20621918
0.18128373 0.2461248 0.26266843 0.28590018 0.23172095 0.2337762 0.2759276 0.25201106
0.18568566 0.17070241 0.16741715 0.2216477 0.24094366 0.1724318 0.26663178 0.3010624
0.2690708 0.14456615 0.2685854 0.24332488 0.14790909 0.23323195 0.2596393 0.32247162
0.16804147 0.18254468 0.20848356 0.16000459 0.26168954 0.17162731 0.16684237 0.22050872
0.24741341 0.21944013 0.26268652 0.22481954 0.34083393 0.22951753 0.28219467 0.278546
0.23301397 0.28326535 0.20413783 0.25844523 0.18858571 0.20807295 0.23630083 0.18252523
0.30673522 0.044159435
