g13agent_p2.pth (torch, 505904 bytes, 8 tensors)

fc1.weight f4 [256, 122]
29.640898 29.804361 30.120274 28.752888 25.816992 27.771065 27.475485 29.090967
29.618792 17.939589 16.042542 28.906723 28.015038 28.221922 26.794903 25.27368
26.547205 23.676794 21.05365 25.225662 25.145386 19.855299 28.278011 27.838007
25.134499 25.439821 26.952188 21.568401 15.51746 28.59104 28.214819 18.519777
25.939022 29.405018 27.851421 20.329327 26.091703 21.470251 20.516453 14.535276
24.096552 23.04129 14.801821 26.99531 27.584991 25.940079 18.893673 16.745764
18.874792 24.881416 12.88695 25.98005 18.39407 27.043814 29.725933 28.909145
27.591963 20.853262 22.967094 15.06576 13.372091 13.670731 19.343931 15.101461
25.83269 27.795038 28.620567 27.917551 12.935925 12.921823 12.915277 14.388041
13.348603 13.954717 24.594948 28.399504 29.625484 26.656548 27.658365 22.982164
16.650988 20.044186 22.140614 18.23865 24.626957 25.263361 27.41475 29.542452
17.663935 25.094152 14.015164 18.909645 13.0508585 21.410307 27.407936 24.665281
27.682447 29.128637 28.441261 22.399096 12.812327 24.953064 25.475855 26.202717
28.80394 28.155533 28.475967 30.288626 27.307653 28.370762 16.568098 22.753782
26.598793 27.179256 29.734148 28.545694 27.849607 29.818401 30.367783 29.815453
30.182896 -0.0040380433 29.642405 29.790289 30.085482 28.65329 25.872057 27.767271
27.420338 29.0155 29.595156 17.79786 16.062775 28.760303 27.884796 28.128601
26.771967 25.193306 26.549604 23.573244 21.034132 25.253475 25.219704 19.91297
28.275784 27.76431 24.965527 25.513214 26.889181 21.46853 15.442748 28.589407
28.191916 18.486366 26.041113 29.43464 27.679327 20.251633 26.02428 21.259113
20.458944 14.479403 23.919262 23.009247 14.734004 26.829647 27.507265 25.839495
18.849215 16.65415 18.942398 24.845491 12.8651 25.933249 18.498209 27.007467
29.793884 28.941107 27.47546 20.749737 22.78848 15.022093 13.380285 13.591689
19.355257 15.041901 25.826365 27.711832 28.655285 27.805338 12.856292 12.979216
12.967736 14.337937 13.208044 13.791698 24.620274 28.318447 29.643642 26.547297
27.576946 22.81879 16.605738 19.98419 22.10389 18.204124 24.570845 25.30295
27.386925 29.469873 17.617254 25.063784 13.844374 18.954569 13.091176 21.512428
27.431787 24.66511 27.67813 29.13471 28.310484 22.39798 12.796561 24.742456
25.485756 26.295256 28.77269 28.150743 28.436234 30.33637 27.420605 28.24927
16.500702 22.620989 26.467834 27.133823 29.721018 28.472435 27.923178 29.67322
30.264467 29.817003 30.163754 0.06786871 29.530766 29.715096 30.078115 28.650023
25.808893 27.76198 27.46665 28.914509 29.525908 17.797426 16.010464 28.744955
00000000: 8f20 ed41 556f ee41 52f6 f041 ea05 e641
00000010: 3389 ce41 242b de41 cbcd db41 4dba e841
00000020: 49f3 ec41 4784 8f41 2057 8041 f840 e741
00000030: cc1e e041 7fc6 e141 f65b d641 7f30 ca41
00000040: ad60 d441 136a bd41 e06d a841 28ce c941
00000050: c029 c941 a7d7 9e41 5e39 e241 3db4 de41
00000060: 7413 c941 c184 cb41 159e d741 168c ac41
00000070: 8447 7841 73ba e441 f3b7 e141 8128 9441
00000080: 1e83 cf41 7a3d eb41 b6cf de41 76a2 a241
00000090: cfbb d041 13c3 ab41 b221 a441 7e90 6841
000000a0: bdc5 c041 9054 b841 42d4 6c41 65f6 d741
000000b0: 10ae dc41 4885 cf41 3e26 9741 53f7 8541
000000c0: 93ff 9641 240d c741 f230 4e41 24d7 cf41
000000d0: 0e27 9341 bb59 d841 b6ce ed41 ee45 e741
000000e0: 57bc dc41 7bd3 a641 9cbc b741 5a0d 7141
000000f0: 16f4 5541 50bb 5a41 5fc0 9a41 969f 7141
00000100: 59a9 ce41 3d5c de41 ecf6 e441 2557 df41
00000110: 8cf9 4e41 c9bf 4e41 f9a4 4e41 6a35 6641
00000120: e193 5541 8546 5f41 74c2 c441 2f32 e341
00000130: fe00 ed41 9c40 d541 5544 dd41 79db b741
00000140: 3935 8541 7e5a a041 fa1f b141 c1e8 9141
00000150: 0204 c541 5d1b ca41 6851 db41 f156 ec41
00000160: bd4f 8d41 d3c0 c841 1d3e 6041 f446 9741
00000170: 51d0 5041 4f48 ab41 7443 db41 7f52 c541
00000180: a775 dd41 7307 e941 b487 e341 5931 b341
00000190: 4bff 4c41 e09f c741 8dce cb41 2a9f d141
000001a0: 786e e641 883e e141 c8ce e341 1b4f f241
000001b0: 1376 da41 52f7 e241 778b 8441 bf07 b641
000001c0: 54ca d441 1e6f d941 89df ed41 955d e441
000001d0: ffcb de41 168c ee41 38f1 f241 0c86 ee41
000001e0: 9276 f141 9051 84bb a523 ed41 8352 ee41
000001f0: 11af f041 f039 e541 f9f9 ce41 5f23 de41
00000200: da5c db41 be1f e841 e1c2 ec41 0462 8e41
00000210: 9080 8041 1a15 e641 1014 df41 6007 e141
00000220: fd2c d641 e48b c941 9765 d441 0196 bc41
00000230: e745 a841 1e07 ca41 f4c1 c941 c34d 9f41
00000240: ce34 e241 4f1d de41 66b9 c741 101b cc41
00000250: 0b1d d741 8dbf ab41 7f15 7741 1bb7 e441
00000260: 0b89 e141 14e4 9341 3354 d041 257a eb41
00000270: 436f dd41 5803 a241 ba31 d041 aa12 aa41
00000280: ebab a341 a2ab 6741 a65a bf41 f012 b841
00000290: 7bbe 6b41 1ea3 d641 e10e dc41 49b7 ce41
000002a0: 31cb 9641 b33b 8541 088a 9741 91c3 c641
000002b0: 73d7 4d41 4b77 cf41 55fc 9341 4b0f d841
000002c0: e059 ee41 6387 e741 becd db41 76ff a541
000002d0: cf4e b641 7e5a 7041 a615 5641 8f77 5941
000002e0: 91d7 9a41 a0ab 7041 659c ce41 d5b1 dd41
000002f0: 063e e541 5571 de41 5fb3 4d41 deaa 4f41
00000300: d97b 4f41 3168 6541 2654 5341 ccaa 5c41
00000310: 52f6 c441 2e8c e241 2e26 ed41 dd60 d441
00000320: 969d dc41 e28c b641 8dd8 8441 9fdf 9f41
00000330: c4d4 b041 0ca2 9141 1791 c441 716c ca41
00000340: 6c18 db41 4dc2 eb41 23f0 8c41 a182 c841
00000350: 8e82 5d41 f5a2 9741 7575 5141 7419 ac41
00000360: 4d74 db41 2552 c541 cf6c dd41 e313 e941
00000370: df7b e241 102f b341 b7be 4c41 8df0 c541
00000380: d4e2 cb41 af5c d241 782e e641 b934 e141
00000390: 687d e341 e3b0 f241 665d db41 81fe e141
000003a0: 7001 8441 c9f7 b441 20be d341 1212 d941
000003b0: a5c4 ed41 8cc7 e341 ab62 df41 c162 ed41
000003c0: a11d f241 3989 ee41 5e4f f141 c0fe 8a3d
000003d0: 023f ec41 84b8 ed41 fb9f f041 3f33 e541
000003e0: 9d78 ce41 8918 de41 b3bb db41 ea50 e741
000003f0: 0f35 ec41 2161 8e41 6e15 8041 abf5 e541

fc1.bias f4 [256]
35.589455 35.60752 35.505737 35.409534 35.73391 35.363388 35.62995 35.547592
35.533787 35.635246 35.386158 35.38094 35.668915 35.52285 35.64773 35.591587
35.55292 35.67462 35.619762 35.580456 35.721382 35.535717 35.649723 35.478077
35.531963 35.53286 35.6521 35.659588 35.418865 35.530006 35.680645 35.68584
35.630306 35.695812 35.489258 35.499832 35.537945 35.475758 35.797745 35.70286
35.784203 35.78228 35.715824 35.743553 35.504887 35.68703 35.570858 35.610165
35.68772 35.65285 35.68652 35.47622 35.61997 35.45862 35.659245 35.581417
35.383766 35.768143 35.606808 35.53609 35.619205 35.46764 35.63813 35.617283
35.33797 35.74373 35.780033 35.672512 35.52259 35.330326 35.58708 35.673725
35.74885 35.593166 35.585857 35.42812 35.674946 35.876545 35.4394 35.164593
35.524246 35.450214 35.664326 35.66818 35.179127 35.739563 35.671238 35.398945
35.649975 35.502155 35.740612 35.750072 35.704662 35.203632 35.49802 35.327564
35.272118 35.71154 35.659424 35.707375 35.682724 35.59163 35.613544 35.400116
35.60735 35.736515 35.46872 35.772167 35.6394 35.70418 35.39545 34.933586
35.694824 35.602505 35.631958 35.614285 35.659348 35.58015 35.659466 35.846336
35.345085 35.767406 35.553383 35.455723 35.5832 35.7027 35.716354 35.783627
35.76986 35.727097 35.716568 35.144806 35.705822 35.581642 35.538883 35.630116
35.434082 35.64369 35.483326 35.15068 35.7195 35.60717 35.6657 35.73887
35.669327 35.6015 35.745823 35.48175 35.543217 35.75376 35.800667 35.554317
35.68304 35.21411 35.502583 35.667545 35.837788 35.137672 35.673893 35.705185
35.528923 35.736877 35.54436 35.62656 35.540386 35.569 35.634014 35.31896
35.667397 35.631756 35.564816 35.706726 35.58963 35.490417 35.659084 35.593636
35.63724 35.4209 35.384476 35.664608 35.68729 35.616066 35.631924 35.645943
35.563377 35.354298 35.57508 35.635597 35.095375 35.582767 35.722282 35.632797
35.64468 35.74724 35.812878 35.643475 35.65556 35.046543 35.53256 35.59554
35.470108 35.461792 35.634712 35.686325 35.393513 35.469322 35.56186 35.595016
35.351223 35.421642 35.709557 35.637897 35.629642 35.749386 35.376472 35.28509
35.57947 35.704063 35.627377 35.565815 35.538788 35.69165 35.72454 35.460155
35.471268 35.145092 35.517082 35.64101 35.467278 35.60086 35.6345 35.60361
35.569214 35.719906 35.522797 35.717773 35.838108 35.667313 35.629074 35.677586
35.55203 35.60786 35.575924 35.517483 35.38492 35.451298 35.569424 35.785946
35.500397 35.650158 35.574135 35.698936 34.956707 35.664978 35.673725 35.47334
00000000: 9a5b 0e42 1a6e 0e42 e005 0e42 5da3 0d42
00000010: 86ef 0e42 1c74 0d42 1285 0e42 bc30 0e42
00000020: 9922 0e42 7e8a 0e42 6d8b 0d42 1586 0d42
00000030: f8ac 0e42 6617 0e42 4797 0e42 c95d 0e42
00000040: 3136 0e42 d0b2 0e42 a37a 0e42 6352 0e42
00000050: b2e2 0e42 9324 0e42 5199 0e42 8de9 0d42
00000060: bb20 0e42 a621 0e42 c09b 0e42 6ba3 0e42
00000070: ebac 0d42 ba1e 0e42 fbb8 0e42 4dbe 0e42
00000080: 6f85 0e42 83c8 0e42 00f5 0d42 d4ff 0d42
00000090: db26 0e42 2de7 0d42 e430 0f42 bbcf 0e42
000000a0: 0623 0f42 0e21 0f42 01dd 0e42 66f9 0e42
000000b0: 0105 0e42 85bf 0e42 8f48 0e42 cf70 0e42
000000c0: 3ac0 0e42 859c 0e42 ffbe 0e42 a6e7 0d42
000000d0: d97a 0e42 a0d5 0d42 11a3 0e42 5f53 0e42
000000e0: fa88 0d42 9412 0f42 5f6d 0e42 f524 0e42
000000f0: 117a 0e42 ddde 0d42 728d 0e42 1978 0e42
00000100: 155a 0d42 94f9 0e42 c11e 0f42 a7b0 0e42
00000110: 2217 0e42 4152 0d42 2b59 0e42 e5b1 0e42
00000120: d3fe 0e42 675f 0e42 eb57 0e42 65b6 0d42
00000130: 25b3 0e42 9581 0f42 f2c1 0d42 8ba8 0c42
00000140: d418 0e42 05cd 0d42 45a8 0e42 37ac 0e42
00000150: 6db7 0c42 50f5 0e42 59af 0e42 8598 0d42
00000160: 9399 0e42 3502 0e42 63f6 0e42 1300 0f42
00000170: 93d1 0e42 85d0 0c42 f9fd 0d42 6d4f 0d42
00000180: a616 0d42 9ed8 0e42 40a3 0e42 5ad4 0e42
00000190: 1cbb 0e42 d45d 0e42 4574 0e42 b899 0d42
000001a0: ed6d 0e42 31f2 0e42 f8df 0d42 b316 0f42
000001b0: bf8e 0e42 15d1 0e42 f194 0d42 febb 0b42
000001c0: 80c7 0e42 f768 0e42 2087 0e42 0775 0e42
000001d0: 2ca3 0e42 1352 0e42 4ba3 0e42 a662 0f42
000001e0: 5e61 0d42 d311 0f42 aa36 0e42 a9d2 0d42
000001f0: 3255 0e42 91cf 0e42 8cdd 0e42 6f22 0f42
00000200: 5614 0f42 8ce8 0e42 c4dd 0e42 4894 0c42
00000210: c3d2 0e42 9a53 0e42 d127 0e42 3d85 0e42
00000220: 80bc 0d42 2393 0e42 edee 0d42 4c9a 0c42
00000230: c5e0 0e42 be6d 0e42 ada9 0e42 9af4 0e42
00000240: 64ad 0e42 f067 0e42 b9fb 0e42 50ed 0d42
00000250: 412c 0e42 da03 0f42 e233 0f42 9f37 0e42
00000260: 6fbb 0e42 40db 0c42 a502 0e42 91ab 0e42
00000270: e559 0f42 fa8c 0c42 11b2 0e42 1cd2 0e42
00000280: 9e1d 0e42 90f2 0e42 6d2d 0e42 9981 0e42
00000290: 5b29 0e42 a846 0e42 3b89 0e42 9d46 0d42
000002a0: 6aab 0e42 eb86 0e42 5f42 0e42 b0d3 0e42
000002b0: c85b 0e42 30f6 0d42 e7a2 0e42 e25f 0e42
000002c0: 898c 0e42 00af 0d42 b489 0d42 8fa8 0e42
000002d0: c9bf 0e42 da76 0e42 1787 0e42 7295 0e42
000002e0: e640 0e42 cd6a 0d42 e24c 0e42 da8a 0e42
000002f0: aa61 0c42 c154 0e42 9ee3 0e42 fc87 0e42
00000300: 2794 0e42 2cfd 0e42 6340 0f42 eb92 0e42
00000310: 4b9f 0e42 a92f 0c42 5721 0e42 d561 0e42
00000320: 64e1 0d42 e0d8 0d42 f289 0e42 ccbe 0e42
00000330: f592 0d42 96e0 0d42 583f 0e42 4c61 0e42
00000340: a767 0d42 c3af 0d42 96d6 0e42 358d 0e42
00000350: c184 0e42 5fff 0e42 8281 0d42 ef23 0d42
00000360: 6151 0e42 f6d0 0e42 6f82 0e42 6543 0e42
00000370: b827 0e42 40c4 0e42 eee5 0e42 33d7 0d42
00000380: 94e2 0d42 9394 0c42 7e11 0e42 6590 0e42
00000390: 7ede 0d42 4867 0e42 ba89 0e42 196a 0e42
000003a0: e046 0e42 2fe1 0e42 5817 0e42 00df 0e42
000003b0: 395a 0f42 54ab 0e42 2c84 0e42 d9b5 0e42
000003c0: 4735 0e42 736e 0e42 bf4d 0e42 e711 0e42
000003d0: 288a 0d42 21ce 0d42 1747 0e42 cf24 0f42
000003e0: 6800 0e42 c399 0e42 ea4b 0e42 b6cb 0e42
000003f0: abd3 0b42 f0a8 0e42 e5b1 0e42 b3e4 0d42

fc2.weight f4 [122, 256]
5.729285 5.7537336 5.690415 5.7093782 5.7275653 5.729196 5.653376 5.7494154
5.6989474 5.7260237 5.6565742 5.696633 5.7374067 5.7292767 5.7062855 5.6832523
5.7026873 5.6928377 5.647289 5.670124 5.7693777 5.7413588 5.742433 5.7568502
5.6850657 5.704306 5.656585 5.770771 5.6440444 5.736725 5.7703047 5.763667
5.7408996 5.706131 5.6778426 5.689569 5.6515837 5.6675463 5.75307 5.653483
5.757147 5.7500424 5.675413 5.734338 5.6986303 5.717763 5.6749578 5.735401
5.70831 5.7007146 5.757182 5.659318 5.688457 5.7040896 5.703789 5.6659393
5.697706 5.66207 5.7079477 5.766148 5.74245 5.6836615 5.718553 5.6567717
5.636428 5.7015557 5.763749 5.712466 5.640651 5.6528425 5.663425 5.7068458
5.7598286 5.6920867 5.63666 5.6936035 5.732265 5.6659207 5.6755395 5.651248
5.6856837 5.766604 5.698873 5.754991 5.6843343 5.7398815 5.742091 5.635296
5.766885 5.721375 5.668481 5.6644115 5.6792545 5.618092 5.66982 5.6668253
5.668292 5.675766 5.686358 5.7539372 5.6904664 5.6550255 5.730825 5.618418
5.663604 5.707534 5.6541886 5.756233 5.659311 5.655651 5.728366 5.5837717
5.7556515 5.722602 5.7141843 5.749968 5.711082 5.7103753 5.665269 5.665364
5.6499844 5.731664 5.760983 5.684084 5.721988 5.721601 5.6935115 5.665123
5.650856 5.744821 5.767095 5.719093 5.6931806 5.7219915 5.70923 5.681494
5.7341366 5.6972837 5.6692286 5.6671596 5.711366 5.760497 5.6685534 5.7468715
5.729964 5.70547 5.6700687 5.686108 5.7610164 5.6965313 5.7107167 5.668844
5.6610055 5.676287 5.737853 5.696097 5.6564817 5.655789 5.651361 5.7512193
5.6879554 5.665434 5.715155 5.669293 5.6489954 5.700295 5.686641 5.666142
5.7670236 5.762771 5.649204 5.737757 5.7561574 5.6840763 5.6392646 5.703301
5.7157917 5.6983495 5.640947 5.6637154 5.6915236 5.6688523 5.7367563 5.7312074
5.6520424 5.667379 5.6695695 5.732355 5.609411 5.708742 5.7035356 5.7491097
5.7172737 5.729673 5.6774883 5.6954994 5.6671615 5.6499596 5.6983857 5.7346954
5.641106 5.7078605 5.71217 5.7364216 5.6666293 5.7609053 5.682618 5.7025294
5.7093124 5.698779 5.701814 5.719772 5.748119 5.772701 5.633625 5.6548543
5.748853 5.765958 5.706712 5.6956306 5.748925 5.727966 5.768084 5.6657357
5.7209654 5.661319 5.726065 5.758061 5.757998 5.726589 5.745642 5.6970043
5.7247796 5.6747026 5.6648197 5.7573476 5.7152324 5.678921 5.699539 5.6500816
5.7228327 5.7551613 5.6463304 5.692518 5.6642313 5.7220774 5.7484884 5.688702
5.6730266 5.688888 5.6778145 5.7226048 5.613988 5.6479974 5.6962523 5.713252
00000000: 4d56 b740 961e b840 e117 b640 3ab3 b640
00000010: 3748 b740 9355 b740 75e8 b440 36fb b740
00000020: c75d b640 963b b740 a802 b540 d14a b640
00000030: d698 b740 3c56 b740 e499 b640 34dd b540
00000040: 6a7c b640 ba2b b640 97b6 b440 a871 b540
00000050: be9e b840 36b9 b740 03c2 b740 1e38 b840
00000060: 0fec b540 ad89 b640 bf02 b540 28aa b840
00000070: 039c b440 4093 b740 56a6 b840 f66f b840
00000080: 73b5 b740 a098 b640 e3b0 b540 f310 b640
00000090: c6d9 b440 8a5c b540 2619 b840 55e9 b440
000000a0: 8c3a b840 5900 b840 fc9c b540 b27f b740
000000b0: 2e5b b640 eaf7 b640 4199 b540 6888 b740
000000c0: 7aaa b640 416c b640 d63a b840 2219 b540
000000d0: d707 b640 e787 b640 7185 b640 604f b540
000000e0: 9c53 b640 ad2f b540 82a7 b640 4984 b840
000000f0: 27c2 b740 8ee0 b540 63fe b640 4604 b540
00000100: 9e5d b440 2573 b640 a270 b840 85cc b640
00000110: 3780 b440 16e4 b440 c73a b540 7b9e b640
00000120: 8450 b840 9325 b640 855f b440 0032 b640
00000130: b76e b740 394f b540 059e b540 06d7 b440
00000140: 1ff1 b540 0588 b840 2b5d b640 e328 b840
00000150: 11e6 b540 1cad b740 36bf b740 5854 b440
00000160: 528a b840 8115 b740 3264 b540 dc42 b540
00000170: 74bc b540 69c7 b340 2a6f b540 a256 b540
00000180: a662 b540 e09f b540 a5f6 b540 4120 b840
00000190: 4d18 b640 f8f5 b440 eb62 b740 15ca b340
000001a0: 3e3c b540 1ea4 b640 1def b440 1033 b840
000001b0: 1319 b540 18fb b440 c64e b740 42ae b240
000001c0: 4c2e b840 8e1f b740 99da b640 bdff b740
000001d0: 2fc1 b640 65bb b640 e249 b540 a94a b540
000001e0: accc b440 cb69 b740 f959 b840 04e4 b540
000001f0: 871a b740 5b17 b740 3f31 b640 b048 b540
00000200: d0d3 b440 93d5 b740 0b8c b840 cf02 b740
00000210: 892e b640 8e1a b740 03b2 b640 cdce b540
00000220: 0c7e b740 2650 b640 526a b540 5f59 b540
00000230: 83c3 b640 fe55 b840 ca64 b540 5fe6 b740
00000240: dd5b b740 3693 b640 3471 b540 99f4 b540
00000250: 3f5a b840 fc49 b640 31be b640 2c67 b540
00000260: f526 b540 25a4 b540 7e9c b740 6d46 b640
00000270: e601 b540 39fc b440 f3d7 b440 fd09 b840
00000280: bb03 b640 3c4b b540 8de2 b640 d96a b540
00000290: 92c4 b440 d168 b640 f7f8 b540 0951 b540
000002a0: 758b b840 9f68 b840 47c6 b440 b59b b740
000002b0: 7132 b840 f4e3 b540 db74 b440 7181 b640
000002c0: c4e7 b640 e158 b640 a382 b440 283d b540
000002d0: f620 b640 3d67 b540 8293 b740 0d66 b740
000002e0: 88dd b440 2b5b b540 1d6d b540 746f b740
000002f0: 4b80 b340 04ae b640 5d83 b640 b5f8 b740
00000300: e8f3 b640 7b59 b740 fcad b540 8841 b640
00000310: 6359 b540 78cc b440 2d59 b640 a082 b740
00000320: f183 b440 cba6 b640 19ca b640 c490 b740
00000330: 0755 b540 5659 b840 02d8 b540 1f7b b640
00000340: b0b2 b640 665c b640 4375 b640 5f08 b740
00000350: 97f0 b740 f7b9 b840 a846 b440 91f4 b440
00000360: 9bf6 b740 ba82 b840 629d b640 9b42 b640
00000370: 32f7 b740 7f4b b740 2594 b840 b54d b540
00000380: 2612 b740 8629 b540 ed3b b740 0942 b840
00000390: 8541 b840 3840 b740 4ddc b740 dc4d b640
000003a0: 6531 b740 2a97 b540 3446 b540 313c b840
000003b0: 2fe3 b640 b9b9 b540 a062 b640 78cd b440
000003c0: 7221 b740 482a b840 bdae b440 1c29 b640
000003d0: 6241 b540 421b b740 9ef3 b740 d909 b640
000003e0: 6f89 b540 5f0b b640 a8b0 b540 941f b740
000003f0: caa5 b340 65bc b440 b347 b640 f6d2 b640

fc2.bias f4 [122]
6.4362874 6.3495803 6.472842 6.2184315 6.073239 6.213993 6.147908 6.2914004
6.299428 5.4566655 4.793342 6.356775 6.2901325 6.2400846 6.2200522 6.0989323
6.1635404 6.050571 5.824666 5.958874 6.0946527 5.3299246 6.2745905 6.167981
6.1392913 6.07717 6.274835 6.0196066 4.721849 6.310319 6.2933984 5.1036215
6.0684767 6.348797 6.2840166 5.7976446 6.1717124 5.854912 5.9824386 4.3851514
6.029051 5.9400053 4.468105 6.1581645 6.235035 6.210725 5.675508 5.323349
5.7746043 6.079171 3.6803758 6.2753363 5.3068557 6.179824 6.31171 6.38053
6.186283 5.9349575 6.032912 4.958403 4.1651034 2.5796812 5.5623937 4.5558553
6.181333 6.2730207 6.1795964 6.230697 3.64671 3.3803937 2.9268296 4.7143335
3.0985532 4.163442 6.0622993 6.2536263 6.477799 6.140485 6.161895 6.0541496
4.9875183 5.7859106 5.898874 5.6548057 5.9859815 6.059101 6.167231 6.3121133
5.5685477 6.0296907 4.399709 5.6667166 3.979583 5.955343 6.1755795 6.0212145
6.257051 6.2932787 6.2593894 5.934193 3.2982688 6.106769 6.060047 6.165765
6.3492746 6.269839 6.1960897 6.471468 6.2382083 6.3082705 4.6271505 5.920759
6.1683087 6.161389 6.3743486 6.201615 6.168015 6.4212646 6.5361238 6.4906416
6.3707714 -0.06133893
00000000: 11f6 cd40 c32f cb40 8621 cf40 64fd c640
00000010: f957 c240 08d9 c640 aabb c440 2753 c940
00000020: ea94 c940 019d ae40 0f63 9940 b36a cb40
00000030: c448 c940 c6ae c740 ab0a c740 742a c340
00000040: b93b c540 479e c140 aa63 ba40 19af be40
00000050: 6507 c340 be8e aa40 72c9 c840 1a60 c540
00000060: 1375 c440 2d78 c240 73cb c840 9ea0 c040
00000070: 6319 9740 22ee c940 8563 c940 de50 a340
00000080: f630 c240 5829 cb40 aa16 c940 4e86 b940
00000090: ab7e c540 705b bb40 2370 bf40 2953 8c40
000000a0: fced c040 8614 be40 b7fa 8e40 af0f c540
000000b0: 6885 c740 42be c640 c39d b540 e058 aa40
000000c0: 8fc9 b840 9288 c240 478b 6b40 8ecf c840
000000d0: c3d1 a940 1ec1 c540 87f9 c940 4d2d cc40
000000e0: 08f6 c540 2ceb bd40 9d0d c140 3dab 9e40
000000f0: 8748 8540 7f19 2540 21ff b140 91c9 9140
00000100: 7bcd c540 96bc c840 41bf c540 df61 c740
00000110: b263 6940 5f58 5840 2d51 3b40 d2db 9640
00000120: b24e 4640 eb3a 8540 5bfe c140 b51d c840
00000130: 214a cf40 da7e c440 3e2e c540 98bb c140
00000140: c099 9f40 2e26 b940 93c3 bc40 2bf4 b440
00000150: 298d bf40 28e4 c140 f559 c540 d5fc c940
00000160: 8b31 b240 3af3 c040 6bca 8c40 be55 b540
00000170: 7db1 7e40 2b92 be40 599e c540 caad c040
00000180: c339 c840 8a62 c940 eb4c c840 e9e4 bd40
00000190: d616 5340 a76a c340 e8eb c140 f24d c540
000001a0: 422d cb40 85a2 c840 5e46 c640 4416 cf40
000001b0: 679f c740 5add c940 9e11 9440 dc76 bd40
000001c0: c962 c540 192a c540 aafa cb40 a173 c640
000001d0: 6160 c540 007b cd40 ed27 d140 56b3 cf40
000001e0: 5cdd cb40 883e 7bbd

fc1.weight f4 [256, 122]
29.623146 29.786106 30.101912 28.734854 25.797358 27.752552 27.45582 29.07203
29.601028 17.923082 16.031975 28.888895 27.997229 28.203472 26.775167 25.255375
26.5289 23.657782 21.034616 25.205967 25.127632 19.839231 28.259947 27.820112
25.116735 25.42029 26.933933 21.54891 15.508507 28.573042 28.196785 18.504396
25.919855 29.386202 27.833593 20.310692 26.07384 21.450869 20.496723 14.53325
24.077122 23.021955 14.7957 26.975576 27.566092 25.922174 18.875677 16.729696
18.856157 24.86234 12.88695 25.960802 18.378689 27.025843 29.706402 28.89104
27.573513 20.83388 22.947927 15.052956 13.370065 13.670731 19.326414 15.095341
25.81492 27.776453 28.602644 27.899487 12.935925 12.921823 12.915277 14.377482
13.348603 13.95269 24.5757 28.381102 29.607716 26.638035 27.63863 22.96283
16.638193 20.025152 22.121122 18.220654 24.607262 25.245256 27.39697 29.52409
17.647429 25.075077 14.013138 18.892128 13.0508585 21.390577 27.389202 24.646465
27.66445 29.110666 28.423367 22.379362 12.812327 24.934422 25.45712 26.184132
28.785538 28.13689 28.458158 30.270872 27.28802 28.351824 16.559143 22.734118
26.581015 27.160357 29.715975 28.52783 27.831703 29.798971 30.34986 29.79728
30.163883 -0.0040380433 29.62465 29.772038 30.067123 28.635248 25.852425 27.748768
27.400675 28.996565 29.57739 17.781353 16.052204 28.742477 27.866985 28.110151
26.752241 25.174995 26.531294 23.55424 21.015104 25.23378 25.201946 19.89691
28.257702 27.74643 24.947762 25.493677 26.87093 21.449041 15.433798 28.571411
28.173874 18.470976 26.021942 29.415825 27.6615 20.232986 26.006428 21.239723
20.439217 14.477376 23.899826 22.98991 14.727898 26.809917 27.488365 25.821598
18.83122 16.63809 18.923752 24.826418 12.8651 25.91399 18.482819 26.989513
29.774347 28.922985 27.45701 20.730347 22.76931 15.009289 13.378259 13.591689
19.337744 15.035794 25.808598 27.693245 28.637371 27.787256 12.856292 12.979216
12.967736 14.327371 13.208044 13.789672 24.601015 28.300047 29.625875 26.528793
27.55722 22.799454 16.592934 19.965162 22.0844 18.18613 24.55115 25.284828
27.36914 29.451515 17.600748 25.04471 13.842347 18.937056 13.091176 21.4927
27.413048 24.646294 27.660133 29.116756 28.292603 22.37825 12.796561 24.723793
25.467016 26.276669 28.75429 28.13208 28.418423 30.318613 27.400972 28.230335
16.491747 22.601326 26.45005 27.114923 29.702826 28.454582 27.905281 29.653784
30.246553 29.798811 30.144749 0.06786871 29.513027 29.696856 30.059767 28.632002
25.78928 27.743484 27.447012 28.895596 29.508167 17.78094 15.999893 28.727137
00000000: 34fc ec41 f249 ee41 b7d0 f041 fbe0 e541
00000010: fd60 ce41 3a05 de41 85a5 db41 8493 e841
00000020: e8ce ec41 7962 8f41 7c41 8041 751c e741
00000030: 53fa df41 b6a0 e141 8b33 d641 020b ca41
00000040: 303b d441 2343 bd41 e546 a841 d2a5 c941
00000050: 6405 c941 bfb6 9e41 5f14 e241 978f de41
00000060: 13ef c841 c15c cb41 b278 d741 2b64 ac41
00000070: d822 7841 9795 e441 0493 e141 0109 9441
00000080: dd5b cf41 f116 eb41 33ab de41 4c7c a241
00000090: 3997 d041 619b ab41 4af9 a341 3188 6841
000000a0: f29d c041 f72c b841 30bb 6c41 fbcd d741
000000b0: 5b87 dc41 9d60 cf41 6301 9741 6bd6 8541
000000c0: 69d9 9641 13e6 c641 f230 4e41 b9af cf41
000000d0: 8e07 9341 ed34 d841 b6a6 ed41 da20 e741
000000e0: 8e96 dc41 c9ab a641 5b95 b741 e8d8 7041
000000f0: c9eb 5541 50bb 5a41 7f9c 9a41 8486 7141
00000100: f584 ce41 2d36 de41 37d2 e441 2632 df41
00000110: 8cf9 4e41 c9bf 4e41 f9a4 4e41 2b0a 6641
00000120: e193 5541 383e 5f41 099b c441 7f0c e341
00000130: 9adc ec41 b21a d541 ea1b dd41 e0b3 b741
00000140: 051b 8541 8333 a041 0ff8 b041 e6c3 9141
00000150: acdb c441 49f6 c941 ff2c db41 5631 ec41
00000160: ef2d 8d41 c299 c841 d035 6041 1423 9741
00000170: 51d0 5041 e71f ab41 161d db41 f62b c541
00000180: cb50 dd41 a5e2 e841 0e63 e341 ef08 b341
00000190: 4bff 4c41 b279 c741 2fa8 cb41 1a79 d141
000001a0: c848 e641 5a18 e141 4faa e341 bf2a f241
000001b0: dd4d da41 89d0 e241 2079 8441 79df b541
000001c0: eba5 d441 6948 d941 51ba ed41 ff38 e441
000001d0: 54a7 de41 4b64 ee41 83cc f241 d460 ee41
000001e0: a24f f141 9051 84bb 48ff ec41 222d ee41
000001f0: 7889 f041 fd14 e541 c4d1 ce41 7afd dd41
00000200: 9534 db41 f7f8 e741 7f9e ec41 3640 8e41
00000210: ea6a 8041 98f0 e541 96ef de41 97e1 e041
00000220: 9704 d641 6466 c941 1740 d441 156f bc41
00000230: ef1e a841 c8de c941 969d c941 df2c 9f41
00000240: c60f e241 b0f8 dd41 0495 c741 0df3 cb41
00000250: aaf7 d641 a397 ab41 d6f0 7641 4092 e441
00000260: 1864 e141 8fc4 9341 f02c d041 9c53 eb41
00000270: c14a dd41 28dd a141 2a0d d041 f4ea a941
00000280: 8483 a341 55a3 6741 d832 bf41 56eb b741
00000290: 78a5 6b41 b67a d641 2ce8 db41 a292 ce41
000002a0: 57a6 9641 cf1a 8541 d863 9741 819c c641
000002b0: 73d7 4d41 da4f cf41 d0dc 9341 86ea d741
000002c0: dd31 ee41 4662 e741 f5a7 db41 c0d7 a541
000002d0: 8c27 b641 0c26 7041 590d 5641 8f77 5941
000002e0: b3b3 9a41 9d92 7041 0278 ce41 c48b dd41
000002f0: 5619 e541 4d4c de41 5fb3 4d41 deaa 4f41
00000300: d97b 4f41 e93c 6541 2654 5341 7fa2 5c41
00000310: e1ce c441 7f66 e241 cb01 ed41 f83a d441
00000320: 3075 dc41 4865 b641 54be 8441 a7b8 9f41
00000330: daac b041 327d 9141 c168 c441 5447 ca41
00000340: 00f4 da41 b49c eb41 55ce 8c41 915b c841
00000350: 417a 5d41 177f 9741 7575 5141 0df1 ab41
00000360: ec4d db41 9c2b c541 f447 dd41 1eef e841
00000370: 4057 e241 a806 b341 b7be 4c41 54ca c541
00000380: 73bc cb41 9e36 d241 c908 e641 800e e141
00000390: ee58 e341 858c f241 3135 db41 bad7 e141
000003a0: 19ef 8341 84cf b441 b499 d341 5deb d841
000003b0: 639f ed41 fca2 e341 043e df41 f33a ed41
000003c0: f1f8 f141 f763 ee41 7228 f141 c0fe 8a3d
000003d0: ae1a ec41 2993 ed41 677a f041 570e e541
000003e0: 7250 ce41 a8f2 dd41 7b93 db41 2e2a e741
000003f0: ba10 ec41 5d3f 8e41 90ff 7f41 2dd1 e541

fc1.bias f4 [256]
35.571728 35.589783 35.488045 35.39186 35.716198 35.345673 35.612244 35.529873
35.516083 35.617542 35.36844 35.36324 35.651226 35.505123 35.629993 35.573895
35.53522 35.656895 35.602062 35.562763 35.70363 35.51802 35.632008 35.46038
35.514225 35.51514 35.634396 35.641903 35.401123 35.512257 35.662952 35.668125
35.612602 35.67809 35.47155 35.482124 35.520226 35.45804 35.78003 35.685177
35.766506 35.764557 35.69811 35.72587 35.487175 35.669277 35.55314 35.59247
35.670006 35.635124 35.668804 35.458515 35.602253 35.44093 35.641533 35.563698
35.366093 35.750458 35.58912 35.5184 35.601505 35.449924 35.620407 35.599564
35.320274 35.726 35.76233 35.654823 35.504868 35.312626 35.569355 35.65599
35.731155 35.575436 35.568142 35.410404 35.657272 35.858852 35.42168 35.146877
35.50652 35.432518 35.64662 35.650436 35.16143 35.721855 35.65353 35.381214
35.63225 35.484413 35.72287 35.73234 35.686943 35.18594 35.480316 35.30981
35.25444 35.693825 35.641705 35.68966 35.66499 35.573944 35.595837 35.382397
35.589634 35.718777 35.451042 35.75446 35.621708 35.68649 35.37775 34.9159
35.677124 35.584805 35.614227 35.5966 35.64161 35.562454 35.641747 35.82862
35.327377 35.749683 35.535667 35.437984 35.56548 35.68501 35.698666 35.76592
35.752155 35.70941 35.69884 35.127083 35.688114 35.563953 35.52117 35.61242
35.416355 35.625954 35.465626 35.132996 35.70178 35.589485 35.64799 35.721165
35.651634 35.58378 35.728107 35.464024 35.52551 35.73606 35.782978 35.536594
35.66535 35.1964 35.484825 35.64984 35.820114 35.119957 35.656178 35.687485
35.51118 35.719162 35.52666 35.608833 35.52269 35.55128 35.616276 35.301216
35.649704 35.61401 35.547077 35.689056 35.57191 35.472664 35.641373 35.575924
35.61955 35.4032 35.36673 35.646877 35.6696 35.598362 35.614243 35.62822
35.545662 35.33656 35.55736 35.617905 35.077682 35.565044 35.70457 35.615078
35.62695 35.72951 35.795162 35.62574 35.637856 35.028812 35.51485 35.577847
35.45242 35.444077 35.617016 35.668613 35.375793 35.451633 35.544144 35.5773
35.333538 35.40394 35.69186 35.620155 35.61193 35.731705 35.358734 35.26738
35.56176 35.68634 35.609688 35.54813 35.52109 35.673946 35.706837 35.44247
35.453526 35.127377 35.499355 35.623295 35.44959 35.58316 35.616745 35.585896
35.551514 35.702198 35.50509 35.700058 35.8204 35.649586 35.61135 35.65988
35.534306 35.59016 35.558212 35.49976 35.36719 35.43361 35.551693 35.768246
35.482685 35.63243 35.556396 35.68119 34.939014 35.64728 35.65599 35.45562
00000000: 7349 0e42 f05b 0e42 c2f3 0d42 4491 0d42
00000010: 63dd 0e42 f861 0d42 f072 0e42 971e 0e42
00000020: 7810 0e42 5d78 0e42 4879 0d42 f573 0d42
00000030: db9a 0e42 3f05 0e42 1d85 0e42 ab4b 0e42
00000040: 1124 0e42 a9a0 0e42 8368 0e42 4540 0e42
00000050: 84d0 0e42 7412 0e42 2d87 0e42 6ed7 0d42
00000060: 910e 0e42 810f 0e42 9f89 0e42 4f91 0e42
00000070: c09a 0d42 8d0c 0e42 dda6 0e42 29ac 0e42
00000080: 4e73 0e42 5db6 0e42 dee2 0d42 b2ed 0d42
00000090: b614 0e42 08d5 0d42 c01e 0f42 9fbd 0e42
000000a0: e710 0f42 e80e 0f42 ddca 0e42 4ae7 0e42
000000b0: def2 0d42 57ad 0e42 6a36 0e42 b05e 0e42
000000c0: 16ae 0e42 5e8a 0e42 dbac 0e42 85d5 0d42
000000d0: b568 0e42 83c3 0d42 ee90 0e42 3a41 0e42
000000e0: e176 0d42 7800 0f42 425b 0e42 d712 0e42
000000f0: f167 0e42 b9cc 0d42 4c7b 0e42 f465 0e42
00000100: f647 0d42 6de7 0e42 a00c 0f42 8a9e 0e42
00000110: fc04 0e42 2140 0d42 0547 0e42 bc9f 0e42
00000120: b4ec 0e42 3f4d 0e42 c745 0e42 41a4 0d42
00000130: 0ca1 0e42 776f 0f42 cdaf 0d42 6796 0c42
00000140: ad06 0e42 e6ba 0d42 2496 0e42 0c9a 0e42
00000150: 4ea5 0c42 2ee3 0e42 379d 0e42 5d86 0d42
00000160: 6d87 0e42 0af0 0d42 38e4 0e42 ebed 0e42
00000170: 6ebf 0e42 67be 0c42 d8eb 0d42 3f3d 0d42
00000180: 8c04 0d42 7ac6 0e42 1b91 0e42 36c2 0e42
00000190: f3a8 0e42 b84b 0e42 2362 0e42 9387 0d42
000001a0: c95b 0e42 07e0 0e42 decd 0d42 9104 0f42
000001b0: a17c 0e42 f7be 0e42 d182 0d42 e2a9 0b42
000001c0: 60b5 0e42 d756 0e42 f874 0e42 eb62 0e42
000001d0: 0291 0e42 f43f 0e42 2691 0e42 8250 0f42
000001e0: 3c4f 0d42 adff 0e42 8624 0e42 7fc0 0d42
000001f0: 0d43 0e42 73bd 0e42 6fcb 0e42 4d10 0f42
00000200: 3502 0f42 70d6 0e42 9dcb 0e42 2282 0c42
00000210: a1c0 0e42 7d41 0e42 ae15 0e42 1e73 0e42
00000220: 59aa 0d42 fa80 0e42 cddc 0d42 3088 0c42
00000230: 9fce 0e42 a25b 0e42 8b97 0e42 79e2 0e42
00000240: 469b 0e42 ca55 0e42 95e9 0e42 29db 0d42
00000250: 1f1a 0e42 baf1 0e42 c521 0f42 7925 0e42
00000260: 52a9 0e42 1dc9 0c42 76f0 0d42 7099 0e42
00000270: cc47 0f42 d67a 0c42 ed9f 0e42 fcbf 0e42
00000280: 730b 0e42 6ce0 0e42 4d1b 0e42 726f 0e42
00000290: 3c17 0e42 8334 0e42 1177 0e42 7234 0d42
000002a0: 4c99 0e42 bf74 0e42 3530 0e42 98c1 0e42
000002b0: a349 0e42 02e4 0d42 c490 0e42 bf4d 0e42
000002c0: 6b7a 0e42 e09c 0d42 8877 0d42 6796 0e42
000002d0: acad 0e42 b964 0e42 fc74 0e42 4c83 0e42
000002e0: c22e 0e42 a358 0d42 bd3a 0e42 bc78 0e42
000002f0: 8c4f 0c42 9b42 0e42 7bd1 0e42 d775 0e42
00000300: ff81 0e42 05eb 0e42 3f2e 0f42 c280 0e42
00000310: 2a8d 0e42 811d 0c42 350f 0e42 b74f 0e42
00000320: 47cf 0d42 bcc6 0d42 d377 0e42 a9ac 0e42
00000330: d080 0d42 79ce 0d42 342d 0e42 284f 0e42
00000340: 8b55 0d42 a29d 0d42 77c4 0e42 0a7b 0e42
00000350: 9e72 0e42 44ed 0e42 586f 0d42 cc11 0d42
00000360: 3e3f 0e42 d0be 0e42 5270 0e42 4931 0e42
00000370: 9915 0e42 1fb2 0e42 cdd3 0e42 17c5 0d42
00000380: 69d0 0d42 6f82 0c42 57ff 0d42 417e 0e42
00000390: 61cc 0d42 2855 0e42 8c77 0e42 f557 0e42
000003a0: c034 0e42 0dcf 0e42 3605 0e42 dccc 0e42
000003b0: 1748 0f42 2d99 0e42 0672 0e42 b8a3 0e42
000003c0: 2123 0e42 535c 0e42 9c3b 0e42 c1ff 0d42
000003d0: 0178 0d42 04bc 0d42 ef34 0e42 af12 0f42
000003e0: 45ee 0d42 9c87 0e42 c039 0e42 8ab9 0e42
000003f0: 8dc1 0b42 d196 0e42 bc9f 0e42 8ed2 0d42

fc2.weight f4 [122, 256]
5.729285 5.7537336 5.690415 5.7093782 5.7275653 5.729196 5.653376 5.7494154
5.6989474 5.7260237 5.6565742 5.696633 5.7374067 5.7292767 5.7062855 5.6832523
5.7026873 5.6928377 5.647289 5.670124 5.7693777 5.7413588 5.742433 5.7568502
5.6850657 5.704306 5.656585 5.770771 5.6440444 5.736725 5.7703047 5.763667
5.7408996 5.706131 5.6778426 5.689569 5.6515837 5.6675463 5.75307 5.653483
5.757147 5.7500424 5.675413 5.734338 5.6986303 5.717763 5.6749578 5.735401
5.70831 5.7007146 5.757182 5.659318 5.688457 5.7040896 5.703789 5.6659393
5.697706 5.66207 5.7079477 5.766148 5.74245 5.6836615 5.718553 5.6567717
5.636428 5.7015557 5.763749 5.712466 5.640651 5.6528425 5.663425 5.7068458
5.7598286 5.6920867 5.63666 5.6936035 5.732265 5.6659207 5.6755395 5.651248
5.6856837 5.766604 5.698873 5.754991 5.6843343 5.7398815 5.742091 5.635296
5.766885 5.721375 5.668481 5.6644115 5.6792545 5.618092 5.66982 5.6668253
5.668292 5.675766 5.686358 5.7539372 5.6904664 5.6550255 5.730825 5.618418
5.663604 5.707534 5.6541886 5.756233 5.659311 5.655651 5.728366 5.5837717
5.7556515 5.722602 5.7141843 5.749968 5.711082 5.7103753 5.665269 5.665364
5.6499844 5.731664 5.760983 5.684084 5.721988 5.721601 5.6935115 5.665123
5.650856 5.744821 5.767095 5.719093 5.6931806 5.7219915 5.70923 5.681494
5.7341366 5.6972837 5.6692286 5.6671596 5.711366 5.760497 5.6685534 5.7468715
5.729964 5.70547 5.6700687 5.686108 5.7610164 5.6965313 5.7107167 5.668844
5.6610055 5.676287 5.737853 5.696097 5.6564817 5.655789 5.651361 5.7512193
5.6879554 5.665434 5.715155 5.669293 5.6489954 5.700295 5.686641 5.666142
5.7670236 5.762771 5.649204 5.737757 5.7561574 5.6840763 5.6392646 5.703301
5.7157917 5.6983495 5.640947 5.6637154 5.6915236 5.6688523 5.7367563 5.7312074
5.6520424 5.667379 5.6695695 5.732355 5.609411 5.708742 5.7035356 5.7491097
5.7172737 5.729673 5.6774883 5.6954994 5.6671615 5.6499596 5.6983857 5.7346954
5.641106 5.7078605 5.71217 5.7364216 5.6666293 5.7609053 5.682618 5.7025294
5.7093124 5.698779 5.701814 5.719772 5.748119 5.772701 5.633625 5.6548543
5.748853 5.765958 5.706712 5.6956306 5.748925 5.727966 5.768084 5.6657357
5.7209654 5.661319 5.726065 5.758061 5.757998 5.726589 5.745642 5.6970043
5.7247796 5.6747026 5.6648197 5.7573476 5.7152324 5.678921 5.699539 5.6500816
5.7228327 5.7551613 5.6463304 5.692518 5.6642313 5.7220774 5.7484884 5.688702
5.6730266 5.688888 5.6778145 5.7226048 5.613988 5.6479974 5.6962523 5.713252
00000000: 4d56 b740 961e b840 e117 b640 3ab3 b640
00000010: 3748 b740 9355 b740 75e8 b440 36fb b740
00000020: c75d b640 963b b740 a802 b540 d14a b640
00000030: d698 b740 3c56 b740 e499 b640 34dd b540
00000040: 6a7c b640 ba2b b640 97b6 b440 a871 b540
00000050: be9e b840 36b9 b740 03c2 b740 1e38 b840
00000060: 0fec b540 ad89 b640 bf02 b540 28aa b840
00000070: 039c b440 4093 b740 56a6 b840 f66f b840
00000080: 73b5 b740 a098 b640 e3b0 b540 f310 b640
00000090: c6d9 b440 8a5c b540 2619 b840 55e9 b440
000000a0: 8c3a b840 5900 b840 fc9c b540 b27f b740
000000b0: 2e5b b640 eaf7 b640 4199 b540 6888 b740
000000c0: 7aaa b640 416c b640 d63a b840 2219 b540
000000d0: d707 b640 e787 b640 7185 b640 604f b540
000000e0: 9c53 b640 ad2f b540 82a7 b640 4984 b840
000000f0: 27c2 b740 8ee0 b540 63fe b640 4604 b540
00000100: 9e5d b440 2573 b640 a270 b840 85cc b640
00000110: 3780 b440 16e4 b440 c73a b540 7b9e b640
00000120: 8450 b840 9325 b640 855f b440 0032 b640
00000130: b76e b740 394f b540 059e b540 06d7 b440
00000140: 1ff1 b540 0588 b840 2b5d b640 e328 b840
00000150: 11e6 b540 1cad b740 36bf b740 5854 b440
00000160: 528a b840 8115 b740 3264 b540 dc42 b540
00000170: 74bc b540 69c7 b340 2a6f b540 a256 b540
00000180: a662 b540 e09f b540 a5f6 b540 4120 b840
00000190: 4d18 b640 f8f5 b440 eb62 b740 15ca b340
000001a0: 3e3c b540 1ea4 b640 1def b440 1033 b840
000001b0: 1319 b540 18fb b440 c64e b740 42ae b240
000001c0: 4c2e b840 8e1f b740 99da b640 bdff b740
000001d0: 2fc1 b640 65bb b640 e249 b540 a94a b540
000001e0: accc b440 cb69 b740 f959 b840 04e4 b540
000001f0: 871a b740 5b17 b740 3f31 b640 b048 b540
00000200: d0d3 b440 93d5 b740 0b8c b840 cf02 b740
00000210: 892e b640 8e1a b740 03b2 b640 cdce b540
00000220: 0c7e b740 2650 b640 526a b540 5f59 b540
00000230: 83c3 b640 fe55 b840 ca64 b540 5fe6 b740
00000240: dd5b b740 3693 b640 3471 b540 99f4 b540
00000250: 3f5a b840 fc49 b640 31be b640 2c67 b540
00000260: f526 b540 25a4 b540 7e9c b740 6d46 b640
00000270: e601 b540 39fc b440 f3d7 b440 fd09 b840
00000280: bb03 b640 3c4b b540 8de2 b640 d96a b540
00000290: 92c4 b440 d168 b640 f7f8 b540 0951 b540
000002a0: 758b b840 9f68 b840 47c6 b440 b59b b740
000002b0: 7132 b840 f4e3 b540 db74 b440 7181 b640
000002c0: c4e7 b640 e158 b640 a382 b440 283d b540
000002d0: f620 b640 3d67 b540 8293 b740 0d66 b740
000002e0: 88dd b440 2b5b b540 1d6d b540 746f b740
000002f0: 4b80 b340 04ae b640 5d83 b640 b5f8 b740
00000300: e8f3 b640 7b59 b740 fcad b540 8841 b640
00000310: 6359 b540 78cc b440 2d59 b640 a082 b740
00000320: f183 b440 cba6 b640 19ca b640 c490 b740
00000330: 0755 b540 5659 b840 02d8 b540 1f7b b640
00000340: b0b2 b640 665c b640 4375 b640 5f08 b740
00000350: 97f0 b740 f7b9 b840 a846 b440 91f4 b440
00000360: 9bf6 b740 ba82 b840 629d b640 9b42 b640
00000370: 32f7 b740 7f4b b740 2594 b840 b54d b540
00000380: 2612 b740 8629 b540 ed3b b740 0942 b840
00000390: 8541 b840 3840 b740 4ddc b740 dc4d b640
000003a0: 6531 b740 2a97 b540 3446 b540 313c b840
000003b0: 2fe3 b640 b9b9 b540 a062 b640 78cd b440
000003c0: 7221 b740 482a b840 bdae b440 1c29 b640
000003d0: 6241 b540 421b b740 9ef3 b740 d909 b640
000003e0: 6f89 b540 5f0b b640 a8b0 b540 941f b740
000003f0: caa5 b340 65bc b440 b347 b640 f6d2 b640

fc2.bias f4 [122]
6.4362874 6.3524823 6.472842 6.2211404 6.076446 6.2166424 6.147908 6.2914004
6.3020735 5.4566655 4.787094 6.3597836 6.293999 6.2400846 6.2200522 6.101506
6.1635404 6.050571 5.8207126 5.961247 6.0946527 5.3273273 6.2759805 6.170967
6.1392913 6.080971 6.274835 6.0156026 4.718061 6.310319 6.2933984 5.1036215
6.0684767 6.3522077 6.2840166 5.7941976 6.1717124 5.854912 5.98208 4.3851514
6.0323997 5.942603 4.468105 6.1598425 6.235035 6.210725 5.670817 5.323349
5.7746043 6.079171 3.6803758 6.2753363 5.3025956 6.179824 6.31171 6.38053
6.188042 5.9333 6.036358 4.958403 4.1651034 2.5796812 5.5623937 4.5506682
6.184229 6.2730207 6.1795964 6.230697 3.64671 3.3803937 2.9268296 4.7143335
3.0985532 4.163442 6.065211 6.2536263 6.477799 6.140485 6.165834 6.0541496
4.9825745 5.7859106 5.898874 5.6548057 5.9859815 6.0613036 6.170438 6.3147593
5.563258 6.0319695 4.394584 5.6630526 3.977557 5.955343 6.1781545 6.0212145
6.259617 6.2967772 6.2593894 5.934193 3.2982688 6.1090665 6.060047 6.168851
6.3505507 6.269839 6.1960897 6.4721313 6.2382083 6.3098817 4.6271505 5.9179406
6.1683087 6.1645036 6.378179 6.2049093 6.1697464 6.4212646 6.537435 6.4906416
6.373319 -0.06133893
00000000: 11f6 cd40 8947 cb40 8621 cf40 9513 c740
00000010: 3f72 c240 bcee c640 aabb c440 2753 c940
00000020: 96aa c940 019d ae40 e02f 9940 5983 cb40
00000030: 7168 c940 c6ae c740 ab0a c740 8a3f c340
00000040: b93b c540 479e c140 4743 ba40 89c2 be40
00000050: 6507 c340 7779 aa40 d5d4 c840 9078 c540
00000060: 1375 c440 5097 c240 73cb c840 d17f c040
00000070: 5bfa 9640 22ee c940 8563 c940 de50 a340
00000080: f630 c240 4945 cb40 aa16 c940 116a b940
00000090: ab7e c540 705b bb40 336d bf40 2953 8c40
000000a0: 6b09 c140 ce29 be40 b7fa 8e40 6e1d c540
000000b0: 6885 c740 42be c640 5577 b540 e058 aa40
000000c0: 8fc9 b840 9288 c240 478b 6b40 8ecf c840
000000d0: ddae a940 1ec1 c540 87f9 c940 4d2d cc40
000000e0: 7104 c640 98dd bd40 d829 c140 3dab 9e40
000000f0: 8748 8540 7f19 2540 21ff b140 139f 9140
00000100: 34e5 c540 96bc c840 41bf c540 df61 c740
00000110: b263 6940 5f58 5840 2d51 3b40 d2db 9640
00000120: b24e 4640 eb3a 8540 3516 c240 b51d c840
00000130: 214a cf40 da7e c440 834e c540 98bb c140
00000140: 4071 9f40 2e26 b940 93c3 bc40 2bf4 b440
00000150: 298d bf40 33f6 c140 3a74 c540 8212 ca40
00000160: 3606 b240 e505 c140 6fa0 8c40 ba37 b540
00000170: 4b90 7e40 2b92 be40 71b3 c540 caad c040
00000180: c84e c840 337f c940 eb4c c840 e9e4 bd40
00000190: d616 5340 797d c340 e8eb c140 3a67 c540
000001a0: b637 cb40 85a2 c840 5e46 c640 b31b cf40
000001b0: 679f c740 8dea c940 9e11 9440 c55f bd40
000001c0: c962 c540 9d43 c540 0b1a cc40 9e8e c640
000001d0: 906e c540 007b cd40 ab32 d140 56b3 cf40
000001e0: 3bf2 cb40 883e 7bbd
