g13agent.pt (torch, 505868 bytes, 8 tensors)

fc1.weight f4 [256, 122]
3.8343253 3.5362413 4.0705037 3.3250499 3.2158468 3.1419892 3.6710129 3.6813295
3.9368834 3.223433 3.2949088 3.4055412 3.3611197 3.533199 3.9580693 3.2265792
3.2953503 3.2418025 3.122241 3.3711865 3.1172724 3.2772393 3.3684537 3.6653342
3.440715 3.3404577 3.1647522 3.2760098 3.2186892 3.5864565 3.4995832 3.1558018
3.0654097 3.8032641 3.8733819 3.3181515 3.2364187 3.330197 3.1069949 3.3032749
3.1605837 3.1308556 3.212326 3.4596167 3.2624137 3.306252 3.1768727 3.171704
3.197404 3.1591237 3.0726552 3.288285 3.208072 3.1140916 3.549222 3.6711938
3.4613674 3.2346456 3.549738 3.095808 3.185615 3.3756835 3.261136 3.0799098
3.263399 3.3508332 3.9456284 3.4483662 3.1364138 3.1360037 3.0206084 3.1309574
3.1564398 3.262025 3.32816 3.4846625 3.8175626 3.530053 3.5960085 3.3397164
3.299915 3.2425592 3.2365758 3.2373078 3.2652252 3.1350243 3.2253187 3.8284154
3.1640806 3.1510224 3.2505813 3.0869813 3.0993164 3.2207608 3.2638597 3.2146757
3.2624133 3.387005 3.6196368 3.1066837 2.9914646 3.2576544 3.1029785 3.502049
3.3170803 3.2368448 3.7967138 3.69385 3.2716072 3.2860386 3.1531818 3.307496
3.3317673 3.2337487 4.0594897 3.4183257 3.1816118 3.8391922 3.7393394 4.03744
3.7733905 -0.0040380433 3.8839726 3.573968 4.0819225 3.273244 3.3156161 3.1777284
3.6610665 3.6537774 3.9604192 3.0919394 3.3377142 3.305454 3.278333 3.4817114
3.9833841 3.1884809 3.3414612 3.1733022 3.1305668 3.4408705 3.2313738 3.3617897
3.4118838 3.640642 3.309112 3.4512775 3.148831 3.2094128 3.1654205 3.6318521
3.5254147 3.144996 3.2089407 3.8880057 3.7558815 3.262027 3.2135072 3.1479604
3.0705783 3.2752037 3.0291052 3.1402633 3.1667895 3.342607 3.2403574 3.2509573
3.1565356 3.1065688 3.2856238 3.160803 3.0858037 3.2795126 3.339359 3.1194508
3.6654 3.7491782 3.39474 3.1666439 3.4071012 3.077906 3.2212818 3.3192585
3.2997584 3.0469782 3.3041768 3.3041477 4.0271277 3.3864133 3.09578 3.2284873
3.1083453 3.1107168 3.0493774 3.1299875 3.3971517 3.446443 3.8815637 3.468333
3.564487 3.2166984 3.2735763 3.2077603 3.2370005 3.2268891 3.252427 3.2136004
3.2406237 3.8022854 3.1366563 3.1618776 3.0985234 3.1492124 3.1737442 3.3432996
3.3293588 3.2520409 3.3004973 3.4450195 3.5412536 3.1402662 3.001634 3.0904713
3.1550133 3.6412742 3.3298502 3.2763352 3.8034956 3.7888765 3.4316032 3.2095485
3.1133778 3.1994722 3.2447388 3.234679 4.0968986 3.389786 3.30758 3.7393832
3.6846766 4.086729 3.802256 0.06786871 3.7850769 3.505016 4.085388 3.2765315
3.2523308 3.1782458 3.70977 3.55573 3.897852 3.0846891 3.2753098 3.3028982
00000000: 9665 7540 c751 6240 9141 8240 9ecd 5440
00000010: 6fd0 4d40 5a16 4940 e0f1 6a40 e79a 6b40
00000020: e6f5 7b40 ba4c 4e40 c9df 5240 63f4 5940
00000030: 961c 5740 ef1f 6240 0251 7d40 4680 4e40
00000040: 05e7 5240 b179 4f40 ccd2 4740 85c1 5740
00000050: 6481 4740 4abe 5140 bf94 5740 d694 6a40
00000060: ad34 5c40 0fca 5540 4d8b 4a40 25aa 5140
00000070: 01ff 4d40 8188 6540 2cf9 5f40 a8f8 4940
00000080: ac2f 4440 ae68 7340 7de5 7740 985c 5440
00000090: 7c21 4f40 f321 5540 01d9 4640 db68 5340
000000a0: 0147 4a40 f05f 4840 c096 4d40 5c6a 5d40
000000b0: 63cb 5040 a299 5340 e251 4b40 33fd 4a40
000000c0: 44a2 4c40 152f 4a40 62a6 4440 4373 5240
000000d0: 0d51 4d40 474d 4740 7426 6340 d7f4 6a40
000000e0: 0b87 5d40 6f04 4f40 e82e 6340 b821 4640
000000f0: 1ee1 4b40 330b 5840 74b6 5040 3e1d 4540
00000100: 87db 5040 0d74 5640 2d85 7c40 08b2 5c40
00000110: 01bb 4840 49b4 4840 a651 4140 9b61 4840
00000120: 1c03 4a40 05c5 5040 9300 5540 b604 5f40
00000130: f252 7440 63ec 6140 0125 6640 eabd 5540
00000140: cf31 5340 1786 4f40 0f24 4f40 0d30 4f40
00000150: 73f9 5040 3da4 4840 9f6b 4e40 c204 7540
00000160: 4c80 4a40 5aaa 4940 8609 5040 1a91 4540
00000170: 335b 4640 f220 4e40 14e3 5040 3fbd 4d40
00000180: 61cb 5040 b1c4 5840 21a8 6740 e8d3 4640
00000190: 2874 3f40 697d 5040 3397 4640 9221 6040
000001a0: 0b4b 5440 7728 4f40 5cfd 7240 0a68 6c40
000001b0: 0362 5140 754e 5240 bbcd 4940 04ae 5340
000001c0: ad3b 5540 bdf5 4e40 57e7 8140 d9c5 5a40
000001d0: 879f 4b40 53b5 7540 5651 6f40 b532 8140
000001e0: 3b7f 7140 9051 84bb 0293 7840 e4bb 6440
000001f0: 1c9f 8240 d47c 5140 0e33 5440 e75f 4b40
00000200: ea4e 6a40 7dd7 6940 8277 7d40 56e2 4540
00000210: 1c9d 5540 8f8c 5340 35d0 5140 5cd4 5e40
00000220: c4ef 7e40 1210 4c40 80da 5540 6217 4b40
00000230: 355b 4840 3937 5c40 d4ce 4e40 9027 5740
00000240: 4e5c 5a40 4700 6940 7ec8 5340 bbe1 5c40
00000250: 7286 4940 0567 4d40 4096 4a40 4470 6840
00000260: 65a0 6140 9d47 4940 495f 4d40 16d5 7840
00000270: 5d60 7040 0dc5 5040 1aaa 4d40 2f78 4940
00000280: 5b84 4440 f09c 5140 dcdc 4140 13fa 4840
00000290: aeac 4a40 46ed 5540 0462 4f40 af0f 5040
000002a0: ae04 4a40 06d2 4640 a947 5240 994a 4a40
000002b0: cf7d 4540 89e3 5140 0fb8 5540 15a5 4740
000002c0: ea95 6a40 89f2 6f40 6c43 5940 4baa 4a40
000002d0: f20d 5a40 69fc 4440 7b29 4e40 bb6e 5440
000002e0: 3e2f 5340 b101 4340 a277 5340 2877 5340
000002f0: 3bde 8040 ffba 5840 4221 4640 899f 4e40
00000300: 21ef 4640 fc15 4740 0029 4340 b751 4840
00000310: ef6a 5940 8692 5c40 8a6b 7840 2bf9 5d40
00000320: 8e20 6440 63de 4d40 4682 5140 f24b 4d40
00000330: 042b 4f40 5a85 4e40 c427 5040 a1ab 4d40
00000340: 6166 4f40 a558 7340 fabe 4840 345c 4a40
00000350: 354e 4640 b28c 4940 a01e 4b40 9ff8 5540
00000360: 3714 5540 7021 5040 593b 5340 337b 5c40
00000370: e6a3 6240 1ffa 4840 c51a 4040 48ca 4540
00000380: bdeb 4940 a30a 6940 441c 5540 7aaf 5140
00000390: 796c 7340 f47c 7240 639f 5b40 3e69 4d40
000003a0: 9541 4740 27c4 4c40 cda9 4f40 fb04 4f40
000003b0: cb19 8340 41f2 5840 64af 5340 0e52 6f40
000003c0: bed1 6b40 7cc6 8240 2a58 7340 c0fe 8a3d
000003d0: b33e 7240 2f52 6040 80bb 8240 b1b2 5140
000003e0: 3026 5040 6168 4b40 df6c 6d40 1591 6340
000003f0: 6876 7940 8c6b 4540 ad9e 5140 af62 5340

fc1.bias f4 [256]
5.735241 5.809735 5.726884 5.518003 5.867687 5.5971937 5.8209367 5.7760377
5.75145 5.8055882 5.516229 5.555484 5.873041 5.7879 5.876921 5.7619634
5.7662935 5.9107246 5.7942195 5.7879286 5.912759 5.6862392 5.8292737 5.6870356
5.768387 5.7862606 5.8731556 5.876462 5.6145577 5.701643 5.880466 5.9008465
5.873086 5.8589764 5.67796 5.70935 5.742783 5.617488 5.9407606 5.855918
5.901388 5.9531603 5.8763285 5.9051933 5.7150006 5.8937244 5.7686276 5.8172264
5.8907347 5.9021626 5.8477125 5.603747 5.834163 5.637553 5.868952 5.7878404
5.5291295 5.912333 5.8093796 5.698151 5.8027735 5.6951833 5.8242087 5.8104634
5.4806137 5.9504066 5.967727 5.8665657 5.704146 5.508388 5.747579 5.8887
5.903899 5.8160915 5.7574644 5.6120524 5.7945623 6.038106 5.601361 5.3998804
5.7076645 5.692582 5.8542128 5.8503933 5.309445 5.9051332 5.839438 5.566693
5.8311977 5.697491 5.9614515 5.9239545 5.9062576 5.332932 5.6918135 5.520222
5.4212284 5.891568 5.855916 5.95443 5.8921747 5.7350883 5.791925 5.540855
5.8168936 5.9432964 5.6059365 5.944627 5.824327 5.8769417 5.526176 5.106809
5.920491 5.802806 5.825414 5.757356 5.8032765 5.784507 5.8324413 5.9595904
5.55357 5.9302673 5.755754 5.642191 5.7804227 5.894458 5.9107075 5.930648
5.957923 5.874108 5.8724966 5.307284 5.914322 5.722116 5.679585 5.741303
5.6546345 5.82372 5.6779513 5.3479366 5.80651 5.824964 5.8049054 5.8552904
5.8675294 5.8470507 5.8617673 5.7223244 5.757882 5.912092 5.955089 5.768629
5.8293986 5.3711777 5.7560067 5.866813 5.9816732 5.3320575 5.8469324 5.888138
5.7367043 5.8716273 5.77733 5.866828 5.7700744 5.71405 5.826776 5.5732527
5.824925 5.861738 5.8034635 5.9048986 5.72208 5.691679 5.7646003 5.8392572
5.8401103 5.584388 5.669278 5.8894057 5.8504953 5.845136 5.764324 5.832648
5.708437 5.543321 5.7366095 5.803955 5.1623816 5.786315 5.90247 5.8522167
5.8231964 5.9512873 5.980843 5.8228846 5.79301 5.165116 5.758061 5.7509956
5.605762 5.7237406 5.8216276 5.8177176 5.5819945 5.601851 5.809198 5.790775
5.482799 5.6052237 5.898326 5.8219614 5.821558 5.902865 5.5776205 5.4344053
5.803543 5.863117 5.777221 5.744266 5.71635 5.8418903 5.8901334 5.6099377
5.6565223 5.3164053 5.695464 5.8408017 5.660152 5.730902 5.768181 5.829118
5.71711 5.9141674 5.761499 5.888729 5.970061 5.8381696 5.863082 5.862188
5.763059 5.809146 5.699826 5.6830006 5.5738945 5.5966573 5.748517 5.9418697
5.678704 5.8253665 5.744426 5.8615046 5.0479183 5.8463964 5.875229 5.6534233
00000000: 1887 b740 59e9 b940 a242 b740 7b93 b040
00000010: 18c4 bb40 361c b340 1d45 ba40 4dd5 b840
00000020: e10b b840 61c7 b940 f384 b040 86c6 b140
00000030: f4ef bb40 7a36 b940 bd0f bc40 0162 b840
00000040: 7a85 b840 a824 bd40 3f6a b940 b636 b940
00000050: 5235 bd40 acf5 b540 6989 ba40 32fc b540
00000060: a096 b840 0c29 b940 e4f0 bb40 fa0b bc40
00000070: 75aa b340 dc73 b640 c72c bc40 bcd3 bc40
00000080: 52f0 bb40 bc7c bb40 d9b1 b540 ffb2 b640
00000090: e1c4 b740 76c2 b340 b61a be40 ae63 bb40
000000a0: 2cd8 bc40 4a80 be40 e20a bc40 58f7 bc40
000000b0: 49e1 b640 6499 bc40 9998 b840 b826 ba40
000000c0: e680 bc40 84de bc40 7620 bb40 e551 b340
000000d0: 77b1 ba40 d666 b440 74ce bb40 fd35 b940
000000e0: a1ee b040 d531 bd40 70e6 b940 4157 b640
000000f0: 52b0 b940 f13e b640 eb5f ba40 51ef b940
00000100: 3061 af40 bb69 be40 9ff7 be40 e8ba bb40
00000110: 5d88 b640 b744 b040 2bec b740 3b70 bc40
00000120: beec bc40 6c1d ba40 263d b840 ef95 b340
00000130: 0e6d b940 2a38 c140 593e b340 d2cb ac40
00000140: 30a5 b640 a229 b640 b655 bb40 6c36 bb40
00000150: f9e6 a940 daf6 bc40 addc ba40 5922 b240
00000160: 2c99 ba40 d951 b640 36c4 be40 0991 bd40
00000170: 1000 bd40 61a7 aa40 5623 b640 a9a5 b040
00000180: b47a ad40 ba87 bc40 aa63 bb40 b18a be40
00000190: b28c bc40 d885 b740 7357 b940 af4e b140
000001a0: fe23 ba40 7c2f be40 d563 b340 623a be40
000001b0: e360 ba40 e80f bc40 6fd6 b040 fb6a a340
000001c0: aa74 bd40 96b0 b940 cb69 ba40 433c b840
000001d0: 71b4 b940 ae1a b940 5ca3 ba40 f7b4 be40
000001e0: d8b6 b140 c0c4 bd40 232f b840 d48c b440
000001f0: 39f9 b840 669f bc40 8424 bd40 dec7 bd40
00000200: 4ea7 be40 b1f8 bb40 7eeb bb40 45d5 a940
00000210: 2042 bd40 931b b740 29bf b540 c1b8 b740
00000220: c4f2 b440 ea5b ba40 c7b1 b540 4c22 ab40
00000230: eece b940 1b66 ba40 c9c1 b940 8a5e bb40
00000240: cdc2 bb40 0a1b bb40 9993 bb40 481d b740
00000250: 9240 b840 dc2f bd40 1790 be40 9c98 b840
00000260: 6f8a ba40 b0e0 ab40 3531 b840 efbc bb40
00000270: de69 bf40 37a0 aa40 121a bb40 a06b bc40
00000280: 1593 b740 5fe4 bb40 e3df b840 0ebd bb40
00000290: 73a4 b840 7fd9 b640 f374 ba40 1658 b240
000002a0: c965 ba40 5c93 bb40 f9b5 b940 eef4 bc40
000002b0: 481b b740 3c22 b640 9b77 b840 32db ba40
000002c0: 2fe2 ba40 4eb3 b240 ba6a b540 0376 bc40
000002d0: 4237 bb40 5b0b bb40 5875 b840 0da5 ba40
000002e0: 84ab b640 e362 b140 4e92 b740 00ba b940
000002f0: 3b32 a540 7e29 b940 09e1 bc40 5c45 bb40
00000300: a057 ba40 f270 be40 1163 bf40 1255 ba40
00000310: 5760 b940 a148 a540 0942 b840 2808 b840
00000320: 6762 b340 e228 b740 c64a ba40 be2a ba40
00000330: b39f b240 5d42 b340 f3e4 b940 074e b940
00000340: 1773 af40 fe5d b340 16bf bc40 824d ba40
00000350: 344a ba40 45e4 bc40 de7b b240 a6e6 ad40
00000360: a0b6 b940 a89e bb40 ffde b840 07d1 b740
00000370: 57ec b640 c4f0 ba40 f97b bc40 9c84 b340
00000380: 3b02 b540 fe1f aa40 3e41 b640 d9e7 ba40
00000390: f71f b540 8d63 b740 f094 b840 2288 ba40
000003a0: 91f2 b640 dc40 bd40 335e b840 7870 bc40
000003b0: bd0a bf40 49d2 ba40 5e9e bb40 0b97 bb40
000003c0: fb6a b840 86e4 b940 f964 b640 24db b540
000003d0: 585d b240 d117 b340 daf3 b740 cc23 be40
000003e0: f1b7 b540 6769 ba40 56d2 b740 7291 bb40
000003f0: 8c88 a140 ae15 bb40 e001 bc40 d8e8 b440

fc2.weight f4 [122, 256]
0.8731322 0.8972472 0.83390176 0.8528885 0.87130636 0.87219363 0.79673207 0.892727
0.8426511 0.86955863 0.79996854 0.84001976 0.88087994 0.87309134 0.84954756 0.8265673
0.8460869 0.8363782 0.79070634 0.8140315 0.9130075 0.8843763 0.8862226 0.90020335
0.8285192 0.8479848 0.79975224 0.91427505 0.78777504 0.8802531 0.913904 0.9071117
0.8841996 0.84941775 0.8213276 0.8332047 0.79506123 0.81046677 0.89658636 0.79714084
0.9005494 0.8938319 0.8191267 0.87770975 0.84205323 0.8611384 0.81838256 0.878835
0.8522615 0.84417367 0.9005474 0.80209297 0.83173263 0.84751403 0.8471878 0.80968964
0.84097904 0.80543756 0.8516153 0.9096298 0.8860673 0.8272588 0.8624826 0.7998492
0.7794578 0.8450674 0.90729487 0.8559081 0.783494 0.7964077 0.8067423 0.85040104
0.9031477 0.835375 0.77988845 0.837328 0.8756713 0.8093997 0.8190448 0.79443055
0.82943845 0.9104781 0.8421547 0.89865476 0.82698387 0.88341486 0.8855546 0.7786966
0.910397 0.86474055 0.8116834 0.80775374 0.82256037 0.76065844 0.81347406 0.8103402
0.8113236 0.8194215 0.8297544 0.897138 0.8337511 0.79865706 0.8745056 0.76135606
0.8071975 0.850986 0.79722285 0.89954585 0.80318415 0.7990696 0.871678 0.72650045
0.899085 0.8658145 0.85813963 0.89325905 0.854762 0.8541922 0.80877304 0.808746
0.79317683 0.8751185 0.9044152 0.8276945 0.8650795 0.8647716 0.83687174 0.80880576
0.7942412 0.8887149 0.9106588 0.86228126 0.8369602 0.8656508 0.8526271 0.82497054
0.8777786 0.840459 0.81303054 0.8104373 0.85520613 0.90412277 0.81173253 0.89038324
0.8737777 0.848867 0.81355715 0.8299739 0.9042621 0.8398582 0.8542773 0.81272393
0.80464375 0.81935203 0.8817864 0.8394679 0.79977334 0.79895514 0.7948696 0.8945185
0.8314242 0.80909085 0.858354 0.8126494 0.79281205 0.84401155 0.830048 0.8092487
0.9109506 0.9065307 0.7924343 0.8812961 0.89949363 0.8278597 0.7821309 0.84690213
0.8595032 0.8420259 0.7839818 0.80702674 0.83509004 0.8125974 0.8803044 0.874816
0.7955167 0.81060475 0.813086 0.87585115 0.75199914 0.8525497 0.8470933 0.89277774
0.8606931 0.8731256 0.8207495 0.83893675 0.8105741 0.79245204 0.84175617 0.87847817
0.7847156 0.8516121 0.8557838 0.88026893 0.8099167 0.90456486 0.8258052 0.8459813
0.8522001 0.8423534 0.845203 0.8637961 0.8918846 0.9160449 0.7765982 0.79755235
0.8922194 0.90973496 0.85043305 0.8390337 0.8924954 0.87107587 0.9113996 0.80943483
0.86470383 0.8041445 0.8692749 0.9014894 0.90153974 0.8704322 0.8888597 0.8405344
0.8681006 0.81831753 0.80856407 0.90084386 0.8586291 0.8223108 0.84301734 0.7936436
0.8664471 0.89867073 0.789941 0.83571094 0.80734277 0.8657166 0.89225143 0.83222526
0.81653726 0.83237225 0.82107526 0.8661927 0.756817 0.7917704 0.8396265 0.856864
00000000: 9885 5f3f feb1 653f 967a 553f e756 5a3f
00000010: ef0d 5f3f 1548 5f3f a2f6 4b3f c289 643f
00000020: fcb7 573f 659b 5e3f bdca 4c3f 890b 573f
00000030: 5981 613f ea82 5f3f f37b 593f ea99 533f
00000040: 2799 583f e21c 563f bb6b 4a3f 5e64 503f
00000050: dcba 693f 7c66 623f 7cdf 623f ba73 663f
00000060: d619 543f 8815 593f 90bc 4c3f ee0d 6a3f
00000070: a0ab 493f 4458 613f 9df5 693f 7938 683f
00000080: e85a 623f 7173 593f 8742 523f e74c 553f
00000090: 2289 4b3f c07a 4f3f af86 653f 6c11 4c3f
000000a0: 688a 663f 2bd2 643f 4ab2 513f 96b1 603f
000000b0: cd90 573f 9173 5c3f 8581 513f 55fb 603f
000000c0: cf2d 5a3f c41b 583f 468a 663f f755 4d3f
000000d0: 6eec 543f aef6 583f 4de1 583f d247 4f3f
000000e0: 674a 573f 2831 4e3f 7603 5a3f 80dd 683f
000000f0: 4ed5 623f 3cc7 533f a9cb 5c3f ebc2 4c3f
00000100: 8c8a 473f 5656 583f 7a44 683f cb1c 5b3f
00000110: 1093 483f 60e1 4b3f aa86 4e3f e2b3 593f
00000120: b034 673f 23db 553f c5a6 473f 215b 563f
00000130: ff2b 603f d234 4f3f ecac 513f cd5f 4b3f
00000140: 1456 543f 1815 693f 7397 573f 3d0e 663f
00000150: 37b5 533f 7a27 623f b5b3 623f a958 473f
00000160: c70f 693f a35f 5d3f 7cca 4f3f f3c8 4e3f
00000170: 5193 523f 83ba 423f d63f 503f 7572 4f3f
00000180: e7b2 4f3f 9cc5 513f c96a 543f d6aa 653f
00000190: b670 553f ca74 4c3f 99df 5f3f 3be8 423f
000001a0: 7fa4 4e3f 38da 593f cc16 4c3f a348 663f
000001b0: 7a9d 4d3f d38f 4c3f 4a26 5f3f effb 393f
000001c0: 6f2a 663f 05a6 5d3f 0aaf 5b3f a0ac 643f
000001d0: afd1 5a3f 57ac 5a3f c00b 4f3f fa09 4f3f
000001e0: a30d 4b3f c407 603f c187 673f c9e3 533f
000001f0: da75 5d3f ac61 5d3f 3a3d 563f e50d 4f3f
00000200: 6453 4b3f d282 633f ef20 693f 77be 5c3f
00000210: 0643 563f 4a9b 5d3f c545 5a3f 4531 533f
00000220: 19b6 603f 5228 573f c522 503f d278 4f3f
00000230: caee 5a3f 9774 673f b4cd 4f3f 28f0 633f
00000240: e5af 5f3f 594f 593f 4845 503f 2b79 543f
00000250: b97d 673f f200 573f ebb1 5a3f ad0e 503f
00000260: 22fd 4d3f 0ec1 513f c1bc 613f 5ee7 563f
00000270: f2bd 4c3f 5388 4c3f 937c 4b3f 2aff 643f
00000280: 37d8 543f 9420 4f3f 16bd 5b3f cb09 503f
00000290: bbf5 4a3f 2411 583f 077e 543f ec2a 4f3f
000002a0: 0f34 693f 6512 683f f9dc 4a3f 9f9c 613f
000002b0: 3745 663f 9dee 533f bb39 483f 94ce 583f
000002c0: 6708 5c3f 028f 573f 08b3 483f 4e99 4e3f
000002d0: 76c8 553f 6206 503f a15b 613f f1f3 5f3f
000002e0: fca6 4b3f cb83 4f3f 6726 503f c837 603f
000002f0: 0483 403f b240 5a3f 1bdb 583f 158d 643f
00000300: 6256 5c3f 2985 5f3f a41c 523f 8fc4 563f
00000310: c981 4f3f 23de 4a3f 557d 573f f2e3 603f
00000320: 1fe3 483f 4003 5a3f a614 5b3f 4e59 613f
00000330: b356 4f3f 9091 673f f867 533f 3b92 583f
00000340: c929 5a3f 79a4 573f 395f 583f be21 5d3f
00000350: 8d52 643f eb81 6a3f 24cf 463f 642c 4c3f
00000360: 7e68 643f 64e4 683f fbb5 593f eaca 563f
00000370: 947a 643f d4fe 5e3f 7c51 693f 1f37 4f3f
00000380: 3b5d 5d3f 6adc 4d3f cd88 5e3f 02c8 663f
00000390: 4fcb 663f a5d4 5e3f 4f8c 633f 432d 573f
000003a0: d73b 5e3f 427d 513f 0efe 4e3f b49d 663f
000003b0: 1ecf 5b3f f682 523f fccf 573f 3a2c 4b3f
000003c0: 7acf 5d3f 490f 663f 9339 4a3f 27f1 553f
000003d0: 04ae 4e3f 9a9f 5d3f 976a 643f b70c 553f
000003e0: 9608 513f 5916 553f fd31 523f cebe 5d3f
000003f0: c2be 413f 77b1 4a3f c3f1 563f 705b 5b3f

fc2.bias f4 [122]
0.98777765 1.0069852 1.125319 0.8781206 0.9055168 0.8980107 0.9960544 0.9485332
0.990379 0.84151566 0.7829059 0.9971914 1.0124354 0.91113687 1.0329008 0.914747
0.91017276 0.86252826 0.8560333 0.8524208 0.89557576 0.85908747 0.9566977 0.8589657
0.9180038 0.8096092 0.91914517 0.8952774 0.79174376 1.0374799 1.0182949 0.83623487
0.81549436 1.0361195 0.9632817 0.82158655 0.8888694 0.86411715 0.77253306 0.9331344
0.89368355 0.7731309 0.78773767 0.98244536 0.9584448 0.92266774 0.7848126 0.80019784
0.8493127 0.84430856 0.79176366 0.9079178 0.8840488 0.8318903 0.97311705 1.0725855
0.8809372 0.8569299 0.9624963 0.7628054 0.80916864 0.8204428 0.8532121 0.7837078
0.9034025 0.8859505 1.0010283 0.9625553 0.7827555 0.7863509 0.74749094 0.80404776
0.7359438 0.8086145 0.83440995 0.86529726 1.0352635 0.847898 0.917047 0.85489017
0.76928765 0.808796 0.8179155 0.7926384 0.8601887 0.81719285 0.87354547 0.99108934
0.8456645 0.88643897 0.8497639 0.81341255 0.75792736 0.78389716 0.89443856 0.8230255
0.9497527 0.96125144 0.9423714 0.81389076 0.77713 0.8781164 0.86994666 0.9617163
0.9700162 0.95433444 0.9252669 1.064826 0.96893924 0.94012576 0.81247014 0.8458361
0.84116894 0.96470356 1.031497 0.9511678 0.94230473 1.0263246 1.0162089 1.0969361
1.0004897 -0.06133893
00000000: ffde 7c3f e4e4 803f 740a 903f 83cc 603f
00000010: f3cf 673f 07e4 653f 6cfd 7e3f 12d3 723f
00000020: 7a89 7d3f 926d 573f 856c 483f f047 7f3f
00000030: 7c97 813f 4440 693f 1836 843f dc2c 6a3f
00000040: 1501 693f a7ce 5c3f 0025 5b3f 4038 5a3f
00000050: 7444 653f 28ed 5b3f 24ea 743f 2de5 5b3f
00000060: 4c02 6b3f 8c42 4f3f 194d 6b3f e630 653f
00000070: b8af 4a3f 24cc 843f 7d57 823f 7d13 563f
00000080: 3dc4 503f 909f 843f a199 763f 7f53 523f
00000090: f28c 633f c836 5d3f bac4 453f e5e1 6e3f
000000a0: 72c8 643f e8eb 453f 2da9 493f 8a81 7b3f
000000b0: a35c 753f f433 6c3f 7be9 483f c4d9 4c3f
000000c0: 8f6c 593f 9b24 583f 06b1 4a3f 4d6d 683f
000000d0: 0651 623f c3f6 543f 331e 793f 7b4a 893f
000000e0: 1a85 613f c25f 5b3f 2866 763f 3747 433f
000000f0: ad25 4f3f 8a08 523f 1c6c 5a3f 13a1 483f
00000100: 6345 673f a7cd 623f b221 803f 066a 763f
00000110: aa62 483f 4b4e 493f 915b 3f3f 13d6 4d3f
00000120: d066 3c3f 5c01 4f3f e49b 553f 1f84 5d3f
00000130: 8483 843f d80f 593f 98c3 6a3f 15da 5a3f
00000140: 09f0 443f 410d 4f3f e962 513f 5aea 4a3f
00000150: 5435 5c3f 8d33 513f ada0 5f3f 08b8 7d3f
00000160: 787d 583f aaed 623f 208a 593f ce3b 503f
00000170: 8707 423f 7cad 483f edf9 643f cdb1 523f
00000180: fe22 733f 9314 763f 413f 713f 255b 503f
00000190: fef1 463f 3dcc 603f d3b4 5e3f 0a33 763f
000001a0: fb52 783f 434f 743f 4bde 6c3f 384c 883f
000001b0: 670c 783f 15ac 703f 0bfe 4f3f b788 583f
000001c0: d956 573f d0f6 763f 1808 843f bc7f 733f
000001d0: e23a 713f 9b5e 833f 2213 823f 6768 8c3f
000001e0: 0c10 803f 883e 7bbd

fc1.weight f4 [256, 122]
3.8343253 3.5362413 4.0705037 3.3250499 3.2158468 3.1419892 3.6710129 3.6813295
3.9368834 3.223433 3.2949088 3.4055412 3.3611197 3.533199 3.9580693 3.2265792
3.2953503 3.2418025 3.122241 3.3711865 3.1172724 3.2772393 3.3684537 3.6653342
3.440715 3.3404577 3.1647522 3.2760098 3.2186892 3.5864565 3.4995832 3.1558018
3.0654097 3.8032641 3.8733819 3.3181515 3.2364187 3.330197 3.1069949 3.3032749
3.1605837 3.1308556 3.212326 3.4596167 3.2624137 3.306252 3.1768727 3.171704
3.197404 3.1591237 3.0726552 3.288285 3.208072 3.1140916 3.549222 3.6711938
3.4613674 3.2346456 3.549738 3.095808 3.185615 3.3756835 3.261136 3.0799098
3.263399 3.3508332 3.9456284 3.4483662 3.1364138 3.1360037 3.0206084 3.1309574
3.1564398 3.262025 3.32816 3.4846625 3.8175626 3.530053 3.5960085 3.3397164
3.299915 3.2425592 3.2365758 3.2373078 3.2652252 3.1350243 3.2253187 3.8284154
3.1640806 3.1510224 3.2505813 3.0869813 3.0993164 3.2207608 3.2638597 3.2146757
3.2624133 3.387005 3.6196368 3.1066837 2.9914646 3.2576544 3.1029785 3.502049
3.3170803 3.2368448 3.7967138 3.69385 3.2716072 3.2860386 3.1531818 3.307496
3.3317673 3.2337487 4.0594897 3.4183257 3.1816118 3.8391922 3.7393394 4.03744
3.7733905 -0.0040380433 3.8839726 3.573968 4.0819225 3.273244 3.3156161 3.1777284
3.6610665 3.6537774 3.9604192 3.0919394 3.3377142 3.305454 3.278333 3.4817114
3.9833841 3.1884809 3.3414612 3.1733022 3.1305668 3.4408705 3.2313738 3.3617897
3.4118838 3.640642 3.309112 3.4512775 3.148831 3.2094128 3.1654205 3.6318521
3.5254147 3.144996 3.2089407 3.8880057 3.7558815 3.262027 3.2135072 3.1479604
3.0705783 3.2752037 3.0291052 3.1402633 3.1667895 3.342607 3.2403574 3.2509573
3.1565356 3.1065688 3.2856238 3.160803 3.0858037 3.2795126 3.339359 3.1194508
3.6654 3.7491782 3.39474 3.1666439 3.4071012 3.077906 3.2212818 3.3192585
3.2997584 3.0469782 3.3041768 3.3041477 4.0271277 3.3864133 3.09578 3.2284873
3.1083453 3.1107168 3.0493774 3.1299875 3.3971517 3.446443 3.8815637 3.468333
3.564487 3.2166984 3.2735763 3.2077603 3.2370005 3.2268891 3.252427 3.2136004
3.2406237 3.8022854 3.1366563 3.1618776 3.0985234 3.1492124 3.1737442 3.3432996
3.3293588 3.2520409 3.3004973 3.4450195 3.5412536 3.1402662 3.001634 3.0904713
3.1550133 3.6412742 3.3298502 3.2763352 3.8034956 3.7888765 3.4316032 3.2095485
3.1133778 3.1994722 3.2447388 3.234679 4.0968986 3.389786 3.30758 3.7393832
3.6846766 4.086729 3.802256 0.06786871 3.7850769 3.505016 4.085388 3.2765315
3.2523308 3.1782458 3.70977 3.55573 3.897852 3.0846891 3.2753098 3.3028982
00000000: 9665 7540 c751 6240 9141 8240 9ecd 5440
00000010: 6fd0 4d40 5a16 4940 e0f1 6a40 e79a 6b40
00000020: e6f5 7b40 ba4c 4e40 c9df 5240 63f4 5940
00000030: 961c 5740 ef1f 6240 0251 7d40 4680 4e40
00000040: 05e7 5240 b179 4f40 ccd2 4740 85c1 5740
00000050: 6481 4740 4abe 5140 bf94 5740 d694 6a40
00000060: ad34 5c40 0fca 5540 4d8b 4a40 25aa 5140
00000070: 01ff 4d40 8188 6540 2cf9 5f40 a8f8 4940
00000080: ac2f 4440 ae68 7340 7de5 7740 985c 5440
00000090: 7c21 4f40 f321 5540 01d9 4640 db68 5340
000000a0: 0147 4a40 f05f 4840 c096 4d40 5c6a 5d40
000000b0: 63cb 5040 a299 5340 e251 4b40 33fd 4a40
000000c0: 44a2 4c40 152f 4a40 62a6 4440 4373 5240
000000d0: 0d51 4d40 474d 4740 7426 6340 d7f4 6a40
000000e0: 0b87 5d40 6f04 4f40 e82e 6340 b821 4640
000000f0: 1ee1 4b40 330b 5840 74b6 5040 3e1d 4540
00000100: 87db 5040 0d74 5640 2d85 7c40 08b2 5c40
00000110: 01bb 4840 49b4 4840 a651 4140 9b61 4840
00000120: 1c03 4a40 05c5 5040 9300 5540 b604 5f40
00000130: f252 7440 63ec 6140 0125 6640 eabd 5540
00000140: cf31 5340 1786 4f40 0f24 4f40 0d30 4f40
00000150: 73f9 5040 3da4 4840 9f6b 4e40 c204 7540
00000160: 4c80 4a40 5aaa 4940 8609 5040 1a91 4540
00000170: 335b 4640 f220 4e40 14e3 5040 3fbd 4d40
00000180: 61cb 5040 b1c4 5840 21a8 6740 e8d3 4640
00000190: 2874 3f40 697d 5040 3397 4640 9221 6040
000001a0: 0b4b 5440 7728 4f40 5cfd 7240 0a68 6c40
000001b0: 0362 5140 754e 5240 bbcd 4940 04ae 5340
000001c0: ad3b 5540 bdf5 4e40 57e7 8140 d9c5 5a40
000001d0: 879f 4b40 53b5 7540 5651 6f40 b532 8140
000001e0: 3b7f 7140 9051 84bb 0293 7840 e4bb 6440
000001f0: 1c9f 8240 d47c 5140 0e33 5440 e75f 4b40
00000200: ea4e 6a40 7dd7 6940 8277 7d40 56e2 4540
00000210: 1c9d 5540 8f8c 5340 35d0 5140 5cd4 5e40
00000220: c4ef 7e40 1210 4c40 80da 5540 6217 4b40
00000230: 355b 4840 3937 5c40 d4ce 4e40 9027 5740
00000240: 4e5c 5a40 4700 6940 7ec8 5340 bbe1 5c40
00000250: 7286 4940 0567 4d40 4096 4a40 4470 6840
00000260: 65a0 6140 9d47 4940 495f 4d40 16d5 7840
00000270: 5d60 7040 0dc5 5040 1aaa 4d40 2f78 4940
00000280: 5b84 4440 f09c 5140 dcdc 4140 13fa 4840
00000290: aeac 4a40 46ed 5540 0462 4f40 af0f 5040
000002a0: ae04 4a40 06d2 4640 a947 5240 994a 4a40
000002b0: cf7d 4540 89e3 5140 0fb8 5540 15a5 4740
000002c0: ea95 6a40 89f2 6f40 6c43 5940 4baa 4a40
000002d0: f20d 5a40 69fc 4440 7b29 4e40 bb6e 5440
000002e0: 3e2f 5340 b101 4340 a277 5340 2877 5340
000002f0: 3bde 8040 ffba 5840 4221 4640 899f 4e40
00000300: 21ef 4640 fc15 4740 0029 4340 b751 4840
00000310: ef6a 5940 8692 5c40 8a6b 7840 2bf9 5d40
00000320: 8e20 6440 63de 4d40 4682 5140 f24b 4d40
00000330: 042b 4f40 5a85 4e40 c427 5040 a1ab 4d40
00000340: 6166 4f40 a558 7340 fabe 4840 345c 4a40
00000350: 354e 4640 b28c 4940 a01e 4b40 9ff8 5540
00000360: 3714 5540 7021 5040 593b 5340 337b 5c40
00000370: e6a3 6240 1ffa 4840 c51a 4040 48ca 4540
00000380: bdeb 4940 a30a 6940 441c 5540 7aaf 5140
00000390: 796c 7340 f47c 7240 639f 5b40 3e69 4d40
000003a0: 9541 4740 27c4 4c40 cda9 4f40 fb04 4f40
000003b0: cb19 8340 41f2 5840 64af 5340 0e52 6f40
000003c0: bed1 6b40 7cc6 8240 2a58 7340 c0fe 8a3d
000003d0: b33e 7240 2f52 6040 80bb 8240 b1b2 5140
000003e0: 3026 5040 6168 4b40 df6c 6d40 1591 6340
000003f0: 6876 7940 8c6b 4540 ad9e 5140 af62 5340

fc1.bias f4 [256]
5.735241 5.809735 5.726884 5.518003 5.867687 5.5971937 5.8209367 5.7760377
5.75145 5.8055882 5.516229 5.555484 5.873041 5.7879 5.876921 5.7619634
5.7662935 5.9107246 5.7942195 5.7879286 5.912759 5.6862392 5.8292737 5.6870356
5.768387 5.7862606 5.8731556 5.876462 5.6145577 5.701643 5.880466 5.9008465
5.873086 5.8589764 5.67796 5.70935 5.742783 5.617488 5.9407606 5.855918
5.901388 5.9531603 5.8763285 5.9051933 5.7150006 5.8937244 5.7686276 5.8172264
5.8907347 5.9021626 5.8477125 5.603747 5.834163 5.637553 5.868952 5.7878404
5.5291295 5.912333 5.8093796 5.698151 5.8027735 5.6951833 5.8242087 5.8104634
5.4806137 5.9504066 5.967727 5.8665657 5.704146 5.508388 5.747579 5.8887
5.903899 5.8160915 5.7574644 5.6120524 5.7945623 6.038106 5.601361 5.3998804
5.7076645 5.692582 5.8542128 5.8503933 5.309445 5.9051332 5.839438 5.566693
5.8311977 5.697491 5.9614515 5.9239545 5.9062576 5.332932 5.6918135 5.520222
5.4212284 5.891568 5.855916 5.95443 5.8921747 5.7350883 5.791925 5.540855
5.8168936 5.9432964 5.6059365 5.944627 5.824327 5.8769417 5.526176 5.106809
5.920491 5.802806 5.825414 5.757356 5.8032765 5.784507 5.8324413 5.9595904
5.55357 5.9302673 5.755754 5.642191 5.7804227 5.894458 5.9107075 5.930648
5.957923 5.874108 5.8724966 5.307284 5.914322 5.722116 5.679585 5.741303
5.6546345 5.82372 5.6779513 5.3479366 5.80651 5.824964 5.8049054 5.8552904
5.8675294 5.8470507 5.8617673 5.7223244 5.757882 5.912092 5.955089 5.768629
5.8293986 5.3711777 5.7560067 5.866813 5.9816732 5.3320575 5.8469324 5.888138
5.7367043 5.8716273 5.77733 5.866828 5.7700744 5.71405 5.826776 5.5732527
5.824925 5.861738 5.8034635 5.9048986 5.72208 5.691679 5.7646003 5.8392572
5.8401103 5.584388 5.669278 5.8894057 5.8504953 5.845136 5.764324 5.832648
5.708437 5.543321 5.7366095 5.803955 5.1623816 5.786315 5.90247 5.8522167
5.8231964 5.9512873 5.980843 5.8228846 5.79301 5.165116 5.758061 5.7509956
5.605762 5.7237406 5.8216276 5.8177176 5.5819945 5.601851 5.809198 5.790775
5.482799 5.6052237 5.898326 5.8219614 5.821558 5.902865 5.5776205 5.4344053
5.803543 5.863117 5.777221 5.744266 5.71635 5.8418903 5.8901334 5.6099377
5.6565223 5.3164053 5.695464 5.8408017 5.660152 5.730902 5.768181 5.829118
5.71711 5.9141674 5.761499 5.888729 5.970061 5.8381696 5.863082 5.862188
5.763059 5.809146 5.699826 5.6830006 5.5738945 5.5966573 5.748517 5.9418697
5.678704 5.8253665 5.744426 5.8615046 5.0479183 5.8463964 5.875229 5.6534233
00000000: 1887 b740 59e9 b940 a242 b740 7b93 b040
00000010: 18c4 bb40 361c b340 1d45 ba40 4dd5 b840
00000020: e10b b840 61c7 b940 f384 b040 86c6 b140
00000030: f4ef bb40 7a36 b940 bd0f bc40 0162 b840
00000040: 7a85 b840 a824 bd40 3f6a b940 b636 b940
00000050: 5235 bd40 acf5 b540 6989 ba40 32fc b540
00000060: a096 b840 0c29 b940 e4f0 bb40 fa0b bc40
00000070: 75aa b340 dc73 b640 c72c bc40 bcd3 bc40
00000080: 52f0 bb40 bc7c bb40 d9b1 b540 ffb2 b640
00000090: e1c4 b740 76c2 b340 b61a be40 ae63 bb40
000000a0: 2cd8 bc40 4a80 be40 e20a bc40 58f7 bc40
000000b0: 49e1 b640 6499 bc40 9998 b840 b826 ba40
000000c0: e680 bc40 84de bc40 7620 bb40 e551 b340
000000d0: 77b1 ba40 d666 b440 74ce bb40 fd35 b940
000000e0: a1ee b040 d531 bd40 70e6 b940 4157 b640
000000f0: 52b0 b940 f13e b640 eb5f ba40 51ef b940
00000100: 3061 af40 bb69 be40 9ff7 be40 e8ba bb40
00000110: 5d88 b640 b744 b040 2bec b740 3b70 bc40
00000120: beec bc40 6c1d ba40 263d b840 ef95 b340
00000130: 0e6d b940 2a38 c140 593e b340 d2cb ac40
00000140: 30a5 b640 a229 b640 b655 bb40 6c36 bb40
00000150: f9e6 a940 daf6 bc40 addc ba40 5922 b240
00000160: 2c99 ba40 d951 b640 36c4 be40 0991 bd40
00000170: 1000 bd40 61a7 aa40 5623 b640 a9a5 b040
00000180: b47a ad40 ba87 bc40 aa63 bb40 b18a be40
00000190: b28c bc40 d885 b740 7357 b940 af4e b140
000001a0: fe23 ba40 7c2f be40 d563 b340 623a be40
000001b0: e360 ba40 e80f bc40 6fd6 b040 fb6a a340
000001c0: aa74 bd40 96b0 b940 cb69 ba40 433c b840
000001d0: 71b4 b940 ae1a b940 5ca3 ba40 f7b4 be40
000001e0: d8b6 b140 c0c4 bd40 232f b840 d48c b440
000001f0: 39f9 b840 669f bc40 8424 bd40 dec7 bd40
00000200: 4ea7 be40 b1f8 bb40 7eeb bb40 45d5 a940
00000210: 2042 bd40 931b b740 29bf b540 c1b8 b740
00000220: c4f2 b440 ea5b ba40 c7b1 b540 4c22 ab40
00000230: eece b940 1b66 ba40 c9c1 b940 8a5e bb40
00000240: cdc2 bb40 0a1b bb40 9993 bb40 481d b740
00000250: 9240 b840 dc2f bd40 1790 be40 9c98 b840
00000260: 6f8a ba40 b0e0 ab40 3531 b840 efbc bb40
00000270: de69 bf40 37a0 aa40 121a bb40 a06b bc40
00000280: 1593 b740 5fe4 bb40 e3df b840 0ebd bb40
00000290: 73a4 b840 7fd9 b640 f374 ba40 1658 b240
000002a0: c965 ba40 5c93 bb40 f9b5 b940 eef4 bc40
000002b0: 481b b740 3c22 b640 9b77 b840 32db ba40
000002c0: 2fe2 ba40 4eb3 b240 ba6a b540 0376 bc40
000002d0: 4237 bb40 5b0b bb40 5875 b840 0da5 ba40
000002e0: 84ab b640 e362 b140 4e92 b740 00ba b940
000002f0: 3b32 a540 7e29 b940 09e1 bc40 5c45 bb40
00000300: a057 ba40 f270 be40 1163 bf40 1255 ba40
00000310: 5760 b940 a148 a540 0942 b840 2808 b840
00000320: 6762 b340 e228 b740 c64a ba40 be2a ba40
00000330: b39f b240 5d42 b340 f3e4 b940 074e b940
00000340: 1773 af40 fe5d b340 16bf bc40 824d ba40
00000350: 344a ba40 45e4 bc40 de7b b240 a6e6 ad40
00000360: a0b6 b940 a89e bb40 ffde b840 07d1 b740
00000370: 57ec b640 c4f0 ba40 f97b bc40 9c84 b340
00000380: 3b02 b540 fe1f aa40 3e41 b640 d9e7 ba40
00000390: f71f b540 8d63 b740 f094 b840 2288 ba40
000003a0: 91f2 b640 dc40 bd40 335e b840 7870 bc40
000003b0: bd0a bf40 49d2 ba40 5e9e bb40 0b97 bb40
000003c0: fb6a b840 86e4 b940 f964 b640 24db b540
000003d0: 585d b240 d117 b340 daf3 b740 cc23 be40
000003e0: f1b7 b540 6769 ba40 56d2 b740 7291 bb40
000003f0: 8c88 a140 ae15 bb40 e001 bc40 d8e8 b440

fc2.weight f4 [122, 256]
0.8731322 0.8972472 0.83390176 0.8528885 0.87130636 0.87219363 0.79673207 0.892727
0.8426511 0.86955863 0.79996854 0.84001976 0.88087994 0.87309134 0.84954756 0.8265673
0.8460869 0.8363782 0.79070634 0.8140315 0.9130075 0.8843763 0.8862226 0.90020335
0.8285192 0.8479848 0.79975224 0.91427505 0.78777504 0.8802531 0.913904 0.9071117
0.8841996 0.84941775 0.8213276 0.8332047 0.79506123 0.81046677 0.89658636 0.79714084
0.9005494 0.8938319 0.8191267 0.87770975 0.84205323 0.8611384 0.81838256 0.878835
0.8522615 0.84417367 0.9005474 0.80209297 0.83173263 0.84751403 0.8471878 0.80968964
0.84097904 0.80543756 0.8516153 0.9096298 0.8860673 0.8272588 0.8624826 0.7998492
0.7794578 0.8450674 0.90729487 0.8559081 0.783494 0.7964077 0.8067423 0.85040104
0.9031477 0.835375 0.77988845 0.837328 0.8756713 0.8093997 0.8190448 0.79443055
0.82943845 0.9104781 0.8421547 0.89865476 0.82698387 0.88341486 0.8855546 0.7786966
0.910397 0.86474055 0.8116834 0.80775374 0.82256037 0.76065844 0.81347406 0.8103402
0.8113236 0.8194215 0.8297544 0.897138 0.8337511 0.79865706 0.8745056 0.76135606
0.8071975 0.850986 0.79722285 0.89954585 0.80318415 0.7990696 0.871678 0.72650045
0.899085 0.8658145 0.85813963 0.89325905 0.854762 0.8541922 0.80877304 0.808746
0.79317683 0.8751185 0.9044152 0.8276945 0.8650795 0.8647716 0.83687174 0.80880576
0.7942412 0.8887149 0.9106588 0.86228126 0.8369602 0.8656508 0.8526271 0.82497054
0.8777786 0.840459 0.81303054 0.8104373 0.85520613 0.90412277 0.81173253 0.89038324
0.8737777 0.848867 0.81355715 0.8299739 0.9042621 0.8398582 0.8542773 0.81272393
0.80464375 0.81935203 0.8817864 0.8394679 0.79977334 0.79895514 0.7948696 0.8945185
0.8314242 0.80909085 0.858354 0.8126494 0.79281205 0.84401155 0.830048 0.8092487
0.9109506 0.9065307 0.7924343 0.8812961 0.89949363 0.8278597 0.7821309 0.84690213
0.8595032 0.8420259 0.7839818 0.80702674 0.83509004 0.8125974 0.8803044 0.874816
0.7955167 0.81060475 0.813086 0.87585115 0.75199914 0.8525497 0.8470933 0.89277774
0.8606931 0.8731256 0.8207495 0.83893675 0.8105741 0.79245204 0.84175617 0.87847817
0.7847156 0.8516121 0.8557838 0.88026893 0.8099167 0.90456486 0.8258052 0.8459813
0.8522001 0.8423534 0.845203 0.8637961 0.8918846 0.9160449 0.7765982 0.79755235
0.8922194 0.90973496 0.85043305 0.8390337 0.8924954 0.87107587 0.9113996 0.80943483
0.86470383 0.8041445 0.8692749 0.9014894 0.90153974 0.8704322 0.8888597 0.8405344
0.8681006 0.81831753 0.80856407 0.90084386 0.8586291 0.8223108 0.84301734 0.7936436
0.8664471 0.89867073 0.789941 0.83571094 0.80734277 0.8657166 0.89225143 0.83222526
0.81653726 0.83237225 0.82107526 0.8661927 0.756817 0.7917704 0.8396265 0.856864
00000000: 9885 5f3f feb1 653f 967a 553f e756 5a3f
00000010: ef0d 5f3f 1548 5f3f a2f6 4b3f c289 643f
00000020: fcb7 573f 659b 5e3f bdca 4c3f 890b 573f
00000030: 5981 613f ea82 5f3f f37b 593f ea99 533f
00000040: 2799 583f e21c 563f bb6b 4a3f 5e64 503f
00000050: dcba 693f 7c66 623f 7cdf 623f ba73 663f
00000060: d619 543f 8815 593f 90bc 4c3f ee0d 6a3f
00000070: a0ab 493f 4458 613f 9df5 693f 7938 683f
00000080: e85a 623f 7173 593f 8742 523f e74c 553f
00000090: 2289 4b3f c07a 4f3f af86 653f 6c11 4c3f
000000a0: 688a 663f 2bd2 643f 4ab2 513f 96b1 603f
000000b0: cd90 573f 9173 5c3f 8581 513f 55fb 603f
000000c0: cf2d 5a3f c41b 583f 468a 663f f755 4d3f
000000d0: 6eec 543f aef6 583f 4de1 583f d247 4f3f
000000e0: 674a 573f 2831 4e3f 7603 5a3f 80dd 683f
000000f0: 4ed5 623f 3cc7 533f a9cb 5c3f ebc2 4c3f
00000100: 8c8a 473f 5656 583f 7a44 683f cb1c 5b3f
00000110: 1093 483f 60e1 4b3f aa86 4e3f e2b3 593f
00000120: b034 673f 23db 553f c5a6 473f 215b 563f
00000130: ff2b 603f d234 4f3f ecac 513f cd5f 4b3f
00000140: 1456 543f 1815 693f 7397 573f 3d0e 663f
00000150: 37b5 533f 7a27 623f b5b3 623f a958 473f
00000160: c70f 693f a35f 5d3f 7cca 4f3f f3c8 4e3f
00000170: 5193 523f 83ba 423f d63f 503f 7572 4f3f
00000180: e7b2 4f3f 9cc5 513f c96a 543f d6aa 653f
00000190: b670 553f ca74 4c3f 99df 5f3f 3be8 423f
000001a0: 7fa4 4e3f 38da 593f cc16 4c3f a348 663f
000001b0: 7a9d 4d3f d38f 4c3f 4a26 5f3f effb 393f
000001c0: 6f2a 663f 05a6 5d3f 0aaf 5b3f a0ac 643f
000001d0: afd1 5a3f 57ac 5a3f c00b 4f3f fa09 4f3f
000001e0: a30d 4b3f c407 603f c187 673f c9e3 533f
000001f0: da75 5d3f ac61 5d3f 3a3d 563f e50d 4f3f
00000200: 6453 4b3f d282 633f ef20 693f 77be 5c3f
00000210: 0643 563f 4a9b 5d3f c545 5a3f 4531 533f
00000220: 19b6 603f 5228 573f c522 503f d278 4f3f
00000230: caee 5a3f 9774 673f b4cd 4f3f 28f0 633f
00000240: e5af 5f3f 594f 593f 4845 503f 2b79 543f
00000250: b97d 673f f200 573f ebb1 5a3f ad0e 503f
00000260: 22fd 4d3f 0ec1 513f c1bc 613f 5ee7 563f
00000270: f2bd 4c3f 5388 4c3f 937c 4b3f 2aff 643f
00000280: 37d8 543f 9420 4f3f 16bd 5b3f cb09 503f
00000290: bbf5 4a3f 2411 583f 077e 543f ec2a 4f3f
000002a0: 0f34 693f 6512 683f f9dc 4a3f 9f9c 613f
000002b0: 3745 663f 9dee 533f bb39 483f 94ce 583f
000002c0: 6708 5c3f 028f 573f 08b3 483f 4e99 4e3f
000002d0: 76c8 553f 6206 503f a15b 613f f1f3 5f3f
000002e0: fca6 4b3f cb83 4f3f 6726 503f c837 603f
000002f0: 0483 403f b240 5a3f 1bdb 583f 158d 643f
00000300: 6256 5c3f 2985 5f3f a41c 523f 8fc4 563f
00000310: c981 4f3f 23de 4a3f 557d 573f f2e3 603f
00000320: 1fe3 483f 4003 5a3f a614 5b3f 4e59 613f
00000330: b356 4f3f 9091 673f f867 533f 3b92 583f
00000340: c929 5a3f 79a4 573f 395f 583f be21 5d3f
00000350: 8d52 643f eb81 6a3f 24cf 463f 642c 4c3f
00000360: 7e68 643f 64e4 683f fbb5 593f eaca 563f
00000370: 947a 643f d4fe 5e3f 7c51 693f 1f37 4f3f
00000380: 3b5d 5d3f 6adc 4d3f cd88 5e3f 02c8 663f
00000390: 4fcb 663f a5d4 5e3f 4f8c 633f 432d 573f
000003a0: d73b 5e3f 427d 513f 0efe 4e3f b49d 663f
000003b0: 1ecf 5b3f f682 523f fccf 573f 3a2c 4b3f
000003c0: 7acf 5d3f 490f 663f 9339 4a3f 27f1 553f
000003d0: 04ae 4e3f 9a9f 5d3f 976a 643f b70c 553f
000003e0: 9608 513f 5916 553f fd31 523f cebe 5d3f
000003f0: c2be 413f 77b1 4a3f c3f1 563f 705b 5b3f

fc2.bias f4 [122]
0.98777765 1.0069852 1.125319 0.8781206 0.9055168 0.8980107 0.9960544 0.9485332
0.990379 0.84151566 0.7829059 0.9971914 1.0124354 0.91113687 1.0329008 0.914747
0.91017276 0.86252826 0.8560333 0.8524208 0.89557576 0.85908747 0.9566977 0.8589657
0.9180038 0.8096092 0.91914517 0.8952774 0.79174376 1.0374799 1.0182949 0.83623487
0.81549436 1.0361195 0.9632817 0.82158655 0.8888694 0.86411715 0.77253306 0.9331344
0.89368355 0.7731309 0.78773767 0.98244536 0.9584448 0.92266774 0.7848126 0.80019784
0.8493127 0.84430856 0.79176366 0.9079178 0.8840488 0.8318903 0.97311705 1.0725855
0.8809372 0.8569299 0.9624963 0.7628054 0.80916864 0.8204428 0.8532121 0.7837078
0.9034025 0.8859505 1.0010283 0.9625553 0.7827555 0.7863509 0.74749094 0.80404776
0.7359438 0.8086145 0.83440995 0.86529726 1.0352635 0.847898 0.917047 0.85489017
0.76928765 0.808796 0.8179155 0.7926384 0.8601887 0.81719285 0.87354547 0.99108934
0.8456645 0.88643897 0.8497639 0.81341255 0.75792736 0.78389716 0.89443856 0.8230255
0.9497527 0.96125144 0.9423714 0.81389076 0.77713 0.8781164 0.86994666 0.9617163
0.9700162 0.95433444 0.9252669 1.064826 0.96893924 0.94012576 0.81247014 0.8458361
0.84116894 0.96470356 1.031497 0.9511678 0.94230473 1.0263246 1.0162089 1.0969361
1.0004897 -0.06133893
00000000: ffde 7c3f e4e4 803f 740a 903f 83cc 603f
00000010: f3cf 673f 07e4 653f 6cfd 7e3f 12d3 723f
00000020: 7a89 7d3f 926d 573f 856c 483f f047 7f3f
00000030: 7c97 813f 4440 693f 1836 843f dc2c 6a3f
00000040: 1501 693f a7ce 5c3f 0025 5b3f 4038 5a3f
00000050: 7444 653f 28ed 5b3f 24ea 743f 2de5 5b3f
00000060: 4c02 6b3f 8c42 4f3f 194d 6b3f e630 653f
00000070: b8af 4a3f 24cc 843f 7d57 823f 7d13 563f
00000080: 3dc4 503f 909f 843f a199 763f 7f53 523f
00000090: f28c 633f c836 5d3f bac4 453f e5e1 6e3f
000000a0: 72c8 643f e8eb 453f 2da9 493f 8a81 7b3f
000000b0: a35c 753f f433 6c3f 7be9 483f c4d9 4c3f
000000c0: 8f6c 593f 9b24 583f 06b1 4a3f 4d6d 683f
000000d0: 0651 623f c3f6 543f 331e 793f 7b4a 893f
000000e0: 1a85 613f c25f 5b3f 2866 763f 3747 433f
000000f0: ad25 4f3f 8a08 523f 1c6c 5a3f 13a1 483f
00000100: 6345 673f a7cd 623f b221 803f 066a 763f
00000110: aa62 483f 4b4e 493f 915b 3f3f 13d6 4d3f
00000120: d066 3c3f 5c01 4f3f e49b 553f 1f84 5d3f
00000130: 8483 843f d80f 593f 98c3 6a3f 15da 5a3f
00000140: 09f0 443f 410d 4f3f e962 513f 5aea 4a3f
00000150: 5435 5c3f 8d33 513f ada0 5f3f 08b8 7d3f
00000160: 787d 583f aaed 623f 208a 593f ce3b 503f
00000170: 8707 423f 7cad 483f edf9 643f cdb1 523f
00000180: fe22 733f 9314 763f 413f 713f 255b 503f
00000190: fef1 463f 3dcc 603f d3b4 5e3f 0a33 763f
000001a0: fb52 783f 434f 743f 4bde 6c3f 384c 883f
000001b0: 670c 783f 15ac 703f 0bfe 4f3f b788 583f
000001c0: d956 573f d0f6 763f 1808 843f bc7f 733f
000001d0: e23a 713f 9b5e 833f 2213 823f 6768 8c3f
000001e0: 0c10 803f 883e 7bbd
