g13agent_p1.pth (torch, 505904 bytes, 8 tensors)

fc1.weight f4 [256, 122]
0	0x41ed2b88	29.646255
1	0x41ee6703	29.800299
2	0x41f0ea3c	30.114372
3	0x41e6052d	28.752527
4	0x41ce3f9d	25.781061
5	0x41de188e	27.76199
6	0x41db7c7f	27.43579
7	0x41e897c8	29.074112
8	0x41ecfdd4	29.62394
9	0x418f5d5f	17.920591
10	0x4180417c	16.031975
11	0x41e74909	28.910662
12	0x41e027bc	28.019402
13	0x41e1b611	28.2139
14	0x41d60426	26.752026
15	0x41ca2604	25.268562
16	0x41d45632	26.542088
17	0x41bd4422	23.658268
18	0x41a83160	21.024109
19	0x41c97c98	25.185837
20	0x41c9348e	25.150661
21	0x419eb303	19.837408
22	0x41e236ea	28.276814
23	0x41deba56	27.840984
24	0x41c91dff	25.139647
25	0x41cb4384	25.407967
26	0x41d795c3	26.948126
27	0x41ac4126	21.53181
28	0x417822d8	15.508507
29	0x41e4bb3b	28.591421
30	0x41e1b736	28.214458
31	0x41940901	18.504396
32	0x41cf55ae	25.916836
33	0x41eb20f9	29.3911
34	0x41ded7c7	27.85536
35	0x41a26e08	20.303726
36	0x41d0c317	26.095259
37	0x41ab7f0f	21.43704
38	0x41a3cb17	20.474165
39	0x41688831	14.53325
40	0x41c089b7	24.067244
41	0x41b81e33	23.014746
42	0x416cbb30	14.7957
43	0x41d79c42	26.951298
44	0x41dc8e99	27.569628
45	0x41cf8a31	25.942476
46	0x4196f379	18.868883
47	0x4185d2af	16.727873
48	0x4196cb25	18.849192
49	0x41c6e373	24.86106
50	0x414e30f2	12.88695
51	0x41cfa5ff	25.956053
52	0x4193078e	18.378689
53	0x41d85c0f	27.04495
54	0x41ed8d79	29.694078
55	0x41e741c3	28.90711
56	0x41dcabe9	27.58394
57	0x41a68f77	20.820051
58	0x41b78f2c	22.944908
59	0x4170d8e8	15.052956
60	0x4155ebc9	13.370065
61	0x415abb50	13.670731
62	0x419a9401	19.322268
63	0x41718684	15.095341
64	0x41ceb36a	25.837605
65	0x41de4701	27.78467
66	0x41e4faac	28.622398
67	0x41df54b1	27.916353
68	0x414ef98c	12.935925
69	0x414ebfc9	12.921823
70	0x414ea4f9	12.915277
71	0x41660a2b	14.377482
72	0x415593e1	13.348603
73	0x415f3e38	13.95269
74	0x41c4914f	24.570951
75	0x41e3240b	28.3926
76	0x41ed0b0f	29.6304
77	0x41d52e06	26.647472
78	0x41dcec85	27.615488
79	0x41b7a51c	22.95562
80	0x41851b05	16.638193
81	0x41a01dfe	20.014645
82	0x41b0d50a	22.104023
83	0x4191b5fc	18.21386
84	0x41c4b272	24.587132
85	0x41ca1732	25.261326
86	0x41db5b0a	27.419453
87	0x41ec4adb	29.53655
88	0x418d28d5	17.644938
89	0x41c89722	25.073795
90	0x416035d0	14.013138
91	0x41971a96	18.887981
92	0x4150d051	13.0508585
93	0x41aaf1b4	21.36802
94	0x41db2885	27.394785
95	0x41c535fe	24.651363
96	0x41dd766f	27.682829
97	0x41e909c7	29.129774
98	0x41e38dcd	28.444239
99	0x41b2d736	22.355083
100	0x414cff4b	12.812327
101	0x41c787c4	24.941292
102	0x41cbb39e	25.462704
103	0x41d189ee	26.192348
104	0x41e66054	28.797035
105	0x41e1266c	28.14376
106	0x41e3d7b8	28.480331
107	0x41f259e9	30.293901
108	0x41da2c7d	27.271723
109	0x41e2d4cd	28.353907
110	0x41847920	16.559143
111	0x41b5b673	22.714087
112	0x41d4d3f6	26.603497
113	0x41d94fa7	27.163893
114	0x41edd957	29.731123
115	0x41e464dd	28.54925
116	0x41ded0e8	27.852005
117	0x41ee5010	29.789093
118	0x41f2f4f8	30.369614
119	0x41ee7fda	29.812428
120	0x41f150a1	30.16437
121	0xbb845190	-0.0040380433
122	0x41ed2eae	29.647793
123	0x41ee4a2e	29.78622
124	0x41f0a305	30.0796
125	0x41e53929	28.65291
126	0x41ceb050	25.83609
127	0x41de10cf	27.758207
128	0x41db0b8c	27.380638
129	0x41e7fd38	28.998642
130	0x41eccd6e	29.600307
131	0x418e3b1b	17.77886
132	0x41806aea	16.052204
133	0x41e61d34	28.76426
134	0x41df1d01	27.889162
135	0x41e0f6fa	28.120594
136	0x41d5d536	26.729107
137	0x41c98171	25.188204
138	0x41d45b24	26.544502
139	0x41bc7019	23.554735
140	0x41a80969	21.004595
141	0x41c9b593	25.21366
142	0x41c9ccd0	25.225006
143	0x419f2923	19.895086
144	0x41e2324c	28.274559
145	0x41de2378	27.767319
146	0x41c7c3f3	24.970678
147	0x41cbd9c6	25.481335
148	0x41d714b6	26.885113
149	0x41ab749c	21.431938
150	0x4176f0d6	15.433798
151	0x41e4b7e5	28.589792
152	0x41e18844	28.191536
153	0x4193c48f	18.470976
154	0x41d026bb	26.018911
155	0x41eb5da4	29.420723
156	0x41dd775d	27.683283
157	0x41a1cee5	20.226023
158	0x41d0390b	26.027853
159	0x41a9cea1	21.225893
160	0x41a35556	20.416668
161	0x4167a355	14.477376
162	0x41bf1e96	23.889935
163	0x41b7dc86	22.982677
164	0x416ba578	14.727898
165	0x41d648ff	26.785643
166	0x41dbef64	27.49189
167	0x41cebc3d	25.841913
168	0x41969870	18.824432
169	0x41851713	16.636267
170	0x41975595	18.916788
171	0x41c699dc	24.825127
172	0x414dd773	12.8651
173	0x41cf4608	25.909195
174	0x4193dcd0	18.482819
175	0x41d811ae	27.008633
176	0x41ee1896	29.762005
177	0x41e7832e	28.939053
178	0x41dbbd58	27.467453
179	0x41a5bb6d	20.716516
180	0x41b62157	22.76628
181	0x4170260c	15.009289
182	0x41560d59	13.378259
183	0x4159778f	13.591689
184	0x419aab35	19.333597
185	0x4170929d	15.035794
186	0x41cea67d	25.831293
187	0x41dd9c92	27.70145
188	0x41e541cc	28.657127
189	0x41de6ed3	27.804113
190	0x414db35f	12.856292
191	0x414faade	12.979216
192	0x414f7bd9	12.967736
193	0x41653ce9	14.327371
194	0x41535426	13.208044
195	0x415ca27f	13.789672
196	0x41c4c50f	24.59622
197	0x41e27e0a	28.311543
198	0x41ed3046	29.648571
199	0x41d44e4d	26.538233
200	0x41dc45cf	27.534086
201	0x41b65678	22.792221
202	0x4184be54	16.592934
203	0x419fa321	19.954653
204	0x41b089d3	22.067297
205	0x41916f4b	18.179342
206	0x41c43f8c	24.531029
207	0x41ca683c	25.300896
208	0x41db220f	27.39163
209	0x41ebb641	29.463991
210	0x418cc93a	17.598255
211	0x41c858ec	25.043419
212	0x415d7a41	13.842347
213	0x41977699	18.932909
214	0x41517575	13.091176
215	0x41abc2df	21.470152
216	0x41db595c	27.418633
217	0x41c535a4	24.651192
218	0x41dd6d99	27.678514
219	0x41e91646	29.135876
220	0x41e28208	28.313492
221	0x41b2d4f1	22.353975
222	0x414cbeb7	12.796561
223	0x41c5d861	24.730654
224	0x41cbc7e3	25.4726
225	0x41d2476c	26.284874
226	0x41e62054	28.765785
227	0x41e11c8d	28.13894
228	0x41e38659	28.4406
229	0x41f2bbbf	30.341673
230	0x41db13bd	27.384638
231	0x41e1dbfb	28.232412
232	0x4183ef19	16.491747
233	0x41b4a67b	22.58129
234	0x41d3c7c3	26.47254
235	0x41d8f295	27.118448
236	0x41edbe64	29.717964
237	0x41e3cedd	28.476007
238	0x41df679f	27.925596
239	0x41ed26b1	29.643892
240	0x41f22167	30.26631
241	0x41ee82f8	29.81395
242	0x41f12976	30.145245
243	0x3d8afec0	0.06786871
244	0x41ec49e0	29.536072
245	0x41edb02d	29.711023
246	0x41f093e0	30.072205
247	0x41e5326f	28.649626
248	0x41ce2f05	25.772959
249	0x41de05f4	27.752907
250	0x41db6a7e	27.426998
251	0x41e72e71	28.897676
252	0x41ec3f93	29.531042
253	0x418e3a44	17.77845
254	0x417fff90	15.999893
255	0x41e5fda2	28.748844

fc1.bias f4 [256]
0	0x420e6111	35.59479
1	0x420e738c	35.61284
2	0x420e0b62	35.511116
3	0x420da8e8	35.414948
4	0x420ef509	35.739292
5	0x420d799d	35.368763
6	0x420e8a90	35.635315
7	0x420e363d	35.552967
8	0x420e2820	35.539185
9	0x420e8ffc	35.64061
10	0x420d90e6	35.391502
11	0x420d8b9d	35.38634
12	0x420eb282	35.674324
13	0x420e1cd6	35.52816
14	0x420e9cb9	35.65305
15	0x420e634a	35.596962
16	0x420e3ba8	35.558258
17	0x420eb83f	35.679928
18	0x420e8026	35.625145
19	0x420e57d2	35.585762
20	0x420ee81c	35.72667
21	0x420e2a12	35.541084
22	0x420e9ec9	35.655064
23	0x420def08	35.48343
24	0x420e2631	35.537296
25	0x420e271b	35.53819
26	0x420ea13d	35.65746
27	0x420ea8ec	35.664963
28	0x420db25a	35.42417
29	0x420e2436	35.535362
30	0x420ebe76	35.685997
31	0x420ec3bb	35.691143
32	0x420e8af4	35.635696
33	0x420ecdfc	35.701157
34	0x420dfa80	35.49463
35	0x420e054d	35.505177
36	0x420e2c57	35.5433
37	0x420deca6	35.481102
38	0x420f365f	35.803097
39	0x420ed542	35.70826
40	0x420f2887	35.789577
41	0x420f2687	35.787624
42	0x420ee27c	35.721176
43	0x420efeeb	35.748943
44	0x420e0a71	35.510197
45	0x420ec4fd	35.69237
46	0x420e4e09	35.576206
47	0x420e7657	35.615566
48	0x420ec5a5	35.693012
49	0x420ea1fd	35.65819
50	0x420ec480	35.691895
51	0x420ded23	35.48158
52	0x420e8051	35.62531
53	0x420ddb25	35.46401
54	0x420ea892	35.66462
55	0x420e58db	35.586773
56	0x420d8e7d	35.38915
57	0x420f1814	35.773514
58	0x420e72e8	35.612213
59	0x420e2a6a	35.54142
60	0x420e7f87	35.62454
61	0x420de458	35.472992
62	0x420e92ef	35.64349
63	0x420e7d9b	35.62266
64	0x420d5f8e	35.343315
65	0x420eff11	35.74909
66	0x420f2440	35.7854
67	0x420eb625	35.677876
68	0x420e1c9b	35.527935
69	0x420d57b3	35.335644
70	0x420e5ea2	35.592415
71	0x420eb75f	35.679073
72	0x420f0457	35.75424
73	0x420e64e7	35.598537
74	0x420e5d6b	35.59123
75	0x420dbbdc	35.433456
76	0x420eb8a7	35.680325
77	0x420f871f	35.881954
78	0x420dc77e	35.444817
79	0x420cae05	35.16994
80	0x420e1e4e	35.529594
81	0x420dd284	35.45558
82	0x420eadc5	35.669697
83	0x420eb1af	35.67352
84	0x420cbce9	35.184483
85	0x420efac7	35.7449
86	0x420eb4df	35.676632
87	0x420d9e07	35.404324
88	0x420e9f11	35.65534
89	0x420e07bd	35.507557
90	0x420efbd3	35.745922
91	0x420f058c	35.755417
92	0x420ed70b	35.710003
93	0x420cd607	35.20901
94	0x420e0372	35.503365
95	0x420d54da	35.332863
96	0x420d1c33	35.27754
97	0x420ede1a	35.716896
98	0x420ea8bd	35.664783
99	0x420ed9cc	35.712692
100	0x420ec08a	35.688026
101	0x420e635c	35.59703
102	0x420e79bb	35.618877
103	0x420d9f2d	35.405445
104	0x420e736c	35.612717
105	0x420ef7b9	35.741917
106	0x420de579	35.474094
107	0x420f1c27	35.777493
108	0x420e9439	35.64475
109	0x420ed69a	35.70957
110	0x420d9a70	35.400818
111	0x420bc181	34.93897
112	0x420eccf6	35.700157
113	0x420e6e6c	35.607834
114	0x420e8c9a	35.637306
115	0x420e7a89	35.619663
116	0x420ea899	35.664646
117	0x420e578e	35.585503
118	0x420ea8cb	35.664837
119	0x420f6821	35.85169
120	0x420d66df	35.35046
121	0x420f1744	35.77272
122	0x420e3c27	35.558743
123	0x420dd814	35.461014
124	0x420e5ab0	35.588562
125	0x420ed516	35.70809
126	0x420ee30b	35.72172
127	0x420f27f8	35.789032
128	0x420f19d4	35.775223
129	0x420eee05	35.73244
130	0x420ee339	35.721897
131	0x420c99c5	35.150166
132	0x420ed84e	35.711235
133	0x420e591b	35.587017
134	0x420e2d5a	35.54429
135	0x420e8abe	35.63549
136	0x420dc1f8	35.439423
137	0x420e9893	35.649
138	0x420df466	35.48867
139	0x420c9fd8	35.156097
140	0x420ee634	35.724808
141	0x420e733f	35.612545
142	0x420eaf2b	35.671062
143	0x420efa14	35.744217
144	0x420eb2e9	35.674717
145	0x420e6d6e	35.606865
146	0x420f013c	35.751205
147	0x420df2c7	35.487087
148	0x420e31c6	35.548607
149	0x420f0965	35.759174
150	0x420f3966	35.806053
151	0x420e3d21	35.559696
152	0x420ec0f6	35.68844
153	0x420ce0bf	35.21948
154	0x420e0812	35.50788
155	0x420eb101	35.672855
156	0x420f5f6d	35.84319
157	0x420c9277	35.143032
158	0x420eb78e	35.679253
159	0x420ed7a3	35.710583
160	0x420e2315	35.53426
161	0x420ef806	35.74221
162	0x420e32e6	35.549706
163	0x420e8709	35.63187
164	0x420e2edf	35.545773
165	0x420e4c1e	35.574333
166	0x420e8eaf	35.63934
167	0x420d4c10	35.32428
168	0x420eb0f0	35.67279
169	0x420e8c58	35.637054
170	0x420e47df	35.570187
171	0x420ed92d	35.712086
172	0x420e6141	35.594975
173	0x420dfb9b	35.49571
174	0x420ea86a	35.664467
175	0x420e6560	35.599
176	0x420e9202	35.642586
177	0x420db47b	35.42625
178	0x420d8f21	35.389774
179	0x420eae08	35.669952
180	0x420ec549	35.69266
181	0x420e7c50	35.6214
182	0x420e8ca2	35.637337
183	0x420e9ae3	35.651257
184	0x420e465c	35.56871
185	0x420d7042	35.359627
186	0x420e525a	35.58042
187	0x420e905b	35.640972
188	0x420c672e	35.10076
189	0x420e5a33	35.588085
190	0x420ee91b	35.727642
191	0x420e8d80	35.638184
192	0x420e9996	35.649986
193	0x420f029b	35.752544
194	0x420f45ec	35.818283
195	0x420e9867	35.64883
196	0x420ea4c8	35.66092
197	0x420c352d	35.05193
198	0x420e26e1	35.537968
199	0x420e6753	35.600903
200	0x420de6e0	35.475464
201	0x420dde5b	35.467144
202	0x420e8f6d	35.640064
203	0x420ec448	35.69168
204	0x420d9874	35.39888
205	0x420de612	35.474678
206	0x420e44cf	35.567196
207	0x420e66ba	35.60032
208	0x420d6d2a	35.356606
209	0x420db53c	35.426987
210	0x420edc1d	35.714954
211	0x420e929d	35.643177
212	0x420e8a42	35.635017
213	0x420f04e2	35.75477
214	0x420d86fc	35.38182
215	0x420d296e	35.29046
216	0x420e56e3	35.58485
217	0x420ed66e	35.709404
218	0x420e87fe	35.632805
219	0x420e48e3	35.57118
220	0x420e2d3a	35.544167
221	0x420ec9c8	35.697052
222	0x420eeb72	35.729927
223	0x420ddcb9	35.46555
224	0x420de7f6	35.476524
225	0x420c9a0d	35.15044
226	0x420e16f4	35.522415
227	0x420e95d5	35.64632
228	0x420de3f8	35.472626
229	0x420e6ccf	35.60626
230	0x420e8f2b	35.639812
231	0x420e6f8e	35.60894
232	0x420e4c73	35.574657
233	0x420ee6b7	35.725307
234	0x420e1ccd	35.528126
235	0x420ee472	35.72309
236	0x420f5fb7	35.84347
237	0x420eb0d3	35.67268
238	0x420e89a3	35.63441
239	0x420ebb5a	35.68296
240	0x420e3ac1	35.557377
241	0x420e73f4	35.613235
242	0x420e5340	35.5813
243	0x420e1758	35.522797
244	0x420d8f9b	35.39024
245	0x420dd3ae	35.45672
246	0x420e4c8c	35.574753
247	0x420f2a46	35.791283
248	0x420e05de	35.50573
249	0x420e9f2f	35.655453
250	0x420e5160	35.579468
251	0x420ed127	35.70425
252	0x420bd932	34.962105
253	0x420eae69	35.670322
254	0x420eb756	35.67904
255	0x420dea27	35.478664

fc2.weight f4 [122, 256]
0	0x40b7564d	5.729285
1	0x40b81e96	5.7537336
2	0x40b617e1	5.690415
3	0x40b6b33a	5.7093782
4	0x40b74837	5.7275653
5	0x40b75593	5.729196
6	0x40b4e875	5.653376
7	0x40b7fb36	5.7494154
8	0x40b65dc7	5.6989474
9	0x40b73b96	5.7260237
10	0x40b502a8	5.6565742
11	0x40b64ad1	5.696633
12	0x40b798d6	5.7374067
13	0x40b7563c	5.7292767
14	0x40b699e4	5.7062855
15	0x40b5dd34	5.6832523
16	0x40b67c6a	5.7026873
17	0x40b62bba	5.6928377
18	0x40b4b697	5.647289
19	0x40b571a8	5.670124
20	0x40b89ebe	5.7693777
21	0x40b7b936	5.7413588
22	0x40b7c203	5.742433
23	0x40b8381e	5.7568502
24	0x40b5ec0f	5.6850657
25	0x40b689ad	5.704306
26	0x40b502bf	5.656585
27	0x40b8aa28	5.770771
28	0x40b49c03	5.6440444
29	0x40b79340	5.736725
30	0x40b8a656	5.7703047
31	0x40b86ff6	5.763667
32	0x40b7b573	5.7408996
33	0x40b698a0	5.706131
34	0x40b5b0e3	5.6778426
35	0x40b610f3	5.689569
36	0x40b4d9c6	5.6515837
37	0x40b55c8a	5.6675463
38	0x40b81926	5.75307
39	0x40b4e955	5.653483
40	0x40b83a8c	5.757147
41	0x40b80059	5.7500424
42	0x40b59cfc	5.675413
43	0x40b77fb2	5.734338
44	0x40b65b2e	5.6986303
45	0x40b6f7ea	5.717763
46	0x40b59941	5.6749578
47	0x40b78868	5.735401
48	0x40b6aa7a	5.70831
49	0x40b66c41	5.7007146
50	0x40b83ad6	5.757182
51	0x40b51922	5.659318
52	0x40b607d7	5.688457
53	0x40b687e7	5.7040896
54	0x40b68571	5.703789
55	0x40b54f60	5.6659393
56	0x40b6539c	5.697706
57	0x40b52fad	5.66207
58	0x40b6a782	5.7079477
59	0x40b88449	5.766148
60	0x40b7c227	5.74245
61	0x40b5e08e	5.6836615
62	0x40b6fe63	5.718553
63	0x40b50446	5.6567717
64	0x40b45d9e	5.636428
65	0x40b67325	5.7015557
66	0x40b870a2	5.763749
67	0x40b6cc85	5.712466
68	0x40b48037	5.640651
69	0x40b4e416	5.6528425
70	0x40b53ac7	5.663425
71	0x40b69e7b	5.7068458
72	0x40b85084	5.7598286
73	0x40b62593	5.6920867
74	0x40b45f85	5.63666
75	0x40b63200	5.6936035
76	0x40b76eb7	5.732265
77	0x40b54f39	5.6659207
78	0x40b59e05	5.6755395
79	0x40b4d706	5.651248
80	0x40b5f11f	5.6856837
81	0x40b88805	5.766604
82	0x40b65d2b	5.698873
83	0x40b828e3	5.754991
84	0x40b5e611	5.6843343
85	0x40b7ad1c	5.7398815
86	0x40b7bf36	5.742091
87	0x40b45458	5.635296
88	0x40b88a52	5.766885
89	0x40b71581	5.721375
90	0x40b56432	5.668481
91	0x40b542dc	5.6644115
92	0x40b5bc74	5.6792545
93	0x40b3c769	5.618092
94	0x40b56f2a	5.66982
95	0x40b556a2	5.6668253
96	0x40b562a6	5.668292
97	0x40b59fe0	5.675766
98	0x40b5f6a5	5.686358
99	0x40b82041	5.7539372
100	0x40b6184d	5.6904664
101	0x40b4f5f8	5.6550255
102	0x40b762eb	5.730825
103	0x40b3ca15	5.618418
104	0x40b53c3e	5.663604
105	0x40b6a41e	5.707534
106	0x40b4ef1d	5.6541886
107	0x40b83310	5.756233
108	0x40b51913	5.659311
109	0x40b4fb18	5.655651
110	0x40b74ec6	5.728366
111	0x40b2ae42	5.5837717
112	0x40b82e4c	5.7556515
113	0x40b71f8e	5.722602
114	0x40b6da99	5.7141843
115	0x40b7ffbd	5.749968
116	0x40b6c12f	5.711082
117	0x40b6bb65	5.7103753
118	0x40b549e2	5.665269
119	0x40b54aa9	5.665364
120	0x40b4ccac	5.6499844
121	0x40b769cb	5.731664
122	0x40b859f9	5.760983
123	0x40b5e404	5.684084
124	0x40b71a87	5.721988
125	0x40b7175b	5.721601
126	0x40b6313f	5.6935115
127	0x40b548b0	5.665123
128	0x40b4d3d0	5.650856
129	0x40b7d593	5.744821
130	0x40b88c0b	5.767095
131	0x40b702cf	5.719093
132	0x40b62e89	5.6931806
133	0x40b71a8e	5.7219915
134	0x40b6b203	5.70923
135	0x40b5cecd	5.681494
136	0x40b77e0c	5.7341366
137	0x40b65026	5.6972837
138	0x40b56a52	5.6692286
139	0x40b5595f	5.6671596
140	0x40b6c383	5.711366
141	0x40b855fe	5.760497
142	0x40b564ca	5.6685534
143	0x40b7e65f	5.7468715
144	0x40b75bdd	5.729964
145	0x40b69336	5.70547
146	0x40b57134	5.6700687
147	0x40b5f499	5.686108
148	0x40b85a3f	5.7610164
149	0x40b649fc	5.6965313
150	0x40b6be31	5.7107167
151	0x40b5672c	5.668844
152	0x40b526f5	5.6610055
153	0x40b5a425	5.676287
154	0x40b79c7e	5.737853
155	0x40b6466d	5.696097
156	0x40b501e6	5.6564817
157	0x40b4fc39	5.655789
158	0x40b4d7f3	5.651361
159	0x40b809fd	5.7512193
160	0x40b603bb	5.6879554
161	0x40b54b3c	5.665434
162	0x40b6e28d	5.715155
163	0x40b56ad9	5.669293
164	0x40b4c492	5.6489954
165	0x40b668d1	5.700295
166	0x40b5f8f7	5.686641
167	0x40b55109	5.666142
168	0x40b88b75	5.7670236
169	0x40b8689f	5.762771
170	0x40b4c647	5.649204
171	0x40b79bb5	5.737757
172	0x40b83271	5.7561574
173	0x40b5e3f4	5.6840763
174	0x40b474db	5.6392646
175	0x40b68171	5.703301
176	0x40b6e7c4	5.7157917
177	0x40b658e1	5.6983495
178	0x40b482a3	5.640947
179	0x40b53d28	5.6637154
180	0x40b620f6	5.6915236
181	0x40b5673d	5.6688523
182	0x40b79382	5.7367563
183	0x40b7660d	5.7312074
184	0x40b4dd88	5.6520424
185	0x40b55b2b	5.667379
186	0x40b56d1d	5.6695695
187	0x40b76f74	5.732355
188	0x40b3804b	5.609411
189	0x40b6ae04	5.708742
190	0x40b6835d	5.7035356
191	0x40b7f8b5	5.7491097
192	0x40b6f3e8	5.7172737
193	0x40b7597b	5.729673
194	0x40b5adfc	5.6774883
195	0x40b64188	5.6954994
196	0x40b55963	5.6671615
197	0x40b4cc78	5.6499596
198	0x40b6592d	5.6983857
199	0x40b782a0	5.7346954
200	0x40b483f1	5.641106
201	0x40b6a6cb	5.7078605
202	0x40b6ca19	5.71217
203	0x40b790c4	5.7364216
204	0x40b55507	5.6666293
205	0x40b85956	5.7609053
206	0x40b5d802	5.682618
207	0x40b67b1f	5.7025294
208	0x40b6b2b0	5.7093124
209	0x40b65c66	5.698779
210	0x40b67543	5.701814
211	0x40b7085f	5.719772
212	0x40b7f097	5.748119
213	0x40b8b9f7	5.772701
214	0x40b446a8	5.633625
215	0x40b4f491	5.6548543
216	0x40b7f69b	5.748853
217	0x40b882ba	5.765958
218	0x40b69d62	5.706712
219	0x40b6429b	5.6956306
220	0x40b7f732	5.748925
221	0x40b74b7f	5.727966
222	0x40b89425	5.768084
223	0x40b54db5	5.6657357
224	0x40b71226	5.7209654
225	0x40b52986	5.661319
226	0x40b73bed	5.726065
227	0x40b84209	5.758061
228	0x40b84185	5.757998
229	0x40b74038	5.726589
230	0x40b7dc4d	5.745642
231	0x40b64ddc	5.6970043
232	0x40b73165	5.7247796
233	0x40b5972a	5.6747026
234	0x40b54634	5.6648197
235	0x40b83c31	5.7573476
236	0x40b6e32f	5.7152324
237	0x40b5b9b9	5.678921
238	0x40b662a0	5.699539
239	0x40b4cd78	5.6500816
240	0x40b72172	5.7228327
241	0x40b82a48	5.7551613
242	0x40b4aebd	5.6463304
243	0x40b6291c	5.692518
244	0x40b54162	5.6642313
245	0x40b71b42	5.7220774
246	0x40b7f39e	5.7484884
247	0x40b609d9	5.688702
248	0x40b5896f	5.6730266
249	0x40b60b5f	5.688888
250	0x40b5b0a8	5.6778145
251	0x40b71f94	5.7226048
252	0x40b3a5ca	5.613988
253	0x40b4bc65	5.6479974
254	0x40b647b3	5.6962523
255	0x40b6d2f6	5.713252

fc2.bias f4 [122]
0	0x40cdf611	6.4362874
1	0x40cb8ebf	6.361175
2	0x40cf2186	6.472842
3	0x40c74d36	6.228175
4	0x40c2b38d	6.084418
5	0x40c72aaf	6.2239604
6	0x40c4bbaa	6.147908
7	0x40c95327	6.2914004
8	0x40c9ea81	6.309876
9	0x40ae9d01	5.4566655
10	0x40992fe0	4.787094
11	0x40cbc4cc	6.367773
12	0x40c9af9a	6.3026857
13	0x40c7aec6	6.2400846
14	0x40c70aab	6.2200522
15	0x40c38501	6.109986
16	0x40c53bb9	6.1635404
17	0x40c19e47	6.050571
18	0x40ba0af4	5.813837
19	0x40bf0ba4	5.970171
20	0x40c30765	6.0946527
21	0x40aa7087	5.3262362
22	0x40c91a84	6.284487
23	0x40c5b9b2	6.178918
24	0x40c47513	6.1392913
25	0x40c2c8f3	6.08703
26	0x40c8cb73	6.274835
27	0x40c041eb	6.0080466
28	0x4096fa5b	4.718061
29	0x40c9ee22	6.310319
30	0x40c96385	6.2933984
31	0x40a350de	5.1036215
32	0x40c230f6	6.0684767
33	0x40cb6cce	6.357032
34	0x40c916aa	6.2840166
35	0x40b936bd	5.787932
36	0x40c57eab	6.1717124
37	0x40bb5b70	5.854912
38	0x40bf3c87	5.9761386
39	0x408c5329	4.3851514
40	0x40c14c2f	6.0405498
41	0x40be6bf9	5.9506803
42	0x408efab7	4.468105
43	0x40c54c04	6.1655293
44	0x40c78568	6.235035
45	0x40c6be42	6.210725
46	0x40b57051	5.6699605
47	0x40aa58e0	5.323349
48	0x40b8c98f	5.7746043
49	0x40c28892	6.079171
50	0x406b8b47	3.6803758
51	0x40c8cf8e	6.2753363
52	0x40a99fe1	5.3007665
53	0x40c5c11e	6.179824
54	0x40c9f987	6.31171
55	0x40cc2d4d	6.38053
56	0x40c6466c	6.1960964
57	0x40bda1f5	5.92602
58	0x40c16861	6.0439916
59	0x409eab3d	4.958403
60	0x40854887	4.1651034
61	0x4025197f	2.5796812
62	0x40b1ff21	5.5623937
63	0x40919f13	4.5506682
64	0x40c624e2	6.1920023
65	0x40c8bc96	6.2730207
66	0x40c5bf41	6.1795964
67	0x40c761df	6.230697
68	0x406963b2	3.64671
69	0x4058585f	3.3803937
70	0x403b512d	2.9268296
71	0x4096dbd2	4.7143335
72	0x40464eb2	3.0985532
73	0x40853aeb	4.163442
74	0x40c256a6	6.073077
75	0x40c81db5	6.2536263
76	0x40cf4a21	6.477799
77	0x40c47eda	6.140485
78	0x40c58bb3	6.173303
79	0x40c1bb98	6.0541496
80	0x409f7140	4.9825745
81	0x40b9262e	5.7859106
82	0x40bcc393	5.898874
83	0x40b4f42b	5.6548057
84	0x40bf8d29	5.9859815
85	0x40c23654	6.069132
86	0x40c5ad87	6.1774325
87	0x40ca4989	6.3214765
88	0x40b1f592	5.561227
89	0x40c13ed4	6.0389194
90	0x408ca06f	4.394584
91	0x40b518af	5.659263
92	0x407e904b	3.977557
93	0x40be922b	5.955343
94	0x40c5ed8e	6.1852484
95	0x40c0adca	6.0212145
96	0x40c89482	6.2681284
97	0x40c9bbee	6.3041906
98	0x40c84ceb	6.2593894
99	0x40bde4e9	5.934193
100	0x405316d6	3.2982688
101	0x40c3c3ad	6.117636
102	0x40c1ebe8	6.060047
103	0x40c5a366	6.176196
104	0x40cb7b0f	6.358772
105	0x40c8a285	6.269839
106	0x40c6465e	6.1960897
107	0x40cf5acb	6.479833
108	0x40c79f67	6.2382083
109	0x40ca2bc8	6.3178444
110	0x4094119e	4.6271505
111	0x40bd2348	5.910557
112	0x40c562c9	6.1683087
113	0x40c58494	6.172434
114	0x40cc5c45	6.3862634
115	0x40c6ca24	6.2121754
116	0x40c5b603	6.178468
117	0x40cd7b00	6.4212646
118	0x40d17226	6.545184
119	0x40cfb356	6.4906416
120	0x40cc3523	6.3814864
121	0xbd7b3e88	-0.06133893

fc1.weight f4 [256, 122]
0	0x41ed2b88	29.646255
1	0x41ee6703	29.800299
2	0x41f0ea3c	30.114372
3	0x41e6052d	28.752527
4	0x41ce3f9d	25.781061
5	0x41de188e	27.76199
6	0x41db7c7f	27.43579
7	0x41e897c8	29.074112
8	0x41ecfdd4	29.62394
9	0x418f5d5f	17.920591
10	0x4180417c	16.031975
11	0x41e74909	28.910662
12	0x41e027bc	28.019402
13	0x41e1b611	28.2139
14	0x41d60426	26.752026
15	0x41ca2604	25.268562
16	0x41d45632	26.542088
17	0x41bd4422	23.658268
18	0x41a83160	21.024109
19	0x41c97c98	25.185837
20	0x41c9348e	25.150661
21	0x419eb303	19.837408
22	0x41e236ea	28.276814
23	0x41deba56	27.840984
24	0x41c91dff	25.139647
25	0x41cb4384	25.407967
26	0x41d795c3	26.948126
27	0x41ac4126	21.53181
28	0x417822d8	15.508507
29	0x41e4bb3b	28.591421
30	0x41e1b736	28.214458
31	0x41940901	18.504396
32	0x41cf55ae	25.916836
33	0x41eb20f9	29.3911
34	0x41ded7c7	27.85536
35	0x41a26e08	20.303726
36	0x41d0c317	26.095259
37	0x41ab7f0f	21.43704
38	0x41a3cb17	20.474165
39	0x41688831	14.53325
40	0x41c089b7	24.067244
41	0x41b81e33	23.014746
42	0x416cbb30	14.7957
43	0x41d79c42	26.951298
44	0x41dc8e99	27.569628
45	0x41cf8a31	25.942476
46	0x4196f379	18.868883
47	0x4185d2af	16.727873
48	0x4196cb25	18.849192
49	0x41c6e373	24.86106
50	0x414e30f2	12.88695
51	0x41cfa5ff	25.956053
52	0x4193078e	18.378689
53	0x41d85c0f	27.04495
54	0x41ed8d79	29.694078
55	0x41e741c3	28.90711
56	0x41dcabe9	27.58394
57	0x41a68f77	20.820051
58	0x41b78f2c	22.944908
59	0x4170d8e8	15.052956
60	0x4155ebc9	13.370065
61	0x415abb50	13.670731
62	0x419a9401	19.322268
63	0x41718684	15.095341
64	0x41ceb36a	25.837605
65	0x41de4701	27.78467
66	0x41e4faac	28.622398
67	0x41df54b1	27.916353
68	0x414ef98c	12.935925
69	0x414ebfc9	12.921823
70	0x414ea4f9	12.915277
71	0x41660a2b	14.377482
72	0x415593e1	13.348603
73	0x415f3e38	13.95269
74	0x41c4914f	24.570951
75	0x41e3240b	28.3926
76	0x41ed0b0f	29.6304
77	0x41d52e06	26.647472
78	0x41dcec85	27.615488
79	0x41b7a51c	22.95562
80	0x41851b05	16.638193
81	0x41a01dfe	20.014645
82	0x41b0d50a	22.104023
83	0x4191b5fc	18.21386
84	0x41c4b272	24.587132
85	0x41ca1732	25.261326
86	0x41db5b0a	27.419453
87	0x41ec4adb	29.53655
88	0x418d28d5	17.644938
89	0x41c89722	25.073795
90	0x416035d0	14.013138
91	0x41971a96	18.887981
92	0x4150d051	13.0508585
93	0x41aaf1b4	21.36802
94	0x41db2885	27.394785
95	0x41c535fe	24.651363
96	0x41dd766f	27.682829
97	0x41e909c7	29.129774
98	0x41e38dcd	28.444239
99	0x41b2d736	22.355083
100	0x414cff4b	12.812327
101	0x41c787c4	24.941292
102	0x41cbb39e	25.462704
103	0x41d189ee	26.192348
104	0x41e66054	28.797035
105	0x41e1266c	28.14376
106	0x41e3d7b8	28.480331
107	0x41f259e9	30.293901
108	0x41da2c7d	27.271723
109	0x41e2d4cd	28.353907
110	0x41847920	16.559143
111	0x41b5b673	22.714087
112	0x41d4d3f6	26.603497
113	0x41d94fa7	27.163893
114	0x41edd957	29.731123
115	0x41e464dd	28.54925
116	0x41ded0e8	27.852005
117	0x41ee5010	29.789093
118	0x41f2f4f8	30.369614
119	0x41ee7fda	29.812428
120	0x41f150a1	30.16437
121	0xbb845190	-0.0040380433
122	0x41ed2eae	29.647793
123	0x41ee4a2e	29.78622
124	0x41f0a305	30.0796
125	0x41e53929	28.65291
126	0x41ceb050	25.83609
127	0x41de10cf	27.758207
128	0x41db0b8c	27.380638
129	0x41e7fd38	28.998642
130	0x41eccd6e	29.600307
131	0x418e3b1b	17.77886
132	0x41806aea	16.052204
133	0x41e61d34	28.76426
134	0x41df1d01	27.889162
135	0x41e0f6fa	28.120594
136	0x41d5d536	26.729107
137	0x41c98171	25.188204
138	0x41d45b24	26.544502
139	0x41bc7019	23.554735
140	0x41a80969	21.004595
141	0x41c9b593	25.21366
142	0x41c9ccd0	25.225006
143	0x419f2923	19.895086
144	0x41e2324c	28.274559
145	0x41de2378	27.767319
146	0x41c7c3f3	24.970678
147	0x41cbd9c6	25.481335
148	0x41d714b6	26.885113
149	0x41ab749c	21.431938
150	0x4176f0d6	15.433798
151	0x41e4b7e5	28.589792
152	0x41e18844	28.191536
153	0x4193c48f	18.470976
154	0x41d026bb	26.018911
155	0x41eb5da4	29.420723
156	0x41dd775d	27.683283
157	0x41a1cee5	20.226023
158	0x41d0390b	26.027853
159	0x41a9cea1	21.225893
160	0x41a35556	20.416668
161	0x4167a355	14.477376
162	0x41bf1e96	23.889935
163	0x41b7dc86	22.982677
164	0x416ba578	14.727898
165	0x41d648ff	26.785643
166	0x41dbef64	27.49189
167	0x41cebc3d	25.841913
168	0x41969870	18.824432
169	0x41851713	16.636267
170	0x41975595	18.916788
171	0x41c699dc	24.825127
172	0x414dd773	12.8651
173	0x41cf4608	25.909195
174	0x4193dcd0	18.482819
175	0x41d811ae	27.008633
176	0x41ee1896	29.762005
177	0x41e7832e	28.939053
178	0x41dbbd58	27.467453
179	0x41a5bb6d	20.716516
180	0x41b62157	22.76628
181	0x4170260c	15.009289
182	0x41560d59	13.378259
183	0x4159778f	13.591689
184	0x419aab35	19.333597
185	0x4170929d	15.035794
186	0x41cea67d	25.831293
187	0x41dd9c92	27.70145
188	0x41e541cc	28.657127
189	0x41de6ed3	27.804113
190	0x414db35f	12.856292
191	0x414faade	12.979216
192	0x414f7bd9	12.967736
193	0x41653ce9	14.327371
194	0x41535426	13.208044
195	0x415ca27f	13.789672
196	0x41c4c50f	24.59622
197	0x41e27e0a	28.311543
198	0x41ed3046	29.648571
199	0x41d44e4d	26.538233
200	0x41dc45cf	27.534086
201	0x41b65678	22.792221
202	0x4184be54	16.592934
203	0x419fa321	19.954653
204	0x41b089d3	22.067297
205	0x41916f4b	18.179342
206	0x41c43f8c	24.531029
207	0x41ca683c	25.300896
208	0x41db220f	27.39163
209	0x41ebb641	29.463991
210	0x418cc93a	17.598255
211	0x41c858ec	25.043419
212	0x415d7a41	13.842347
213	0x41977699	18.932909
214	0x41517575	13.091176
215	0x41abc2df	21.470152
216	0x41db595c	27.418633
217	0x41c535a4	24.651192
218	0x41dd6d99	27.678514
219	0x41e91646	29.135876
220	0x41e28208	28.313492
221	0x41b2d4f1	22.353975
222	0x414cbeb7	12.796561
223	0x41c5d861	24.730654
224	0x41cbc7e3	25.4726
225	0x41d2476c	26.284874
226	0x41e62054	28.765785
227	0x41e11c8d	28.13894
228	0x41e38659	28.4406
229	0x41f2bbbf	30.341673
230	0x41db13bd	27.384638
231	0x41e1dbfb	28.232412
232	0x4183ef19	16.491747
233	0x41b4a67b	22.58129
234	0x41d3c7c3	26.47254
235	0x41d8f295	27.118448
236	0x41edbe64	29.717964
237	0x41e3cedd	28.476007
238	0x41df679f	27.925596
239	0x41ed26b1	29.643892
240	0x41f22167	30.26631
241	0x41ee82f8	29.81395
242	0x41f12976	30.145245
243	0x3d8afec0	0.06786871
244	0x41ec49e0	29.536072
245	0x41edb02d	29.711023
246	0x41f093e0	30.072205
247	0x41e5326f	28.649626
248	0x41ce2f05	25.772959
249	0x41de05f4	27.752907
250	0x41db6a7e	27.426998
251	0x41e72e71	28.897676
252	0x41ec3f93	29.531042
253	0x418e3a44	17.77845
254	0x417fff90	15.999893
255	0x41e5fda2	28.748844

fc1.bias f4 [256]
0	0x420e6111	35.59479
1	0x420e738c	35.61284
2	0x420e0b62	35.511116
3	0x420da8e8	35.414948
4	0x420ef509	35.739292
5	0x420d799d	35.368763
6	0x420e8a90	35.635315
7	0x420e363d	35.552967
8	0x420e2820	35.539185
9	0x420e8ffc	35.64061
10	0x420d90e6	35.391502
11	0x420d8b9d	35.38634
12	0x420eb282	35.674324
13	0x420e1cd6	35.52816
14	0x420e9cb9	35.65305
15	0x420e634a	35.596962
16	0x420e3ba8	35.558258
17	0x420eb83f	35.679928
18	0x420e8026	35.625145
19	0x420e57d2	35.585762
20	0x420ee81c	35.72667
21	0x420e2a12	35.541084
22	0x420e9ec9	35.655064
23	0x420def08	35.48343
24	0x420e2631	35.537296
25	0x420e271b	35.53819
26	0x420ea13d	35.65746
27	0x420ea8ec	35.664963
28	0x420db25a	35.42417
29	0x420e2436	35.535362
30	0x420ebe76	35.685997
31	0x420ec3bb	35.691143
32	0x420e8af4	35.635696
33	0x420ecdfc	35.701157
34	0x420dfa80	35.49463
35	0x420e054d	35.505177
36	0x420e2c57	35.5433
37	0x420deca6	35.481102
38	0x420f365f	35.803097
39	0x420ed542	35.70826
40	0x420f2887	35.789577
41	0x420f2687	35.787624
42	0x420ee27c	35.721176
43	0x420efeeb	35.748943
44	0x420e0a71	35.510197
45	0x420ec4fd	35.69237
46	0x420e4e09	35.576206
47	0x420e7657	35.615566
48	0x420ec5a5	35.693012
49	0x420ea1fd	35.65819
50	0x420ec480	35.691895
51	0x420ded23	35.48158
52	0x420e8051	35.62531
53	0x420ddb25	35.46401
54	0x420ea892	35.66462
55	0x420e58db	35.586773
56	0x420d8e7d	35.38915
57	0x420f1814	35.773514
58	0x420e72e8	35.612213
59	0x420e2a6a	35.54142
60	0x420e7f87	35.62454
61	0x420de458	35.472992
62	0x420e92ef	35.64349
63	0x420e7d9b	35.62266
64	0x420d5f8e	35.343315
65	0x420eff11	35.74909
66	0x420f2440	35.7854
67	0x420eb625	35.677876
68	0x420e1c9b	35.527935
69	0x420d57b3	35.335644
70	0x420e5ea2	35.592415
71	0x420eb75f	35.679073
72	0x420f0457	35.75424
73	0x420e64e7	35.598537
74	0x420e5d6b	35.59123
75	0x420dbbdc	35.433456
76	0x420eb8a7	35.680325
77	0x420f871f	35.881954
78	0x420dc77e	35.444817
79	0x420cae05	35.16994
80	0x420e1e4e	35.529594
81	0x420dd284	35.45558
82	0x420eadc5	35.669697
83	0x420eb1af	35.67352
84	0x420cbce9	35.184483
85	0x420efac7	35.7449
86	0x420eb4df	35.676632
87	0x420d9e07	35.404324
88	0x420e9f11	35.65534
89	0x420e07bd	35.507557
90	0x420efbd3	35.745922
91	0x420f058c	35.755417
92	0x420ed70b	35.710003
93	0x420cd607	35.20901
94	0x420e0372	35.503365
95	0x420d54da	35.332863
96	0x420d1c33	35.27754
97	0x420ede1a	35.716896
98	0x420ea8bd	35.664783
99	0x420ed9cc	35.712692
100	0x420ec08a	35.688026
101	0x420e635c	35.59703
102	0x420e79bb	35.618877
103	0x420d9f2d	35.405445
104	0x420e736c	35.612717
105	0x420ef7b9	35.741917
106	0x420de579	35.474094
107	0x420f1c27	35.777493
108	0x420e9439	35.64475
109	0x420ed69a	35.70957
110	0x420d9a70	35.400818
111	0x420bc181	34.93897
112	0x420eccf6	35.700157
113	0x420e6e6c	35.607834
114	0x420e8c9a	35.637306
115	0x420e7a89	35.619663
116	0x420ea899	35.664646
117	0x420e578e	35.585503
118	0x420ea8cb	35.664837
119	0x420f6821	35.85169
120	0x420d66df	35.35046
121	0x420f1744	35.77272
122	0x420e3c27	35.558743
123	0x420dd814	35.461014
124	0x420e5ab0	35.588562
125	0x420ed516	35.70809
126	0x420ee30b	35.72172
127	0x420f27f8	35.789032
128	0x420f19d4	35.775223
129	0x420eee05	35.73244
130	0x420ee339	35.721897
131	0x420c99c5	35.150166
132	0x420ed84e	35.711235
133	0x420e591b	35.587017
134	0x420e2d5a	35.54429
135	0x420e8abe	35.63549
136	0x420dc1f8	35.439423
137	0x420e9893	35.649
138	0x420df466	35.48867
139	0x420c9fd8	35.156097
140	0x420ee634	35.724808
141	0x420e733f	35.612545
142	0x420eaf2b	35.671062
143	0x420efa14	35.744217
144	0x420eb2e9	35.674717
145	0x420e6d6e	35.606865
146	0x420f013c	35.751205
147	0x420df2c7	35.487087
148	0x420e31c6	35.548607
149	0x420f0965	35.759174
150	0x420f3966	35.806053
151	0x420e3d21	35.559696
152	0x420ec0f6	35.68844
153	0x420ce0bf	35.21948
154	0x420e0812	35.50788
155	0x420eb101	35.672855
156	0x420f5f6d	35.84319
157	0x420c9277	35.143032
158	0x420eb78e	35.679253
159	0x420ed7a3	35.710583
160	0x420e2315	35.53426
161	0x420ef806	35.74221
162	0x420e32e6	35.549706
163	0x420e8709	35.63187
164	0x420e2edf	35.545773
165	0x420e4c1e	35.574333
166	0x420e8eaf	35.63934
167	0x420d4c10	35.32428
168	0x420eb0f0	35.67279
169	0x420e8c58	35.637054
170	0x420e47df	35.570187
171	0x420ed92d	35.712086
172	0x420e6141	35.594975
173	0x420dfb9b	35.49571
174	0x420ea86a	35.664467
175	0x420e6560	35.599
176	0x420e9202	35.642586
177	0x420db47b	35.42625
178	0x420d8f21	35.389774
179	0x420eae08	35.669952
180	0x420ec549	35.69266
181	0x420e7c50	35.6214
182	0x420e8ca2	35.637337
183	0x420e9ae3	35.651257
184	0x420e465c	35.56871
185	0x420d7042	35.359627
186	0x420e525a	35.58042
187	0x420e905b	35.640972
188	0x420c672e	35.10076
189	0x420e5a33	35.588085
190	0x420ee91b	35.727642
191	0x420e8d80	35.638184
192	0x420e9996	35.649986
193	0x420f029b	35.752544
194	0x420f45ec	35.818283
195	0x420e9867	35.64883
196	0x420ea4c8	35.66092
197	0x420c352d	35.05193
198	0x420e26e1	35.537968
199	0x420e6753	35.600903
200	0x420de6e0	35.475464
201	0x420dde5b	35.467144
202	0x420e8f6d	35.640064
203	0x420ec448	35.69168
204	0x420d9874	35.39888
205	0x420de612	35.474678
206	0x420e44cf	35.567196
207	0x420e66ba	35.60032
208	0x420d6d2a	35.356606
209	0x420db53c	35.426987
210	0x420edc1d	35.714954
211	0x420e929d	35.643177
212	0x420e8a42	35.635017
213	0x420f04e2	35.75477
214	0x420d86fc	35.38182
215	0x420d296e	35.29046
216	0x420e56e3	35.58485
217	0x420ed66e	35.709404
218	0x420e87fe	35.632805
219	0x420e48e3	35.57118
220	0x420e2d3a	35.544167
221	0x420ec9c8	35.697052
222	0x420eeb72	35.729927
223	0x420ddcb9	35.46555
224	0x420de7f6	35.476524
225	0x420c9a0d	35.15044
226	0x420e16f4	35.522415
227	0x420e95d5	35.64632
228	0x420de3f8	35.472626
229	0x420e6ccf	35.60626
230	0x420e8f2b	35.639812
231	0x420e6f8e	35.60894
232	0x420e4c73	35.574657
233	0x420ee6b7	35.725307
234	0x420e1ccd	35.528126
235	0x420ee472	35.72309
236	0x420f5fb7	35.84347
237	0x420eb0d3	35.67268
238	0x420e89a3	35.63441
239	0x420ebb5a	35.68296
240	0x420e3ac1	35.557377
241	0x420e73f4	35.613235
242	0x420e5340	35.5813
243	0x420e1758	35.522797
244	0x420d8f9b	35.39024
245	0x420dd3ae	35.45672
246	0x420e4c8c	35.574753
247	0x420f2a46	35.791283
248	0x420e05de	35.50573
249	0x420e9f2f	35.655453
250	0x420e5160	35.579468
251	0x420ed127	35.70425
252	0x420bd932	34.962105
253	0x420eae69	35.670322
254	0x420eb756	35.67904
255	0x420dea27	35.478664

fc2.weight f4 [122, 256]
0	0x40b7564d	5.729285
1	0x40b81e96	5.7537336
2	0x40b617e1	5.690415
3	0x40b6b33a	5.7093782
4	0x40b74837	5.7275653
5	0x40b75593	5.729196
6	0x40b4e875	5.653376
7	0x40b7fb36	5.7494154
8	0x40b65dc7	5.6989474
9	0x40b73b96	5.7260237
10	0x40b502a8	5.6565742
11	0x40b64ad1	5.696633
12	0x40b798d6	5.7374067
13	0x40b7563c	5.7292767
14	0x40b699e4	5.7062855
15	0x40b5dd34	5.6832523
16	0x40b67c6a	5.7026873
17	0x40b62bba	5.6928377
18	0x40b4b697	5.647289
19	0x40b571a8	5.670124
20	0x40b89ebe	5.7693777
21	0x40b7b936	5.7413588
22	0x40b7c203	5.742433
23	0x40b8381e	5.7568502
24	0x40b5ec0f	5.6850657
25	0x40b689ad	5.704306
26	0x40b502bf	5.656585
27	0x40b8aa28	5.770771
28	0x40b49c03	5.6440444
29	0x40b79340	5.736725
30	0x40b8a656	5.7703047
31	0x40b86ff6	5.763667
32	0x40b7b573	5.7408996
33	0x40b698a0	5.706131
34	0x40b5b0e3	5.6778426
35	0x40b610f3	5.689569
36	0x40b4d9c6	5.6515837
37	0x40b55c8a	5.6675463
38	0x40b81926	5.75307
39	0x40b4e955	5.653483
40	0x40b83a8c	5.757147
41	0x40b80059	5.7500424
42	0x40b59cfc	5.675413
43	0x40b77fb2	5.734338
44	0x40b65b2e	5.6986303
45	0x40b6f7ea	5.717763
46	0x40b59941	5.6749578
47	0x40b78868	5.735401
48	0x40b6aa7a	5.70831
49	0x40b66c41	5.7007146
50	0x40b83ad6	5.757182
51	0x40b51922	5.659318
52	0x40b607d7	5.688457
53	0x40b687e7	5.7040896
54	0x40b68571	5.703789
55	0x40b54f60	5.6659393
56	0x40b6539c	5.697706
57	0x40b52fad	5.66207
58	0x40b6a782	5.7079477
59	0x40b88449	5.766148
60	0x40b7c227	5.74245
61	0x40b5e08e	5.6836615
62	0x40b6fe63	5.718553
63	0x40b50446	5.6567717
64	0x40b45d9e	5.636428
65	0x40b67325	5.7015557
66	0x40b870a2	5.763749
67	0x40b6cc85	5.712466
68	0x40b48037	5.640651
69	0x40b4e416	5.6528425
70	0x40b53ac7	5.663425
71	0x40b69e7b	5.7068458
72	0x40b85084	5.7598286
73	0x40b62593	5.6920867
74	0x40b45f85	5.63666
75	0x40b63200	5.6936035
76	0x40b76eb7	5.732265
77	0x40b54f39	5.6659207
78	0x40b59e05	5.6755395
79	0x40b4d706	5.651248
80	0x40b5f11f	5.6856837
81	0x40b88805	5.766604
82	0x40b65d2b	5.698873
83	0x40b828e3	5.754991
84	0x40b5e611	5.6843343
85	0x40b7ad1c	5.7398815
86	0x40b7bf36	5.742091
87	0x40b45458	5.635296
88	0x40b88a52	5.766885
89	0x40b71581	5.721375
90	0x40b56432	5.668481
91	0x40b542dc	5.6644115
92	0x40b5bc74	5.6792545
93	0x40b3c769	5.618092
94	0x40b56f2a	5.66982
95	0x40b556a2	5.6668253
96	0x40b562a6	5.668292
97	0x40b59fe0	5.675766
98	0x40b5f6a5	5.686358
99	0x40b82041	5.7539372
100	0x40b6184d	5.6904664
101	0x40b4f5f8	5.6550255
102	0x40b762eb	5.730825
103	0x40b3ca15	5.618418
104	0x40b53c3e	5.663604
105	0x40b6a41e	5.707534
106	0x40b4ef1d	5.6541886
107	0x40b83310	5.756233
108	0x40b51913	5.659311
109	0x40b4fb18	5.655651
110	0x40b74ec6	5.728366
111	0x40b2ae42	5.5837717
112	0x40b82e4c	5.7556515
113	0x40b71f8e	5.722602
114	0x40b6da99	5.7141843
115	0x40b7ffbd	5.749968
116	0x40b6c12f	5.711082
117	0x40b6bb65	5.7103753
118	0x40b549e2	5.665269
119	0x40b54aa9	5.665364
120	0x40b4ccac	5.6499844
121	0x40b769cb	5.731664
122	0x40b859f9	5.760983
123	0x40b5e404	5.684084
124	0x40b71a87	5.721988
125	0x40b7175b	5.721601
126	0x40b6313f	5.6935115
127	0x40b548b0	5.665123
128	0x40b4d3d0	5.650856
129	0x40b7d593	5.744821
130	0x40b88c0b	5.767095
131	0x40b702cf	5.719093
132	0x40b62e89	5.6931806
133	0x40b71a8e	5.7219915
134	0x40b6b203	5.70923
135	0x40b5cecd	5.681494
136	0x40b77e0c	5.7341366
137	0x40b65026	5.6972837
138	0x40b56a52	5.6692286
139	0x40b5595f	5.6671596
140	0x40b6c383	5.711366
141	0x40b855fe	5.760497
142	0x40b564ca	5.6685534
143	0x40b7e65f	5.7468715
144	0x40b75bdd	5.729964
145	0x40b69336	5.70547
146	0x40b57134	5.6700687
147	0x40b5f499	5.686108
148	0x40b85a3f	5.7610164
149	0x40b649fc	5.6965313
150	0x40b6be31	5.7107167
151	0x40b5672c	5.668844
152	0x40b526f5	5.6610055
153	0x40b5a425	5.676287
154	0x40b79c7e	5.737853
155	0x40b6466d	5.696097
156	0x40b501e6	5.6564817
157	0x40b4fc39	5.655789
158	0x40b4d7f3	5.651361
159	0x40b809fd	5.7512193
160	0x40b603bb	5.6879554
161	0x40b54b3c	5.665434
162	0x40b6e28d	5.715155
163	0x40b56ad9	5.669293
164	0x40b4c492	5.6489954
165	0x40b668d1	5.700295
166	0x40b5f8f7	5.686641
167	0x40b55109	5.666142
168	0x40b88b75	5.7670236
169	0x40b8689f	5.762771
170	0x40b4c647	5.649204
171	0x40b79bb5	5.737757
172	0x40b83271	5.7561574
173	0x40b5e3f4	5.6840763
174	0x40b474db	5.6392646
175	0x40b68171	5.703301
176	0x40b6e7c4	5.7157917
177	0x40b658e1	5.6983495
178	0x40b482a3	5.640947
179	0x40b53d28	5.6637154
180	0x40b620f6	5.6915236
181	0x40b5673d	5.6688523
182	0x40b79382	5.7367563
183	0x40b7660d	5.7312074
184	0x40b4dd88	5.6520424
185	0x40b55b2b	5.667379
186	0x40b56d1d	5.6695695
187	0x40b76f74	5.732355
188	0x40b3804b	5.609411
189	0x40b6ae04	5.708742
190	0x40b6835d	5.7035356
191	0x40b7f8b5	5.7491097
192	0x40b6f3e8	5.7172737
193	0x40b7597b	5.729673
194	0x40b5adfc	5.6774883
195	0x40b64188	5.6954994
196	0x40b55963	5.6671615
197	0x40b4cc78	5.6499596
198	0x40b6592d	5.6983857
199	0x40b782a0	5.7346954
200	0x40b483f1	5.641106
201	0x40b6a6cb	5.7078605
202	0x40b6ca19	5.71217
203	0x40b790c4	5.7364216
204	0x40b55507	5.6666293
205	0x40b85956	5.7609053
206	0x40b5d802	5.682618
207	0x40b67b1f	5.7025294
208	0x40b6b2b0	5.7093124
209	0x40b65c66	5.698779
210	0x40b67543	5.701814
211	0x40b7085f	5.719772
212	0x40b7f097	5.748119
213	0x40b8b9f7	5.772701
214	0x40b446a8	5.633625
215	0x40b4f491	5.6548543
216	0x40b7f69b	5.748853
217	0x40b882ba	5.765958
218	0x40b69d62	5.706712
219	0x40b6429b	5.6956306
220	0x40b7f732	5.748925
221	0x40b74b7f	5.727966
222	0x40b89425	5.768084
223	0x40b54db5	5.6657357
224	0x40b71226	5.7209654
225	0x40b52986	5.661319
226	0x40b73bed	5.726065
227	0x40b84209	5.758061
228	0x40b84185	5.757998
229	0x40b74038	5.726589
230	0x40b7dc4d	5.745642
231	0x40b64ddc	5.6970043
232	0x40b73165	5.7247796
233	0x40b5972a	5.6747026
234	0x40b54634	5.6648197
235	0x40b83c31	5.7573476
236	0x40b6e32f	5.7152324
237	0x40b5b9b9	5.678921
238	0x40b662a0	5.699539
239	0x40b4cd78	5.6500816
240	0x40b72172	5.7228327
241	0x40b82a48	5.7551613
242	0x40b4aebd	5.6463304
243	0x40b6291c	5.692518
244	0x40b54162	5.6642313
245	0x40b71b42	5.7220774
246	0x40b7f39e	5.7484884
247	0x40b609d9	5.688702
248	0x40b5896f	5.6730266
249	0x40b60b5f	5.688888
250	0x40b5b0a8	5.6778145
251	0x40b71f94	5.7226048
252	0x40b3a5ca	5.613988
253	0x40b4bc65	5.6479974
254	0x40b647b3	5.6962523
255	0x40b6d2f6	5.713252

fc2.bias f4 [122]
0	0x40cdf611	6.4362874
1	0x40cb8ebf	6.361175
2	0x40cf2186	6.472842
3	0x40c74d36	6.228175
4	0x40c2b38d	6.084418
5	0x40c72aaf	6.2239604
6	0x40c4bbaa	6.147908
7	0x40c95327	6.2914004
8	0x40c9ea81	6.309876
9	0x40ae9d01	5.4566655
10	0x40992fe0	4.787094
11	0x40cbc4cc	6.367773
12	0x40c9af9a	6.3026857
13	0x40c7aec6	6.2400846
14	0x40c70aab	6.2200522
15	0x40c38501	6.109986
16	0x40c53bb9	6.1635404
17	0x40c19e47	6.050571
18	0x40ba0af4	5.813837
19	0x40bf0ba4	5.970171
20	0x40c30765	6.0946527
21	0x40aa7087	5.3262362
22	0x40c91a84	6.284487
23	0x40c5b9b2	6.178918
24	0x40c47513	6.1392913
25	0x40c2c8f3	6.08703
26	0x40c8cb73	6.274835
27	0x40c041eb	6.0080466
28	0x4096fa5b	4.718061
29	0x40c9ee22	6.310319
30	0x40c96385	6.2933984
31	0x40a350de	5.1036215
32	0x40c230f6	6.0684767
33	0x40cb6cce	6.357032
34	0x40c916aa	6.2840166
35	0x40b936bd	5.787932
36	0x40c57eab	6.1717124
37	0x40bb5b70	5.854912
38	0x40bf3c87	5.9761386
39	0x408c5329	4.3851514
40	0x40c14c2f	6.0405498
41	0x40be6bf9	5.9506803
42	0x408efab7	4.468105
43	0x40c54c04	6.1655293
44	0x40c78568	6.235035
45	0x40c6be42	6.210725
46	0x40b57051	5.6699605
47	0x40aa58e0	5.323349
48	0x40b8c98f	5.7746043
49	0x40c28892	6.079171
50	0x406b8b47	3.6803758
51	0x40c8cf8e	6.2753363
52	0x40a99fe1	5.3007665
53	0x40c5c11e	6.179824
54	0x40c9f987	6.31171
55	0x40cc2d4d	6.38053
56	0x40c6466c	6.1960964
57	0x40bda1f5	5.92602
58	0x40c16861	6.0439916
59	0x409eab3d	4.958403
60	0x40854887	4.1651034
61	0x4025197f	2.5796812
62	0x40b1ff21	5.5623937
63	0x40919f13	4.5506682
64	0x40c624e2	6.1920023
65	0x40c8bc96	6.2730207
66	0x40c5bf41	6.1795964
67	0x40c761df	6.230697
68	0x406963b2	3.64671
69	0x4058585f	3.3803937
70	0x403b512d	2.9268296
71	0x4096dbd2	4.7143335
72	0x40464eb2	3.0985532
73	0x40853aeb	4.163442
74	0x40c256a6	6.073077
75	0x40c81db5	6.2536263
76	0x40cf4a21	6.477799
77	0x40c47eda	6.140485
78	0x40c58bb3	6.173303
79	0x40c1bb98	6.0541496
80	0x409f7140	4.9825745
81	0x40b9262e	5.7859106
82	0x40bcc393	5.898874
83	0x40b4f42b	5.6548057
84	0x40bf8d29	5.9859815
85	0x40c23654	6.069132
86	0x40c5ad87	6.1774325
87	0x40ca4989	6.3214765
88	0x40b1f592	5.561227
89	0x40c13ed4	6.0389194
90	0x408ca06f	4.394584
91	0x40b518af	5.659263
92	0x407e904b	3.977557
93	0x40be922b	5.955343
94	0x40c5ed8e	6.1852484
95	0x40c0adca	6.0212145
96	0x40c89482	6.2681284
97	0x40c9bbee	6.3041906
98	0x40c84ceb	6.2593894
99	0x40bde4e9	5.934193
100	0x405316d6	3.2982688
101	0x40c3c3ad	6.117636
102	0x40c1ebe8	6.060047
103	0x40c5a366	6.176196
104	0x40cb7b0f	6.358772
105	0x40c8a285	6.269839
106	0x40c6465e	6.1960897
107	0x40cf5acb	6.479833
108	0x40c79f67	6.2382083
109	0x40ca2bc8	6.3178444
110	0x4094119e	4.6271505
111	0x40bd2348	5.910557
112	0x40c562c9	6.1683087
113	0x40c58494	6.172434
114	0x40cc5c45	6.3862634
115	0x40c6ca24	6.2121754
116	0x40c5b603	6.178468
117	0x40cd7b00	6.4212646
118	0x40d17226	6.545184
119	0x40cfb356	6.4906416
120	0x40cc3523	6.3814864
121	0xbd7b3e88	-0.06133893
